classifier.pth (torch, 83304 bytes, 4 tensors)

linear1.weight f4 [100, 200]
00000000: 0887 3eb9 ac3c 49ba 3508 61ba 2fec 8fb9
00000010: 448d 3b3a f782 86b8 6d84 a4b9 5ec9 9cb9
00000020: 54e0 a2b9 ccff f1b8 ef96 acb9 4e40 42b9
00000030: 4f24 18ba d9fd 18b9 850e 813a e708 94b9
00000040: 41d6 89b9 027a 3cb4 5f6d 829a 7b0c 8ab9
00000050: 5fed d2b9 e1fc bc9c 629c 9437 5902 ec39
00000060: c86a 9899 8111 db99 e94b 991b 8d18 c6b9
00000070: d8b3 94b9 a805 0637 4837 a4b8 921a 6e1a
00000080: 5936 b3b9 a947 9bb9 d37c 50b9 a402 78b8
00000090: d61c b339 0708 5537 9f42 38b9 890b dab8
000000a0: 830e d82c 986e d5b9 6bb8 41b8 408b 13b9
000000b0: 22c1 a0b9 3013 4e9a a22f 713a 825c 6bb9
000000c0: 4756 3eb8 faa2 d239 9be4 211b a7e8 a5b9
000000d0: 5944 3db9 53e8 b2b9 3516 d3b9 1ca7 8db9
000000e0: 7093 81b9 dbb9 341a c708 4ab9 f653 2fb9
000000f0: f57e 121b 2769 d59a 9f1e 7434 b3c5 8b24
00000100: b2af eab8 872c 2b39 7e4e adb9 8fb8 bd1a
00000110: a0e1 081a 1c49 7239 51a5 37ba cd83 14ba
00000120: 6d86 b1b8 0bb4 90b9 a2f9 6db9 00d3 1a1c
00000130: 0375 2bb9 7f17 0d1b 46c9 239c 5b8e bcb8
00000140: 3f82 df39 b056 f038 ccf8 c0b6 21a6 bdb9
00000150: a949 df9b d435 bd31 81fd 31ba e9f4 f7b7
00000160: 5f89 d5b9 b03b 63b7 8110 05b9 6297 dab7
00000170: 9ec4 189c b785 9fb9 8bef da39 c372 6338
00000180: 52c7 8c97 5838 b4b9 efe4 1b1c 45b3 54b9
00000190: fce4 7639 cade d6b9 8a61 b7b9 88e0 a7b9
000001a0: 0782 d9b7 bce3 c799 6bb8 8b38 8c69 93b7
000001b0: 8dfa ae39 2a7e 0619 26b4 a639 6b4f 4cba
000001c0: e2a5 a338 7358 80b9 4544 2e9c 6888 6cb9
000001d0: 2c78 68b9 4fe8 3b9b 25b6 abb9 882c 619b
000001e0: db64 03b8 a0d9 6eb3 1de6 a298 ca80 1ab9
000001f0: 76c8 0c39 4b61 95ba 501c 9bb9 52a5 2cb9
00000200: 91d2 4998 fe36 e0b9 d3fe 24b9 9fdb f598
00000210: f52e 9ab9 5f5e cc19 1a39 f21a 7b86 19b9
00000220: 7546 e638 1f80 4cb7 aa7b 6eba b633 00b9
00000230: fce1 0fb9 dafe 4a98 536e 1db8 7186 b999
00000240: 2078 49b3 7a77 d0b8 c4fa 05b9 34ab bfb4
00000250: f30b 31ba f910 79ba 3dcc 29b8 6024 1f39
00000260: cf46 8eb9 bce3 5f1a 5f45 a9b9 e056 a8b9
00000270: 503a 281a b08d a032 61da a3b9 f8f7 fa1b
00000280: 4fc2 8db9 e018 209b 2026 6ab9 01cb 22ba
00000290: bda0 ba9a 017d 57b9 8a48 4831 a016 35b9
000002a0: cb03 06b9 8b5b e136 447e 3319 1a77 1db9
000002b0: 40bb 769a c6e4 8cb9 7734 0f9d 6af2 283a
000002c0: c6c0 039c ac11 e8b9 ed60 9c3a a804 1dba
000002d0: 566e 55ba f66a a538 9196 c2ac 8723 2bb9
000002e0: 5a70 d736 244f 01b9 5027 e5b9 d743 e3b8
000002f0: 85e0 5fb9 3db6 79ba c2b3 c5b8 d60b 4a38
00000300: e937 cbb9 2849 75b9 eecb a298 f984 a5b9
00000310: 2a3d 1839 a241 ceba 6c2d 51b8 b7c3 02ba
00000320: 77d9 87b8 cafd 9bb7 4a31 a0b9 dac8 b8b8
00000330: 713d 05b8 082b 53b9 4116 37b8 e056 01b9
00000340: eaa3 00b7 0b35 13b9 56f4 f8b9 cb84 44b7
00000350: 4e19 d1b8 30f2 91b9 27f4 8fb8 aceb b1b8
00000360: cde5 86b8 5850 1319 d382 251a bd2f 7eb9
00000370: 9953 20b8 91b8 9c1b 1bf6 2f33 47bc 50b8
00000380: c08c 7b19 0ab6 829b b20d 481b f3ba 2fb8
00000390: cca9 36b7 3d54 0431 3582 93b7 b600 3a1b
000003a0: caad 57b8 78b1 32b9 458c 2bb8 be79 73b9
000003b0: 4cc7 2835 1ef5 0bb9 17dc 10b7 d66e 93b3
000003c0: 3740 ed1b 329b 80b8 e005 83b7 9200 c7b8
000003d0: 96c2 0ab9 e864 221b 48a8 57b9 e00b 7bb9
000003e0: 9289 d0b4 a524 f2b8 0076 cc99 59b7 80b8
000003f0: 602b 1bb6 32db 8eb8 6cdf 88b7 1e0e 6c36
-0.00018170115 -0.00076765823 -0.0008584292 -0.00027451056 0.0007154534 -6.414012e-05 -0.00031379182 -0.0002990467
-0.00031066185 -0.000115394214 -0.0003291885 -0.00018525237 -0.000580375 -0.00014590415 0.0009846246 -0.00028235393
-0.00026290308 -1.755325e-07 -5.394344e-23 -0.0002633071 -0.00040231177 -1.2506164e-21 1.7715796e-05 0.00045015177
-1.575956e-23 -2.2651139e-23 2.5360783e-22 -0.00037783795 -0.00028362754 7.988339e-06 -7.830426e-05 4.923871e-23
-0.00034182033 -0.00029617295 -0.00019882926 -5.9130267e-05 0.00034163025 1.2697658e-05 -0.00017572426 -0.00010397199
6.1407004e-12 -0.00040708925 -4.618654e-05 -0.00014070887 -0.00030661473 -4.26153e-23 0.0009200518 -0.00022445808
-4.5379882e-05 0.00040175748 1.3391474e-22 -0.00031644592 -0.00018049906 -0.000341239 -0.00040261602 -0.00027018122
-0.00024714647 3.737326e-23 -0.00019267491 -0.00016720578 1.2117859e-22 -8.826462e-23 2.273541e-07 6.0616556e-17
-0.00011190715 0.00016324419 -0.00033055613 7.846674e-23 2.83064e-23 0.00023106154 -0.000700553 -0.0005665392
-8.4650565e-05 -0.00027599963 -0.00022695077 5.1227037e-22 -0.00016351421 1.1670839e-22 -5.4192316e-22 -8.991054e-05
0.00042630915 0.000114602386 -5.7510097e-06 -0.00036172665 -3.6939857e-22 5.5067435e-09 -0.0006789789 -2.955874e-05
-0.00040728875 -1.3544151e-05 -0.00012690017 -2.6058118e-05 -5.0546703e-22 -0.0003042647 0.00041758674 5.4227898e-05
-9.097603e-25 -0.00034374255 5.158109e-22 -0.00020284679 0.00023545692 -0.00040983252 -0.00034977152 -0.0003202001
-2.5928965e-05 -2.0668099e-23 6.662387e-05 -1.7572915e-05 0.0003337454 6.953116e-24 0.00031796208 -0.00077938166
7.803344e-05 -0.00024479962 -5.7660007e-22 -0.00022557529 -0.00022170012 -1.554334e-22 -0.0003275137 -1.8625953e-22
-3.1326763e-05 -5.5611622e-08 -4.2108374e-24 -0.00014734562 0.00013426118 -0.0011396793 -0.00029584998 -0.00016464785
-2.608495e-24 -0.00042765582 -0.00015735188 -6.3552776e-24 -0.00029408155 2.1131222e-23 1.00181107e-22 -0.00014641315
0.00010980378 -1.2189178e-05 -0.0009097407 -0.00012226295 -0.00013721728 -2.6236555e-24 -3.7534464e-05 -1.9182852e-23
-4.6908212e-08 -9.940467e-05 -0.00012777286 -3.570109e-07 -0.0006753795 -0.00095011253 -4.048295e-05 0.00015176972
-0.00027137107 4.629928e-23 -0.00032285877 -0.00032108184 3.478869e-23 1.8690884e-08 -0.00031252488 4.1519277e-22
-0.00027038387 -1.3242927e-22 -0.00022330182 -0.00062100595 -7.7187484e-23 -0.00020550565 2.9145064e-09 -0.00017269934
-0.00012780649 6.7161795e-06 9.279582e-24 -0.00015017056 -5.1022867e-23 -0.0002687333 -1.8953016e-21 0.0006444814
-4.359342e-22 -0.00044263655 0.0011930742 -0.00059897685 -0.00081417465 7.887736e-05 -5.530528e-12 -0.00016321066
6.4205788e-06 -0.00012331881 -0.00043707574 -0.0001083684 -0.00021350577 -0.0009525752 -9.4271745e-05 4.8171576e-05
-0.00038760834 -0.00023392274 -4.2081935e-24 -0.00031570325 0.00014518635 -0.0015736113 -4.9871785e-05 -0.000498827
-6.4778076e-05 -1.859562e-05 -0.000305543 -8.811215e-05 -3.1766893e-05 -0.00020138558 -4.3651326e-05 -0.00012334762
-7.667559e-06 -0.00014038772 -0.0004748429 -1.1713429e-05 -9.97061e-05 -0.00027837 -6.864248e-05 -8.483915e-05
-6.432422e-05 7.615947e-24 3.422688e-23 -0.00024241112 -3.822483e-05 2.5927308e-22 4.0969194e-08 -4.976641e-05
1.300482e-23 -2.1624336e-22 1.6548037e-22 -4.189736e-05 -1.0887579e-05 1.9256412e-09 -1.7584398e-05 1.5385789e-22
-5.142185e-05 -0.00017041515 -4.0900213e-05 -0.00023219638 6.287489e-07 -0.00013347386 -8.6343125e-06 -6.865382e-08
3.924986e-22 -6.132423e-05 -1.5619153e-05 -9.489166e-05 -0.00013233194 1.343293e-22 -0.00020566687 -0.00023941649
-3.8843115e-07 -0.00011546285 -2.1140765e-23 -6.137667e-05 -2.3122047e-06 -6.811916e-05 -1.6316502e-05 3.5174958e-06

linear1.bias f4 [100]
00000000: 74cd 2eba 6e35 3db9 e65c 0dbd f497 8abc
00000010: 253c 26bd 4014 463d 6862 84bc d052 bd3d
00000020: bb88 71bc cb82 92bc 3de4 0bbb e267 113c
00000030: c782 803d 9514 9f3c 3077 17bd b42c 68bc
00000040: f6c3 513c a52a 633d 4445 d93b 02bb d3bc
00000050: 06ac f6bc a6db 25bd e40e 7bbd 3cb1 043c
00000060: 9552 f83d 9888 3f3d ae22 b8b7 574e 3abc
00000070: acb2 8fbd ee74 59bd 2ab2 dd3d 9c43 a63c
00000080: f829 c3bc 7229 f8bc dfb3 853c add1 54bc
00000090: 0346 bfb8 592e 11bb 6774 dbbc d344 debc
000000a0: dcba 89bd 4a54 943d 7990 1d3d e944 89bd
000000b0: f8f1 d0bb 2255 acbc 61e4 2d3d 5c88 03ba
000000c0: 152a babc fee2 8f3c abc9 4e3b fd39 bb3c
000000d0: 8430 b33d de0c 06bc 1c9c 8b3b 174d 353d
000000e0: 9c32 a4bb 9a9c a5bd 97ad 37bd 15a4 be3d
000000f0: 0ad0 b53d 86e0 53bd 4e21 03bb e7e1 b23d
00000100: 0638 7d3d b7d4 97bb 5304 633d 1574 e9bb
00000110: 4b78 9cbc b88f ef3a 88fe b0bb 1aa5 953b
00000120: 0ab2 3bbc 98f1 a3bd 6574 0cbd 3d71 3ebd
00000130: 31b8 03bd 7935 fb3c 460f 943d 71a7 85bd
00000140: 31eb 28b9 aaee 5cbd 3954 06bd cffe 50bc
00000150: 9ac0 243d 492c c4bb 2956 69b5 63d2 1e3b
00000160: 2d19 8bbd c98a ac3d 01e4 5e3d 72ec 99bd
00000170: 7f67 533d b254 383c f5c6 bb3d cdc5 8abd
00000180: 585e e1bc 79fd b23d 1750 50bc a9b4 043c
-0.0006668188 -0.00018044349 -0.034512423 -0.01691816 -0.040584702 0.048359156 -0.016160205 0.09244311
-0.014742072 -0.017884633 -0.0021345757 0.008874865 0.06274944 0.019418994 -0.0369789 -0.014170814
0.012803068 0.05546059 0.0066305716 -0.025846008 -0.030111324 -0.040492676 -0.061293498 0.008098897
0.12125126 0.046761125 -2.1950658e-05 -0.011371217 -0.07016501 -0.05309003 0.10824998 0.02029591
-0.023823723 -0.0302932 0.01632112 -0.012989444 -9.1206304e-05 -0.002215287 -0.026788903 -0.027132427
-0.06725094 0.07242639 0.038467858 -0.06702597 -0.006376501 -0.021036688 0.042454127 -0.00050175725
-0.022725144 0.017564293 0.003155331 0.0228548 0.08749488 -0.008181779 0.004260553 0.04426297
-0.005010916 -0.0808651 -0.044843283 0.0930864 0.08877571 -0.051727794 -0.0020008865 0.08734494
0.061821006 -0.004633512 0.055424046 -0.0071244338 -0.019100329 0.0018277084 -0.0054014362 0.004566801
-0.011456022 -0.08005065 -0.03429069 -0.04649471 -0.03215808 0.030665146 0.07229476 -0.065260775
-0.00016109344 -0.053938545 -0.032795165 -0.012756064 0.04022274 -0.0059867245 -8.6924643e-07 0.0024234287
-0.06791911 0.08424909 0.05441666 -0.075158015 0.051612373 0.011250662 0.091688074 -0.06776009
-0.027510807 0.08739752 -0.012714407 0.008099713

linear2.weight f4 [2, 100]
00000000: dbb9 053c 8355 63bb bd42 44be dfe8 313d
00000010: 4b13 6fbe 7a6a 503e dcc9 2ebc 5743 473e
00000020: f903 4fbc 82f5 69bd 26c3 09bd 56ab 63be
00000030: 96a8 093e 70ae b33e afc7 c0be 3b1e 383e
00000040: aa5a 0e3f f8a9 903e 77f7 093d fb84 aeba
00000050: 41cb 50be 7838 69be 9075 46bf 4ac3 ecbd
00000060: a513 ea3e 891c 843e 5c4a 833a 4c6b 34be
00000070: 8718 23be 69d0 89be e0c0 673e c6f0 833e
00000080: 4300 a8bd 0116 09bf 8871 81be ec80 f9bc
00000090: df00 df36 1e71 00bc 0989 41be fcaf 833d
000000a0: dab2 9bbe 6aa3 313e 4db6 803e 090e 80be
000000b0: 7532 2abe f40d b8bd 77c2 33bd cae4 12ba
000000c0: 13c3 79be 66c3 7fbe 28dc 7cbe 63b5 173e
000000d0: d7a6 c23e 6014 493e 0305 983e 4716 813e
000000e0: acd5 90be 2932 91be d716 60be 8560 783e
000000f0: f1ee 7c3e 8796 2fbe 90e0 0ab9 550e d13d
00000100: 5523 143e c634 f6be 6e6e d83d afa0 9ebc
00000110: 5c13 243e 5a97 193e b110 61be 8b37 51be
00000120: 3c30 143e 8f95 68be d667 3dbd 41ca 14be
00000130: d385 87be 2c6f dabd 885e 513e 4131 c7bd
00000140: 8e4d 223c 045b 51bd 1438 643d 295e aabc
00000150: d313 033e 008a 5f3e 4f4b 07b7 16ad 1dbe
00000160: 7e80 96be 65cb ad3e dba0 263e 9dd4 30be
00000170: 3c6a 833e 4733 0cbe dcd4 7e3e d38d f3be
00000180: e488 41bd bbe6 823e fc23 94be fd9b 893e
00000190: 354a ca3b 6be5 fa3a fb08 503e 3811 0c3d
000001a0: 0a85 293e 9b98 80be a055 353c 5925 7bbe
000001b0: 4d18 b63c 52f0 303e 9773 38bc eedf 373e
000001c0: 928b 86be e477 abbe 10cf 033f a2a7 8ebe
000001d0: 82b9 e2be b7b9 8ebe f774 673b 4a5a e93a
000001e0: 233d 343e cc0a 8a3e 0ea3 383f d75a 7f3e
000001f0: 66ef d1be ce1d aebe 8185 ebba c430 283e
00000200: 5098 3b3e 7f14 3c3e c467 a3be 5dd8 d4be
00000210: c055 acbd 3357 f93e 7c2b 023e 52ed 8abd
00000220: bbd5 4937 904c 003c 6014 953e 26c6 a4bd
00000230: 9886 923e 1c97 57be 890a 87be 262f 153e
00000240: 3d7a 553e 9181 313e 753e 02bd 12aa 7d39
00000250: 12d5 a83e 8a08 6a3e 0695 9b3e ef0e 51be
00000260: fe9c 8cbe 3cf0 83bd daae 38be 394d 86be
00000270: c6ab ac3e 2ea6 1f3e d8bb 8f3e 31c4 98be
00000280: 9ad3 b0bd 6021 023e 44f8 57bc 8387 64be
00000290: 9ecc 75be bb57 043f 915a f9bd a32f d3ba
000002a0: e60e 61be 2e99 f7bd ec52 9e3e d6d1 333e
000002b0: 886b 35be c8e4 053e 142d 323d d489 7e3e
000002c0: 6f5b 2c3e de95 7d3e 593c d1bd 9bdc dc3d
000002d0: 6346 20bc 3095 413c 9a10 1e3d 1866 aa3c
000002e0: e0e4 79be 5fca 0ebe 0b5b 2737 84e7 393e
000002f0: 2087 783e 2759 91be 0527 4abe ea1c 673e
00000300: 923e 78be 8943 013e a67a 3dbe e361 0d3f
00000310: dd8e 1d3e 94d8 76be dcdb 403e d479 8abe
0.008161987 -0.003468842 -0.19166084 0.043434974 -0.23347203 0.20353118 -0.010668244 0.19459282
-0.0126352245 -0.0571189 -0.033633374 -0.22233328 0.13443217 0.35094023 -0.37652346 0.17980282
0.5560709 0.28254676 0.033683266 -0.0013314778 -0.20390035 -0.22775447 -0.77523136 -0.11560686
0.45718113 0.2580302 0.0010016668 -0.17619056 -0.15927325 -0.26916817 0.2263217 0.25769633
-0.08203175 -0.535492 -0.2528193 -0.030456983 6.6460193e-06 -0.007839469 -0.18899931 0.06430051
-0.3040989 0.17347494 0.25139084 -0.25010708 -0.1662081 -0.08987036 -0.043886628 -0.000560355
-0.24390821 -0.24976882 -0.24693358 0.14815287 0.38017914 0.19636679 0.29691324 0.2521231
-0.2828802 -0.28358582 -0.21883713 0.2425557 0.24700524 -0.17147265 -0.00013244362 0.10207812
0.14466603 -0.48087138 0.10567938 -0.01936373 0.1602301 0.14999142 -0.21979024 -0.20431344
0.14471525 -0.22713302 -0.046241604 -0.14530279 -0.26469287 -0.106657356 0.20446217 -0.09726191
0.009906186 -0.05111219 0.055717543 -0.020796852 0.12800531 0.21829987 -8.064161e-06 -0.15398058
-0.29394907 0.3394424 0.16272299 -0.17268606 0.25666988 -0.13691436 0.24885887 -0.4756914
-0.04724969 0.25566658 -0.28933704 0.26876822 0.006173397 0.0019141858 0.20315926 0.03419611
0.16554657 -0.2511643 0.011067778 -0.24525966 0.022228384 0.17279175 -0.0112580275 0.17956516
-0.2627836 -0.33489907 0.5148783 -0.2786227 -0.44282156 -0.27876064 0.003531752 0.0017803397
0.17601447 0.26961362 0.721238 0.24936996 -0.4100296 -0.34007114 -0.0017968864 0.16424853
0.18319821 0.18367194 -0.31915104 -0.41571322 -0.08414793 0.4869934 0.127119 -0.067835465
1.2030297e-05 0.007830754 0.29117107 -0.08045606 0.28618312 -0.21053737 -0.26375225 0.14568767
0.20847411 0.17334582 -0.031797845 0.00024191316 0.3297506 0.2285482 0.30387133 -0.20415853
-0.27463526 -0.064423054 -0.1803545 -0.2623079 0.33724803 0.15590736 0.28073 -0.29837182
-0.0863411 0.12708044 -0.01318175 -0.22317319 -0.24003837 0.51696366 -0.12175477 -0.0016112219
-0.2197834 -0.120897636 0.3092264 0.17560515 -0.17716801 0.13075554 0.04350002 0.24857265
0.16831754 0.24764201 -0.102165885 0.10784265 -0.0097824065 0.011815354 0.03859005 0.020800635
-0.24403715 -0.13944386 9.975173e-06 0.18154722 0.24270296 -0.2838833 -0.19741447 0.22569624
-0.24242619 0.12623419 -0.18503818 0.5522749 0.1538653 -0.24106055 0.1883387 -0.27046072

linear2.bias f4 [2]
00000000: e245 53bc c356 ebbd
-0.012895079 -0.11491158
