classifier_50_ccs_epochs.pth (torch, 2494 bytes, 2 tensors)

linear.weight f4 [2, 100]
0	0x3e416155	0.18884785
1	0xbe96cd4a	-0.29453498
2	0xbe4505a2	-0.1924043
3	0x3c8c30f6	0.01711319
4	0xbe1ac4b1	-0.15114094
5	0xbe9956a1	-0.29948905
6	0x3c146d43	0.009059253
7	0x3c81de6b	0.015853127
8	0x3e4f2b64	0.20231396
9	0x3d83fd08	0.06444746
10	0xbd9c5451	-0.076332696
11	0x3e0a02d2	0.13477638
12	0x3e3f8145	0.18701656
13	0xbd935cb1	-0.07195414
14	0xbd940501	-0.07227517
15	0xbc979d26	-0.018507551
16	0xbde80965	-0.11329917
17	0xbdb3e46a	-0.08783801
18	0x3b2351e6	0.0024920641
19	0x3cbe145c	0.023203067
20	0xbe43d3bf	-0.19123743
21	0xbdea1c65	-0.11431197
22	0xbea526c7	-0.32256147
23	0xbdceabbb	-0.10091349
24	0x3df8af49	0.12142808
25	0xbdd1c61d	-0.10242865
26	0xbe409032	-0.18805006
27	0xbd654b37	-0.055979934
28	0x3e1b7668	0.15181887
29	0x3df6409c	0.12024042
30	0x3cfaab50	0.030599266
31	0xbe7ebd4a	-0.24876896
32	0xbe800e70	-0.25011015
33	0xbcb83d3d	-0.022490138
34	0x3e436e84	0.19085127
35	0x3e7db644	0.2477656
36	0x3e683c84	0.22679335
37	0xbe64f110	-0.22357583
38	0x3e23ee49	0.16008867
39	0x3e1a7d11	0.15086772
40	0x3e890e95	0.26768938
41	0xbe1fc02b	-0.1560065
42	0x3ea91203	0.33021554
43	0x3bd2940f	0.0064263414
44	0x3e782049	0.24231066
45	0x3e1262dd	0.14295526
46	0xbe4ad42d	-0.19807501
47	0xbe1b8ad9	-0.15189685
48	0x3d34ea99	0.044169042
49	0xbc2042f0	-0.009781584
50	0x3df37830	0.11888158
51	0xbe2d3cbc	-0.169177
52	0xbd334149	-0.043763433
53	0xbdec2bf6	-0.115318224
54	0x3e828185	0.2548944
55	0x3b8aff44	0.004241856
56	0xbe305271	-0.17218949
57	0x3dfcc45d	0.12342141
58	0xbe2ce9af	-0.16886018
59	0xbe66632e	-0.22498772
60	0x3e01715e	0.12640902
61	0x3db4e219	0.08832187
62	0x3e43f3ad	0.19135924
63	0x3e4eddda	0.20201817
64	0xbd992183	-0.07477095
65	0x3df1c354	0.11804834
66	0x3d278456	0.04089769
67	0xbd6bdd64	-0.05758418
68	0xbeac28b3	-0.336248
69	0x3d93d678	0.07218641
70	0x3de959f5	0.11394111
71	0x3e0cd1cd	0.13751908
72	0xbda85644	-0.08219579
73	0xbe5bd7ae	-0.21468994
74	0xbd93580f	-0.0719453
75	0x3e34969e	0.17635581
76	0x3e05d29f	0.13068627
77	0x3d08fa03	0.033441555
78	0x3e6137a7	0.21993886
79	0x3e2ac780	0.16677666
80	0xbe86cb8c	-0.2632717
81	0xbd6a5515	-0.057210047
82	0x3dc88a12	0.0979196
83	0x3e5edc2c	0.21763676
84	0x3a4ac082	0.00077343744
85	0xbc2934c0	-0.010327518
86	0xbea771b7	-0.32703945
87	0x3cdb6bd9	0.026784824
88	0xbd60ab84	-0.05485107
89	0xbd76c497	-0.060246076
90	0x3e2252ee	0.15851948
91	0xbe47b747	-0.19503509
92	0xbe9d395c	-0.30707824
93	0xbd15c661	-0.036566142
94	0xbe290adb	-0.16508047
95	0xbd8b50f4	-0.0680255
96	0x3e189dd1	0.14903952
97	0xbbcedfe6	-0.006313312
98	0x3ec16398	0.37771297
99	0xbe4aff5e	-0.19823977
100	0xbcd031d2	-0.025414381
101	0x3e39bccd	0.18138428
102	0x3df548f9	0.11976809
103	0xbdc18435	-0.094490446
104	0x3b4461f3	0.002996561
105	0x3e620966	0.22073898
106	0x3dbd221f	0.09235024
107	0x3d3b6c1b	0.045757394
108	0xbdc6ffa5	-0.09716729
109	0xbe41449d	-0.1887383
110	0xba9bfd0c	-0.0011900975
111	0xbe65d26e	-0.22443554
112	0xbe252fbd	-0.16131492
113	0x3d0cfd31	0.03442115
114	0x3e21bed7	0.15795456
115	0xbd9d6b7a	-0.07686515
116	0x3e6c9036	0.23101887
117	0x3cc72e59	0.024314092
118	0x3d9f0916	0.07765405
119	0x3d68f8f5	0.05687805
120	0x3ea13f3f	0.31493565
121	0x3d317bf5	0.043331105
122	0x3e89463f	0.26811406
123	0x3d3c53c1	0.04597831
124	0xbe7e8940	-0.24857044
125	0x3e30a923	0.1725202
126	0x3e3d8ebd	0.18511482
127	0x3d9b00fd	0.07568548
128	0xbd91b70c	-0.071149915
129	0x3bf6802b	0.007522603
130	0xbd77f5a0	-0.06053698
131	0x3e19b2b2	0.15009573
132	0x3e70f9e2	0.23532823
133	0x3d8302b0	0.06396997
134	0xbe3fa744	-0.1871615
135	0xbe938338	-0.2881105
136	0xbe2bb942	-0.16769889
137	0x3da38c2f	0.07985722
138	0xbe20faff	-0.15720747
139	0x3c269d24	0.010169301
140	0xbe38d3d7	-0.1804956
141	0x3e1320f3	0.14368038
142	0xbe57c9ef	-0.21073125
143	0x3d033b18	0.032038778
144	0xbe38155f	-0.17976902
145	0xbe168270	-0.14698195
146	0x3e931b66	0.2873184
147	0x3e3a0dad	0.1816928
148	0x3cc78d96	0.024359506
149	0x3e33c899	0.1755699
150	0xbe369bd7	-0.17832886
151	0x3e8cf1f9	0.2752836
152	0x3e63df1f	0.22253083
153	0x3e36294c	0.17789191
154	0xbe8ff5e8	-0.281173
155	0xbd809768	-0.062788785
156	0x3e91e982	0.28498465
157	0xbd20e437	-0.039280143
158	0x3e82b1fd	0.2552642
159	0x3dc9d953	0.098559044
160	0xbde19054	-0.110138565
161	0xbd2f0728	-0.042731434
162	0xbde89691	-0.11356843
163	0xbe93f205	-0.28895584
164	0x3e153174	0.14569646
165	0xbdaa130f	-0.083044164
166	0x3bbaf201	0.0057051186
167	0x3cce9c79	0.025221096
168	0x3e89827b	0.2685736
169	0xbd1e304b	-0.038620275
170	0x3b2e8b2f	0.0026633253
171	0xbd0cf37e	-0.0344119
172	0x3e29ecf5	0.16594298
173	0x3e924213	0.28566036
174	0x3d925256	0.071446106
175	0xbe8df3d9	-0.27725103
176	0xbddf05cf	-0.1088978
177	0xbde801cc	-0.11328468
178	0xbe8d97e1	-0.27654937
179	0xbe4a8866	-0.19778594
180	0x3da748b6	0.081681654
181	0xbdbef1ea	-0.09323485
182	0xbdad2979	-0.08455176
183	0xbe80ddcb	-0.25169215
184	0xbd9e3d69	-0.07726557
185	0x3de9c2d4	0.11414114
186	0x3e9cf0e6	0.3065254
187	0xbd511db9	-0.051053736
188	0x3e17c1e8	0.14820063
189	0x3d18c9a5	0.03730168
190	0xbe0e8cd9	-0.13920917
191	0x3e8421e3	0.25807104
192	0x3e1c4f93	0.1526473
193	0xbdd07a73	-0.10179605
194	0x3dbd91ba	0.09256311
195	0x3e4ff324	0.20307595
196	0xbe40cd73	-0.18828373
197	0x3d0c9ed5	0.03433116
198	0xbea54cdc	-0.32285202
199	0x3e4d54ce	0.20051882

linear.bias f4 [2]
0	0x3d86cc87	0.06581979
1	0xbd5369b6	-0.051614486
