classifier_50_dparsf_epochs.pth (torch, 2512 bytes, 2 tensors)

linear.weight f4 [2, 100]
0	0x3e263bf1	0.16233803
1	0x3c3d7de3	0.011565658
2	0x3cca80b7	0.02471958
3	0xbd9e70b2	-0.07736339
4	0xbe98d1fe	-0.2984771
5	0xbe6262b9	-0.22107972
6	0x3e2cf009	0.16888441
7	0xbe7efbd9	-0.2490076
8	0x3dd12c25	0.10213498
9	0xbe88f6a8	-0.26750684
10	0x3e90ac32	0.28256375
11	0xbd74b404	-0.05974199
12	0x3e184433	0.14869766
13	0x3de2f97a	0.1108274
14	0x3dbddc10	0.09270489
15	0x3e2320ab	0.1593043
16	0x3e1021aa	0.14075342
17	0xbe1c1552	-0.15242508
18	0x3e8adb2b	0.27120337
19	0x3dba7e20	0.09106088
20	0xbe2b0ce8	-0.16704142
21	0xbdcc5a5c	-0.09978172
22	0xbdeb2eec	-0.11483559
23	0x3e4d06c0	0.20022106
24	0xbe8f0f95	-0.27941576
25	0xbd4cd254	-0.050005272
26	0xbe3d0321	-0.18458225
27	0xbda16663	-0.07880857
28	0x3dfafb4d	0.12254963
29	0x3cc0cfcd	0.023536587
30	0xbce282c7	-0.02765025
31	0xbe0bbe59	-0.1364683
32	0xbd0612ad	-0.032732654
33	0xbe265124	-0.1624189
34	0xbe130985	-0.143591
35	0x3e09e7ab	0.1346728
36	0xbd71dfaa	-0.059051193
37	0xbe7a6f7e	-0.24456593
38	0x3e097d2d	0.13426657
39	0x3dee0951	0.11622871
40	0xbd4e859b	-0.050420385
41	0xbe6cefa0	-0.23138285
42	0x3e08ff00	0.13378525
43	0x3e636bfd	0.22209163
44	0xbe049eb0	-0.1295116
45	0x3dc8d131	0.09805525
46	0x3eb144f8	0.3462293
47	0x3d8e1833	0.069382094
48	0xbdd5cf99	-0.10439987
49	0x3e02d89b	0.12777941
50	0x3c1ddf86	0.009635812
51	0x3e3ecda4	0.18633133
52	0x3e9790d1	0.29602674
53	0xbdbbdb30	-0.09172666
54	0x3e12eba6	0.14347705
55	0x3da5993e	0.08085869
56	0x3ce6d81f	0.028179226
57	0x3e3345ff	0.1750717
58	0x3b4e5aec	0.00314873
59	0xbd3640a4	-0.04449524
60	0xbd57bb0c	-0.052668616
61	0xbd119181	-0.035539154
62	0xbe3e739e	-0.18598792
63	0xbd07313c	-0.033005938
64	0xbe490316	-0.19630083
65	0x3e5d9cae	0.216418
66	0x3e72df87	0.23718081
67	0xbd22ad90	-0.039716303
68	0x3dad2467	0.08454209
69	0x3e7674c8	0.24067986
70	0xbd26db42	-0.040736444
71	0x3d07c053	0.0331424
72	0xbda0bfde	-0.07849096
73	0x3e0c2419	0.13685645
74	0x3df4d2d0	0.11954272
75	0xbde120c8	-0.10992581
76	0xbbbc9bb8	-0.005755868
77	0xbc06f3a0	-0.008236796
78	0xbe07a96e	-0.13248226
79	0xbe4fba6d	-0.2028596
80	0xbe8c5c66	-0.27414244
81	0xbe50d834	-0.20394975
82	0xbd067c38	-0.032833308
83	0xbdafbe9b	-0.08581277
84	0xbdf61994	-0.120165974
85	0x3df2a853	0.118485115
86	0xbcd16f52	-0.025565777
87	0xbe81b261	-0.25331405
88	0xbda4d870	-0.08049095
89	0x3e42ab41	0.1901064
90	0xbe0bab9c	-0.13639683
91	0x3dd48d52	0.10378517
92	0xbe422b4d	-0.1896183
93	0xbdfcde42	-0.1234708
94	0xbe025b9e	-0.12730262
95	0x3de37366	0.11105995
96	0x3e0e8ce7	0.13920937
97	0xbe2c5b52	-0.16831711
98	0x3eba918c	0.36439168
99	0xbea09bc1	-0.3136883
100	0x3a8ade6e	0.0010594854
101	0xbdff36c9	-0.12461621
102	0xbdc74d53	-0.09731545
103	0xb6ede22c	-7.0894803e-06
104	0x3e19a3f8	0.15003955
105	0x3e11d124	0.14239937
106	0xbd8a098f	-0.067401044
107	0x3e9f219d	0.31080332
108	0x3b3df347	0.0028984116
109	0x3e127c6b	0.14305274
110	0xbeb87772	-0.3602863
111	0xbcf3b406	-0.029748928
112	0xbdfbf049	-0.1230169
113	0xbe17f7a4	-0.14840561
114	0xbbe3329d	-0.006933524
115	0xbe827770	-0.2548175
116	0xbcbd57b7	-0.023113115
117	0x3db616b6	0.088910505
118	0xbe437faf	-0.19091676
119	0xbc33d53c	-0.010976132
120	0x3e94d6dc	0.29070175
121	0x3cebd0cc	0.028786086
122	0x3d780860	0.060554862
123	0xbe82af40	-0.2552433
124	0x3e1bd03c	0.15216154
125	0x3df5e880	0.120072365
126	0x3e3a01ed	0.18164797
127	0x3dc9c5f7	0.09852212
128	0xbd2b9b4c	-0.04189615
129	0x3dd580d3	0.10424962
130	0xbb165def	-0.0022944172
131	0x3d1b5a48	0.037927896
132	0x3c934c5c	0.017980747
133	0x3e50dc5e	0.20396563
134	0x3e16d067	0.14727937
135	0xbe332759	-0.17495479
136	0x3df1e144	0.11810544
137	0x3dce6aba	0.1007895
138	0xbe068aa4	-0.13138825
139	0x3d372c9f	0.04472029
140	0x3e0ca180	0.13733482
141	0x3e604f4a	0.21905246
142	0xbc70d7e0	-0.014699906
143	0xbe3bf234	-0.18354112
144	0x3e448743	0.19192223
145	0xbdd10ee8	-0.10207921
146	0xbe83986b	-0.25702223
147	0xbd222136	-0.039582454
148	0x3e312321	0.17298557
149	0x3d1be11e	0.038056485
150	0xbd8d7cbc	-0.06908557
151	0xbda4b1e4	-0.080417424
152	0xbdefba30	-0.11705434
153	0x3e1dfc90	0.15428376
154	0xbe2dc87f	-0.16971014
155	0xbe0ebeea	-0.13940015
156	0x3dacc361	0.08435703
157	0xbdba31fb	-0.09091564
158	0x3daa4d84	0.08315566
159	0xbda792f3	-0.08182325
160	0x3d8d329a	0.06894417
161	0x3da63580	0.08115673
162	0x3e870fea	0.2637933
163	0xbd5c34ae	-0.053761177
164	0x3e88e0b9	0.2673395
165	0xbe39ba5d	-0.18137498
166	0xbe431f55	-0.19054921
167	0x3bf0d43f	0.0073495205
168	0xbe1ba9f7	-0.15201555
169	0xbe5405af	-0.20705293
170	0x3e2121ad	0.15735503
171	0x3d8f3aa5	0.069936074
172	0x3e2618c2	0.16220382
173	0xbd86fb9e	-0.06590961
174	0xbdf5d88f	-0.12004196
175	0x3c17fbe1	0.009276361
176	0x3ce176e3	0.02752251
177	0xbd929c2a	-0.07158692
178	0x3d9b8d16	0.075952694
179	0x3e2ff14f	0.17181896
180	0x3dbd7c1d	0.09252188
181	0x3d5abc4c	0.05340223
182	0x3d3d4428	0.046207577
183	0x3d545287	0.051836517
184	0x3d32c474	0.043644384
185	0xbc708ba6	-0.014681732
186	0x3ba70480	0.005096972
187	0x3e6a8873	0.22903614
188	0x3e320283	0.1738377
189	0xbe5a3b62	-0.21311715
190	0x3e1f73ed	0.15571566
191	0xbd2754bb	-0.04085229
192	0x3d10e997	0.03537902
193	0xbc743d92	-0.014907258
194	0x3d60853c	0.054814562
195	0x3cc3bc8a	0.023893613
196	0xbe36bb86	-0.17844972
197	0x3e4911f4	0.19635755
198	0xbe9e7daa	-0.3095525
199	0x3ea1c6ed	0.3159708

linear.bias f4 [2]
0	0x3d87a90b	0.06624039
1	0xbd552275	-0.052034814
