classifier_50_ccs_epochs.pth (torch, 2494 bytes, 2 tensors)

linear.weight f4 [2, 100]
0	0xbc250c61	-0.010073752
1	0xbe960c50	-0.2930627
2	0xbaf8ec35	-0.0018991294
3	0x3e76432f	0.24049066
4	0x3e25568d	0.16146298
5	0xbe86fb6d	-0.26363698
6	0x3e98b0b3	0.2982231
7	0xbca8f505	-0.020624647
8	0x3e447c1e	0.19187972
9	0x3dc4ce80	0.09609699
10	0x3e15b834	0.14621049
11	0x3e108075	0.14111502
12	0x3cfbc5ff	0.03073406
13	0x3da47c1b	0.08031484
14	0xbc43a3f9	-0.01194095
15	0x3d8ad529	0.06778938
16	0xbe2dbeb6	-0.16967282
17	0xbcd6f35f	-0.026239095
18	0x3eb29755	0.34881082
19	0x3e4422e4	0.19153935
20	0x3e7a0427	0.24415646
21	0x3d44117e	0.047868244
22	0xbe083219	-0.1330036
23	0x3e12ea69	0.14347233
24	0xbe2d6c2d	-0.16935797
25	0xbe340bce	-0.17582628
26	0xbe3e54f0	-0.18587089
27	0x3dfe7837	0.12425273
28	0x3d4fa133	0.05069084
29	0xbd84ba84	-0.064808875
30	0x3cf14e36	0.02945624
31	0x3c826d91	0.015921386
32	0x3e2d3382	0.1691418
33	0xbcf57efa	-0.029967774
34	0x3e43ae3a	0.19109431
35	0xbe8e97d8	-0.27850223
36	0x3d271821	0.040794495
37	0xbe73ba2d	-0.23801489
38	0x3e7c7406	0.24653634
39	0xbe541c1d	-0.2071385
40	0xbd140ed5	-0.036146957
41	0xbe6c6983	-0.23087125
42	0x3d9e0c94	0.07717243
43	0xbda5192c	-0.08061442
44	0xbe2cf769	-0.16891254
45	0x3cc7e9b5	0.024403432
46	0x3e59af8f	0.21258377
47	0xbe108db9	-0.14116563
48	0x3e3787ed	0.17922945
49	0x3de2135c	0.11038849
50	0xbe89a24e	-0.2688164
51	0x3e43f87a	0.19137755
52	0x3e6e1ef4	0.23253995
53	0x3d46e831	0.04856128
54	0xbe414895	-0.18875344
55	0x3e0bf0e4	0.13666111
56	0xbdcdf8b8	-0.10057205
57	0x3e33bb7d	0.1755199
58	0x3e3ba72f	0.18325494
59	0x3d897de1	0.067134626
60	0xbccb8c59	-0.024847196
61	0xbda28f9f	-0.0793755
62	0xbcdabed1	-0.026702316
63	0x3d9be20f	0.07611477
64	0xbcc8382f	-0.024440853
65	0x3e633f89	0.22192205
66	0x3e232b56	0.159345
67	0xbe910cf0	-0.28330183
68	0xbd3c5059	-0.045975063
69	0x3e565086	0.20929155
70	0x3e0fd529	0.14046158
71	0xbdad8b9f	-0.08473896
72	0xbdbbe9c0	-0.09175444
73	0xbd8c3609	-0.06846244
74	0x3e0aaac0	0.13541698
75	0xbe71f0a8	-0.2362696
76	0xba9e32b9	-0.001206956
77	0x3e428aef	0.18998311
78	0x3e249955	0.16074117
79	0x3e39ccf4	0.1814459
80	0xbdcdb6e8	-0.10044652
81	0xbd4e5b2c	-0.050379917
82	0x3d9b1506	0.07572369
83	0xbeb9f27c	-0.36317813
84	0xbe78965d	-0.24276109
85	0x3d2bf64b	0.04198293
86	0x3d7b6fa6	0.061385773
87	0xbe80170e	-0.2501759
88	0xbe0c3c8c	-0.13694972
89	0xbecdf303	-0.40224466
90	0xbd21d208	-0.039506942
91	0xbe517c2b	-0.20457523
92	0xbe5d025a	-0.21582928
93	0xbe4867d9	-0.19570865
94	0xbdc18e32	-0.0945095
95	0x3d4d09fd	0.050058354
96	0x3df1faae	0.118153915
97	0xbd8e4380	-0.06946468
98	0x3e66ca4b	0.22538106
99	0xbebc0f89	-0.36730602
100	0x3e31b212	0.17353085
101	0x3e38368f	0.17989562
102	0xbd90bf70	-0.07067764
103	0xbea2db04	-0.3180772
104	0xbe9ea2f4	-0.30983698
105	0x3e3d67dd	0.18496652
106	0xbe493eb4	-0.19652826
107	0x3da864be	0.0822234
108	0xbdb1b399	-0.08676834
109	0xbe61b428	-0.2204138
110	0xbe651f2f	-0.22375177
111	0xbe6c4bd7	-0.23075806
112	0xbba6b81e	-0.0050878664
113	0xbdf1619f	-0.11786198
114	0x3dc81137	0.097689085
115	0xbe2722be	-0.16321847
116	0x3e932cf3	0.2874523
117	0xbd18adf1	-0.03727526
118	0xbe896e34	-0.2684189
119	0xbde442e4	-0.11145571
120	0xbdf6d846	-0.1205297
121	0xbdf37e11	-0.1188928
122	0x3da130c0	0.078706264
123	0xbe4b33ec	-0.19844025
124	0x3d2d25cb	0.04227237
125	0x3e7be297	0.24598156
126	0x3e3b538b	0.18293588
127	0xbdd60e57	-0.10451954
128	0x3cf53334	0.029931642
129	0x3e454e6c	0.19268197
130	0xbd734f67	-0.059401896
131	0xbdea5783	-0.11442473
132	0xbe3c5160	-0.18390417
133	0x3d92565c	0.07145378
134	0xbe3fe65e	-0.18740222
135	0x3e73d6d6	0.23812422
136	0x3c9542e9	0.018220382
137	0x3dc105ae	0.094249114
138	0xbe79800d	-0.24365254
139	0x3ebcad70	0.36851072
140	0x3dfc1f11	0.12310613
141	0x3e5fc88c	0.21853846
142	0x3d2be67a	0.041967846
143	0x3df3e843	0.11909535
144	0x3e6ce464	0.23133999
145	0xbce8daee	-0.028424706
146	0xbdfd1b41	-0.12358714
147	0x3e2f11a1	0.17096569
148	0xbde29070	-0.110627055
149	0x3d62e312	0.055392332
150	0x3e563a00	0.20920563
151	0xbdaef61e	-0.08543037
152	0xbd5bdc6c	-0.053677008
153	0x3c659a99	0.01401391
154	0x3e2659d6	0.16245207
155	0xbe47f27a	-0.19526091
156	0x3e5a5966	0.21323165
157	0xbdbb013d	-0.091310956
158	0xbdc65ac0	-0.09685278
159	0xbe463b11	-0.1935847
160	0x3d286490	0.04111153
161	0x3e00049a	0.12501755
162	0x3dd5c3b6	0.104377195
163	0xbe26db49	-0.16294588
164	0x3dc355a2	0.095378175
165	0xbe3f5ef1	-0.18688561
166	0xbde6e592	-0.11274256
167	0x3e807209	0.25087002
168	0xbcaff4f4	-0.021479107
169	0xbe33ec18	-0.17570531
170	0xbcc353a4	-0.023843594
171	0x3e405be2	0.1878505
172	0x3e33ac18	0.17546117
173	0x3e0eac37	0.13932882
174	0xbe0b2db9	-0.1359166
175	0x3e0acb91	0.13554217
176	0x3cbc2c91	0.02297047
177	0xbe8a37d4	-0.26995718
178	0xbe5e853f	-0.21730517
179	0xbe598e16	-0.21245608
180	0xbda5cf49	-0.08096177
181	0xbdccea72	-0.100056544
182	0xbd7f6b26	-0.062358044
183	0x3ea87d43	0.32908067
184	0x3e2a08bb	0.16604893
185	0x3d7cfed0	0.061766446
186	0xbda7aa15	-0.081867374
187	0x3e675420	0.22590685
188	0x3e6be78f	0.23037551
189	0x3ec22805	0.37921157
190	0x3d70e6b7	0.058813777
191	0x3e8904cf	0.2676148
192	0x3d7c2e18	0.061567396
193	0x3d6a8a11	0.057260577
194	0x3cb4943e	0.022043344
195	0x3dade328	0.08490592
196	0xbe21286c	-0.15738076
197	0x3dc7a635	0.09748498
198	0xbe2ec2eb	-0.17066543
199	0x3ebd3b10	0.36959124

linear.bias f4 [2]
0	0x3d0be749	0.034156118
1	0xbca37199	-0.019951629
