classifier.pth (torch, 3178 bytes, 2 tensors)

linear.weight f4 [2, 200]
000000 39 c6 41 b8 4f 70 8f be d9 ac 00 80 6a 27 d6 3e
       -4.6199395e-05 -0.28015372 -6.2006e-41 0.41826946
000010 38 a6 00 80 3b cd f2 3e 33 a2 00 00 88 1f 56 33
       -5.9628e-41 0.47422203 5.8186e-41 4.9854435e-08
000020 42 a8 e6 3c ab ee 3f bb 5a 0c 07 3b c2 93 00 80
       0.028156403 -0.0029286544 0.0020606727 -5.3006e-41
000030 19 26 36 3d dd 1c 64 3e f2 a7 14 3d e0 f1 39 be
       0.044469927 0.22276635 0.036292978 -0.18158674
000040 bd 97 00 80 9b 26 e1 bd 09 9d 8c 3c 9b 97 00 00
       -5.4433e-41 -0.109936915 0.017164724 5.4386e-41
000050 6a 04 0e 3f d3 35 aa be 36 40 26 3d 96 33 c9 3e
       0.55475485 -0.3324419 0.04058858 0.3929717
000060 6a 85 a9 be 51 42 90 bf f8 04 02 00 f7 88 00 80
       -0.331096 -1.1270238 1.85453e-40 -4.9134e-41
000070 6c 98 00 00 14 c4 09 3f 52 7d d2 3e 9c a1 00 00
       5.4679e-41 0.53814816 0.41111237 5.7975e-41
000080 9d c7 a0 3d 9d a6 eb be a6 5e c8 3e f0 3a 0f 3f
       0.07850573 -0.46025553 0.3913471 0.55949306
000090 7a ac d5 ac 26 65 a8 be 01 d5 2c bf d5 6c e0 be
       -6.072973e-12 -0.3288967 -0.6751252 -0.43833032
0000a0 a5 04 8e bf 48 40 0e be 02 00 19 bf 62 71 4c 3e
       -1.1095167 -0.13891709 -0.59765637 0.19965127
0000b0 69 f1 99 3e d0 ee a1 ba 5e 89 5f 3f 30 41 f6 3e
       0.30066994 -0.0012354497 0.8731898 0.4809661
0000c0 eb 25 48 37 64 8e 00 80 f7 92 00 00 c8 9a 00 00
       1.1929757e-05 -5.108e-41 5.2721e-41 5.5525e-41
0000d0 4d 57 a5 3e 7f 42 e4 bd 5f 50 2d 3e 23 40 55 be
       0.32293168 -0.111454956 0.1692519 -0.20825247
0000e0 ed 98 1a bf 16 e5 75 3d a8 5b 0a 39 23 2d c9 ba
       -0.60389596 0.060032926 0.0001319485 -0.0015348535
0000f0 64 da 0b bf c9 64 95 3e 13 6b c2 bc f6 c2 da 3e
       -0.5463011 0.29178455 -0.023732698 0.42726868
000100 95 9b 06 be 46 70 9e be 0e 49 1a 3f 56 90 00 80
       -0.13145287 -0.30945033 0.6026772 -5.1778e-41
000110 9c 2c 47 3f 5c 77 b5 3c 18 1c 1e 3f ad 92 85 be
       0.77802444 0.022151642 0.6176162 -0.26088467
000120 bf 88 00 80 d2 90 00 80 9c 15 3d 3d fb 6f f3 be
       -4.9055e-41 -5.1952e-41 0.046163186 -0.47546372
000130 ca a8 b0 3e 73 ff 13 bf 86 e2 be be 7b a8 00 00
       0.34503776 -0.5781166 -0.372822 6.044e-41
000140 27 86 2b be 31 3a 16 3e 10 00 3d 3f fe 8d 00 00
       -0.16750394 0.14670636 0.7382822 5.0937e-41
000150 a7 d2 93 3f 70 8e d1 bb 88 18 0c 3f 8c af 00 00
       1.1548661 -0.0063951537 0.5472493 6.2974e-41
000160 3a 3c 07 3f 00 e9 fe be 44 8d c7 be 14 c6 6f be
       0.52826273 -0.4978714 -0.38974965 -0.23415405
000170 6a 97 00 00 4b 2a db be 36 91 00 00 0a dd 67 be
       5.4317e-41 -0.42805704 5.2092e-41 -0.22642913
000180 f7 60 03 bb 31 15 00 00 ec 8e 00 00 9e 3f 7e be
       -0.002004681 7.602e-42 5.1271e-41 -0.24828956
000190 62 9e f0 bd 61 a5 00 00 ec 04 78 be 59 0b 84 bf
       -0.11748959 5.9327e-41 -0.24220628 -1.0315963
0001a0 ce a0 e5 3d f1 12 95 be 74 1e 11 3e e6 86 4a 3e
       0.11212312 -0.29116014 0.14171773 0.19778022
0001b0 7d 78 24 3f 8a 28 3e bf d6 d4 05 bf 2f b7 e2 3e
       0.6424635 -0.7428061 -0.52277887 0.44280383
0001c0 ed 1c 55 3e a3 ab c8 be f4 c9 0f 36 2b 93 00 80
       0.20811816 -0.39193448 2.1426213e-06 -5.2794e-41
0001d0 7b 21 9c 3b 54 89 00 00 d9 43 ee be a3 8e d5 3e
       0.0047647334 4.9264e-41 -0.4653614 0.41710386
0001e0 f3 02 ca bd b0 71 8e 3d 22 bf a6 3d a4 69 6e 3d
       -0.09863844 0.06955278 0.081419244 0.058206216
0001f0 cd 8f 00 00 84 d3 e8 be d1 82 fe bd 6f 98 00 80
       5.1586e-41 -0.45473874 -0.12427295 -5.4683e-41
000200 20 89 00 00 0d 06 6b bd ea 90 00 80 d2 0f 4d bf
       4.9191e-41 -0.057378817 -5.1985e-41 -0.80102265
000210 53 41 49 bf 1f 4a 66 bf 16 08 a4 be ec 60 88 3f
       -0.786153 -0.8995685 -0.3203742 1.0654578
000220 85 8b 3d 3e 17 f7 fb be aa 1c 4f 3f 15 9b 00 00
       0.18510254 -0.49211952 0.8090311 5.5633e-41
000230 c0 29 0c 3e 53 db 84 bd 62 ce 10 3e fd fa 70 36
       0.13687801 -0.06487145 0.14141229 3.5908881e-06
000240 b0 20 15 3f 2f 62 66 3f 39 e0 90 be 78 a4 00 80
       0.58253 0.89993566 -0.28296068 -5.9e-41
000250 42 93 20 be 64 30 42 3f e6 48 91 3e 3b 4a ed 3e
       -0.15681174 0.7585509 0.2837593 0.46345696
000260 e6 52 12 bf a4 22 dd bc 32 0c 9c be 5c 1a 07 bf
       -0.5715774 -0.026994057 -0.30478054 -0.52774596
000270 15 27 20 bf 0a 69 52 3e 05 99 00 80 50 3c 10 bb
       -0.62559634 0.20547882 -5.4893e-41 -0.0022008605
000280 0c 93 6a be 97 d1 0f bf 38 42 43 bf 56 49 b0 3e
       -0.22907656 -0.56179184 -0.76272917 0.3443095
000290 49 94 00 80 6d 2e 03 3f fe 95 00 80 53 6a 9c 3d
       -5.3195e-41 0.51242715 -5.3807e-41 0.07637467
0002a0 9b ee 2b be 19 96 85 3e 82 0a d2 be 5a 9b 86 be
       -0.1679024 0.26091078 -0.41023642 -0.262904
0002b0 49 0e 8f 3f 50 cd 42 bc 7d e3 38 bd bb 8f 85 3f
       1.1176234 -0.011889771 -0.045138825 1.0434488
0002c0 d5 b0 32 3d 18 a0 00 00 e6 93 00 00 da b9 b9 be
       0.04362567 5.7431e-41 5.3056e-41 -0.36274606
0002d0 18 bf a3 be bb 54 98 3f 0c b3 5d 3f d6 72 ba 3e
       -0.3198173 1.1900858 0.8660133 0.36415738
0002e0 b7 fc 2d 3e a4 6c 75 be 43 3f 09 bf ab 91 98 be
       0.16990934 -0.23967224 -0.53612155 -0.29798636
0002f0 68 99 00 80 7b 3c bc 3e b0 e3 e2 3e 4a ac 00 80
       -5.5032e-41 0.36764893 0.44314337 -6.1806e-41
000300 23 77 da be dd 8f 00 80 50 a2 00 00 32 e9 f4 3a
       -0.4266902 -5.1608e-41 5.8227e-41 0.001868522
000310 57 31 5d be 66 9e 00 80 13 82 a0 be 82 ad 1b 3f
       -0.21600853 -5.6823e-41 -0.3134924 0.60811627
000320 60 ea 1d 38 bc 05 a6 3e 6b a0 00 80 d7 91 ca be
       3.7649996e-05 0.3242625 -5.7547e-41 -0.39564392
000330 f5 93 00 00 04 04 f9 be 17 93 00 80 b0 1b c9 b0
       5.3077e-41 -0.48635876 -5.2766e-41 -1.4632544e-09
000340 4c a9 e6 bc e9 fc 3f 3b ea 6a 07 bb a8 9e 00 00
       -0.028156899 0.0029295033 -0.002066309 5.6915e-41
000350 d4 b3 a0 bd 5b 8c 51 be bd bb 3f bd 91 32 4a 3e
       -0.078467995 -0.20463698 -0.0468099 0.19745852
000360 b5 92 00 00 1a 47 88 3d 3c bf 5d bb c5 8e 00 80
       5.2629e-41 0.066541865 -0.0033835908 -5.1216e-41
000370 a5 b1 29 bf 94 8e c2 3e eb e2 d4 bd 5c b3 cf be
       -0.6628669 0.37999403 -0.10394844 -0.40566528
000380 82 7f 9e 3e 4d 1a 97 3f bd 91 00 80 c3 98 00 00
       0.30956656 1.1804901 -5.2281e-41 5.48e-41
000390 cb 88 00 00 6a c7 19 bf 69 2d 05 bf 49 a3 00 80
       4.9072e-41 -0.60069907 -0.52022415 -5.8576e-41
0003a0 20 47 af bd 97 a2 03 3f e6 6a c9 be 7f 07 0e bf
       -0.08558488 0.5141997 -0.3933937 -0.5548019
0003b0 29 24 54 2d 74 af b0 3e e3 6a 2d 3f 44 29 da 3e
       1.2058834e-11 0.3450886 0.6774122 0.42609608
0003c0 fa d4 92 3f 86 a5 08 3e 5d af 1a 3f fd d6 f0 bd
       1.1471245 0.13344392 0.60423833 -0.11759756
0003d0 94 bd b3 be 3e 9f 4d 3a 8c 52 5b bf 88 70 0a bf
       -0.35105574 0.00078438583 -0.8567283 -0.5407796
0003e0 07 5d d6 b6 2e 99 00 00 35 89 00 80 b1 8f 00 00
       -6.388527e-06 5.495e-41 -4.922e-41 5.1547e-41
0003f0 29 6e 93 be e4 96 2d 3e f9 51 1c be 12 14 64 3e
       -0.28794983 0.16952091 -0.15265645 0.22273281

linear.bias f4 [2]
000000 bd f9 8e 3e bf d4 9f be
       0.2792491 -0.31217
