classifier.pth (torch, 2346 bytes, 2 tensors)

linear.weight f4 [2, 100]
0.3549022 0.06631131 -0.05671723 -0.03916821 -0.1641075 0.26440373 -0.19184996 -0.11006997
0.16927686 0.13274969 0.16623475 0.11675629 0.17870717 0.08745077 0.12704282 0.015000453
0.15318964 0.19618993 -0.17122415 -0.20587088 -0.045841776 0.054542694 -0.28253284 -0.1492502
-0.0660005 -0.12201433 0.068954326 0.035655014 0.07646902 -0.042730417 -0.0808554 -0.008892657
0.18396862 -0.020282976 -0.32584235 0.10756759 -0.35621378 -0.09549669 0.17781496 0.05392439
0.21178325 -0.06483042 -0.20418866 -0.3054303 -0.022167088 0.14619845 0.09740404 -0.039238036
0.11645508 -0.24972731 0.080254324 -0.14964014 0.14361784 0.07509343 -0.2223074 -0.20444839
-0.20195793 0.16513339 0.28746462 0.039242912 0.025750056 -0.20674047 0.098578185 0.15237682
0.16072768 -0.23126294 0.120260134 0.055027023 -0.013943431 -0.18174915 0.19495925 -0.026754903
0.099340424 -0.1944283 -0.35648775 -0.19854973 0.052045364 0.08000274 0.05080238 0.22357647
-0.040858064 -0.046682257 -0.02097403 -0.10177162 -0.26996627 0.07137205 -0.08873635 -0.08379598
0.09125234 -0.058034495 -0.42186058 0.007850277 -0.12385931 -0.15819257 -0.043296766 -0.05423138
-0.3014711 -0.1351019 0.12996241 0.22129662 -0.34686244 -0.009497138 0.09606904 0.11130205
0.015402164 -0.33230117 0.25414482 0.08517789 -0.15631531 -0.22661409 -0.11220286 -0.14107294
-0.17596535 -0.054316834 -0.22563672 0.15253775 -0.17583163 -0.22758976 0.16134462 0.23757142
0.06990648 -0.1818898 0.23905851 -0.02915423 0.07898887 -0.0337329 0.0061794952 -0.094287656
-0.16558498 0.0672671 0.08222428 0.085960284 -0.14738873 0.09761124 0.29522714 -0.2384133
0.3000021 0.09624924 -0.35215718 -0.06864133 -0.09757603 0.04162248 0.32221118 0.2561929
0.060062986 -0.07205019 -0.097461425 0.12284423 0.022105137 0.14952026 -0.085528605 0.22517246
-0.18290374 -0.06698096 0.09829092 0.21779215 0.13444036 -0.19833715 -0.32388198 -0.04229141
-0.06372601 0.30213767 -0.20671122 -0.093039766 -0.043489195 0.1862789 -0.10630398 -0.12778446
-0.12933467 0.034145452 -0.28862232 0.06890337 -0.19101506 0.14313751 0.3600049 0.087987304
-0.0778221 -0.010039974 -0.10008047 -0.20482427 0.03576269 0.02963941 0.14333491 0.15057868
0.26721388 -0.10031316 -0.047925673 0.16316435 -0.13947195 0.12843055 0.39090878 0.08402326
0.19398771 0.060842812 0.10712005 0.091963194 0.3630108 0.18589601 -0.114182495 -0.19465701
00000000: beb5 b53e 39ce 873d 5350 68bd d86e 20bd
00000010: cc0b 28be ed5f 873e 5174 44be 5d6c e1bd
00000020: ea56 2d3e 89ef 073e 7139 2a3e ec1d ef3d
00000030: 03ff 363e 6419 b33d 8317 023e 76c4 753c
00000040: bfdd 1c3e 03e6 483e 6255 2fbe d1cf 52be
00000050: 96c4 3bbd 2968 5f3d 25a8 90be 0bd5 18be
00000060: 452b 87bd a6e2 f9bd ed37 8d3d fe0a 123d
00000070: ca9b 9c3d 1706 2fbd 8497 a5bd 82b2 11bc
00000080: 4562 3c3e 7c28 a6bc cfd4 a6be 664c dc3d
00000090: a761 b6be c593 c3bd 2015 363e d2df 5c3d
000000a0: b5dd 583e d0c5 84bd d516 51be 5c61 9cbe
000000b0: c197 b5bc 0cb5 153e c57b c73d 10b8 20bd
000000c0: 0080 ee3d 84b8 7fbe 615c a43d 443b 19be
000000d0: 8e10 133e 96ca 993d 8da4 63be eb5a 51be
000000e0: 0fce 4ebe ba18 293e 902e 933e 2dbd 203d
000000f0: c8f1 d23c c6b3 53be 5ce3 c93d ab08 1c3e
00000100: cc95 243e 31d0 6cbe f24a f63d 0464 613d
00000110: fd72 64bc 731c 3abe 66a3 473e 192d dbbc
00000120: fe72 cb3d 3618 47be 9085 b6be 9f50 4bbe
00000130: 852d 553d 7ad8 a33d 2816 503d 3bf1 643e
00000140: c95a 27bd e535 3fbd bbd1 abbc a46d d0bd
00000150: 0539 8abe 822b 923d 67bb b5bd 3a9d abbd
00000160: 82e2 ba3d 94b5 6dbd 1cfe d7be 739e 003c
00000170: f3a9 fdbd 3cfd 21be f357 31bd b921 5ebd
00000180: 6c5a 9abe 2758 0abe de14 053e 959b 623e
00000190: f497 b1be e299 1bbc d8bf c43d 54f2 e33d
000001a0: 5c59 7c3c 6123 aabe 451f 823e bf71 ae3d
000001b0: 1f11 20be 860d 68be 9dca e5bd 6d75 10be
000001c0: 4330 34be 547b 5ebd 500d 67be db32 1c3e
000001d0: 350d 34be 4a0d 69be 8637 253e ec45 733e
000001e0: 212b 8f3d 5241 3abe c1cb 743e dad4 eebc
000001f0: ebc4 a13d 822b 0abd 5d7d ca3b e319 c1bd
00000200: 1c8f 29be 55c3 893d 3465 a83d f20b b03d
00000210: 12ed 16be 67e8 c73d 0328 973e 9e22 74be
00000220: e099 993e 521e c53d f24d b4be d393 8cbd
00000230: f1d5 c7bd 557c 2a3d ddf8 a43e b72b 833e
00000240: 9b04 763d 0d8f 93bd db99 c7bd c195 fb3d
00000250: d515 b53c d71b 193e 9f29 afbd 9c93 663e
00000260: 1e4b 3bbe 502d 89bd c04c c93d e804 5f3e
00000270: bcaa 093e e518 4bbe dcd3 a5be c239 2dbd
00000280: c882 82bd cab1 9a3e 1bac 53be a28b bebd
00000290: ba21 32bd e5bf 3e3e e7b5 d9bd eed9 02be
000002a0: 4f70 04be 1adc 0b3d 4ec6 93be 361d 8d3d
000002b0: 7499 43be a492 123e 9052 b83e b032 b43d
000002c0: 3161 9fbd b47e 24bc fdf6 ccbd 74bd 51be
000002d0: e67b 123d 59ce f23c 63c6 123e 4c31 1a3e
000002e0: 42d0 883e fc70 cdbd b64d 44bd 8e14 273e
000002f0: bcd1 0ebe 4c83 033e 3225 c83e 6314 ac3d
00000300: b7a4 463e 5036 793d c261 db3d 3357 bc3d
00000310: 8ddc b93e 865b 3e3e 83d8 e9bd 2b54 47be

linear.bias f4 [2]
0.06463978 -0.16088364
00000000: dc61 843d aebe 24be
