SAE2_50_dparsf_epochs.pth (torch, 404672 bytes, 4 tensors)

encoder.weight f4 [100, 500]
00000000: 9cba 2cbd a2fd a33c a178 34bc e58c 24bc
00000010: c9b7 273d bcb2 4fbc a129 80bc ec08 31bd
00000020: 3b4e a1bc 10d1 14bd 6e45 e23b b511 4bba
00000030: 7f89 213d 6a76 053d 8960 3cbd 6e5b ddbc
00000040: 1ffa 3f3d 3fbd 2ebd 7730 0bbd 77a9 21bd
00000050: 707a bcbb 392b 223d 6437 383d 799d 22bc
00000060: 20ab 0b3d 9ffc 84bb e1a3 4f3c fd4a 1dbc
00000070: 2490 0bbb 92e8 b33c 0cbe debc cf61 25bd
00000080: 8515 da3c 7d86 1d3d 926a 35bd a78b e03c
00000090: a1cd b43c 8b0c c93c 5953 12bc aefe 403d
000000a0: 81ff 10bd 5029 513d 4214 573d 54f9 913b
000000b0: 0f91 2a3d bd92 05bd d680 143a 5c6c eabc
000000c0: d0fd 29bc fb06 9ebc 15bc e93b 10a3 b13a
000000d0: 669d 2abd 0d86 6dbc 32a3 663c ae6d 183d
000000e0: ec1c aaba 7d26 9c3c 24f8 07bd b785 223d
000000f0: d629 c53c 8b65 84bc 4ce8 113c 439c 81bc
00000100: 16ac b5bc 29e6 2bbd 5e95 323c b649 8bbc
00000110: d436 233d 3e7f cebc 6959 d2ba 47e9 6b3c
00000120: 5a5a cd3c 8bf3 963a 7f7a 1fbd b5d1 2d3d
00000130: 2d15 183d 2812 e13c 451c 483b 5b85 f43c
00000140: 8c4e c9bc 3b62 243c d789 443c 75c0 05bc
00000150: 37a7 e1bb a149 f6bc f4ab 903c 3fdb 3439
00000160: 415d 06bd 01d8 7abc aaa5 cd3b e28d 073a
00000170: 1ece af3b 8c95 0bbd e992 9bbc a73e 08bd
00000180: d8fd a8bc b8e8 a939 435e 36bd 64b6 f0bc
00000190: d9d8 173d 4ef4 ae3c 1e94 913c c838 9b3b
000001a0: a357 18bb 9cf7 103d 9b79 733c bfeb bebc
000001b0: e8c9 dd3c f8b1 edbc ca4b bc3b c807 bf3c
000001c0: b318 853c 9ac6 6bbc 8201 0cbd b77b 2fbd
000001d0: 1197 973c cea6 eabc 6f12 ab3c 8056 8cbb
000001e0: c5a1 353d 0218 08bd a034 203d 13da 273d
000001f0: a2b0 10bd 6c19 f73c f7c5 503b f363 31bd
00000200: 67d5 33bd 9779 523b 47ef 393b b22d 63bc
00000210: 4333 f6bb d2d3 e83c 3f81 18bc 4bae 863c
00000220: 434a 893c 2f43 31bd 03e6 8cbc 2f9b 3cbd
00000230: f000 a73c d4cc 1c3d 8912 1abd 8bed e53c
00000240: 8b61 86bb 3dba 143d 4549 03bd 0e9a 82ba
00000250: 9d8a 08bd 8bd2 433d a4cd 0abb 4dd9 3bbd
00000260: 42c8 13bd d29c 1b3b a865 fcbc d5e1 843c
00000270: 6c78 02bd 4779 e43c dcb3 a7bc 3d34 c83c
00000280: 6c4c 783c 0d5c 1e3d ff30 cd3b 2101 34bd
00000290: 06b7 d6bc ebd3 b0bc 315d acbc 7e6b 173d
000002a0: caf9 e93b 0620 353d 026e 15bb 5bc6 ecbb
000002b0: e98c d33c 9648 32bd ce57 28bd 88d6 8abc
000002c0: 9c70 b83c 52fb 99bc ca54 6bbc dca3 d13b
000002d0: a235 4e3d a7e0 d5bc eee0 c1bc a732 53bc
000002e0: e027 4f3d 2a98 d43c 7f68 caba 54b0 503b
000002f0: 8aae 1e3d 8925 033d b9c4 2bbd 3efd fabc
00000300: eb0a 33bc 624f 9c3c a002 a43c c862 383d
00000310: c0f8 e33c d4d7 023d c6d1 88bc d903 e43c
00000320: b92b ffbc 5476 73bc a8b5 283d a4ad f03c
00000330: b49e 50b9 e74f a8bb ad6d 0abd f4e2 dfbc
00000340: 31f1 dabc d02d d4bc 1792 dbbc 3a21 103d
00000350: 69ef 4fbb f338 1abd b59e a13c 344d 89bc
00000360: ca25 ddbc 2fd0 cb3b 548f b73c 8fe4 a93c
00000370: ece3 2d3d 9ba3 253c 935b 03bd 99f6 b43c
00000380: fdae 053d 6068 4a3d e218 293d b6be 2ebd
00000390: 3ee0 b0bc 059d 933c 3c34 06bd fe71 333d
000003a0: e056 5b3b c7df 8dbc e107 1b3d d759 2b3d
000003b0: 6b6a b2ba 9d4e 123d 1986 f93c f3e9 133c
000003c0: b592 dbbb 0b98 123c 5388 1a3d a8a5 20bd
000003d0: 49f8 f4bc 663d f23c d276 09bb 9a96 40bd
000003e0: 8f8b 193d d9a0 c83c 2b75 b4bc 1735 a23c
000003f0: ac2e 1a3c 966c 4f3c 1cbe 8abc 90a3 e6bb
-0.042170152 0.020018402 -0.011015088 -0.0100433575 0.040946756 -0.012676891 -0.01564485 -0.0432214
-0.019690624 -0.03633219 0.0069052493 -0.0007746474 0.039437767 0.03258363 -0.0459905 -0.027021136
0.046869393 -0.042660948 -0.033981767 -0.039468255 -0.0057519004 0.039592 0.0449747 -0.00992524
0.034098744 -0.004058435 0.012673349 -0.009600398 -0.0021295631 0.021961484 -0.02719023 -0.04037648
0.02662159 0.038458336 -0.044291086 0.027410341 0.022070708 0.024542114 -0.008931004 0.04711788
-0.035399918 0.05106479 0.052509554 0.004454771 0.041642245 -0.032610644 0.000566495 -0.028616123
-0.010375455 -0.019290438 0.007133017 0.0013552625 -0.041654013 -0.014497292 0.014076995 0.037213974
-0.001297859 0.019061321 -0.03319563 0.0396783 0.0240678 -0.0161617 0.008905482 -0.015821582
-0.022176784 -0.041967545 0.01089987 -0.017002922 0.03984721 -0.025207158 -0.0016048375 0.014398879
0.025067497 0.0011516673 -0.03893518 0.04243632 0.03712957 0.027474478 0.0030534428 0.029848745
-0.024573587 0.010033186 0.011995754 -0.008163561 -0.0068863886 -0.030064406 0.017660119 0.00017247813
-0.032803778 -0.015310288 0.006275852 0.00051709835 0.0053651473 -0.034078166 -0.01899095 -0.033262875
-0.020628855 0.0003240758 -0.04452349 -0.029383846 0.037072036 0.021356728 0.017770823 0.0047369935
-0.0023245595 0.03539239 0.014860536 -0.023305772 0.027073815 -0.029015526 0.0057463394 0.02331914
0.016247129 -0.014390612 -0.034181125 -0.042842593 0.018504651 -0.028643992 0.020882813 -0.0042827725
0.04434373 -0.03322602 0.039112687 0.040979456 -0.0353247 0.03016349 0.0031856277 -0.04330821
-0.04390469 0.003211593 0.002837138 -0.013865875 -0.007513435 0.028421316 -0.009308158 0.016440531
0.016759044 -0.043276962 -0.017199522 -0.046046432 0.02038619 0.038281277 -0.037615333 0.02806737
-0.0041009835 0.036310423 -0.032052297 -0.0009964125 -0.033335317 0.04780821 -0.00211797 -0.04586153
-0.036079653 0.0023744595 -0.030810192 0.016220966 -0.031853124 0.02788986 -0.020471506 0.024438972
0.015154939 0.038662005 0.0062619443 -0.04394639 -0.02621032 -0.021585425 -0.02104053 0.036967747
0.007140373 0.044219993 -0.0022801165 -0.0072257943 0.025824027 -0.043526255 -0.041099362 -0.016948
0.022514634 -0.018796597 -0.014363477 0.0063977074 0.050344117 -0.0261081 -0.023666825 -0.012890494
0.050575137 0.025951464 -0.0015442519 0.003184338 0.038740672 0.03201822 -0.041935656 -0.030638333
-0.010927896 0.019080821 0.020020783 0.04501608 0.027828574 0.03194411 -0.01670159 0.027833866
-0.031148778 -0.014859755 0.041188866 0.029379673 -0.00019895547 -0.005136478 -0.033796 -0.0273299
-0.026726337 -0.025900751 -0.02680306 0.035187937 -0.0031728393 -0.037651967 0.019728998 -0.016760446
-0.026995558 0.006219886 0.022407211 0.020738868 0.04245369 0.010109807 -0.032069754 0.022090243
0.032637585 0.049415946 0.041283496 -0.042662345 -0.021591302 0.018019209 -0.03276466 0.043809883
0.003346853 -0.01731862 0.03784931 0.041833725 -0.0013612037 0.035719503 0.03045945 0.009027946
-0.0067008385 0.008947383 0.037727665 -0.039220482 -0.029903548 0.029570293 -0.0020975363 -0.047018625
0.03748661 0.02449076 -0.022028526 0.019800706 0.0094105415 0.012660166 -0.016936354 -0.007038541

encoder.bias f4 [100]
00000000: 8ef0 0e3d 9550 5e3c 385b f8bb f2cc a43b
00000010: 024c ca3b 5b18 173d 0fff 323d 6a6b 00bc
00000020: b8cd ee3c 2472 a5bc 5757 013d 0c90 173c
00000030: 2d47 2b3d 47af cc3c 3621 093d 0016 09bc
00000040: 0ffa 193c 71df e6bc c738 253d 0b3d 1ebd
00000050: 304d bb3c 48a4 22bd 0265 24bd 6845 ad3c
00000060: c5de 9fbc 78f4 0d3d d819 da3c b8e8 03bd
00000070: 67a4 21bd 8c31 26bc 75bf b5bc e619 213b
00000080: d33a 3d3d 60ab 063c 8136 223b 99a4 0bbd
00000090: e014 5fbc c6f6 e73c da41 9d3c c8fa 28bb
000000a0: dee2 8aba bf95 313d bb01 913c 5aac c4bc
000000b0: f5f7 1c3d f116 023d b0a1 f3bc 390d 9e3b
000000c0: 4ed0 c839 9427 f9bc aa35 29bd 1d49 963c
000000d0: 11f9 b83c fb56 f3bc 52a6 1d3d b12d 10bc
000000e0: 0a2d 2ebd 0c92 d53c 81f0 f13c 1c46 ab3c
000000f0: 39fc 2abd 42f0 243d 8168 0dbc 9440 f3bc
00000100: 4599 9e3c f896 80bc 2291 313d 3f13 2bbd
00000110: a819 28bd bfea b13c a348 7dbb 6ec3 233d
00000120: d752 503c a9db 2f3d 9280 0e3c 2f95 2abb
00000130: 72a7 943a f977 323d 16e8 573b 3f55 4abb
00000140: 077a 2e3d caea c4bb 6249 a53c 4aae 07bd
00000150: 07d6 34bd b2df eebb 21f6 59b8 2691 143c
00000160: 4096 3abb 76c4 f33c f5ec a0bb 2019 0bbd
00000170: 2973 14bd 058d 27bb 8ffb f8bc 49f9 cabc
00000180: 6aa2 f8ba a19a 20bd cd48 103d d697 a1bc
0.03489738 0.013569017 -0.0075792335 0.005029314 0.0061736116 0.03688846 0.043700274 -0.0078381095
0.029150829 -0.020196028 0.031577434 0.009250652 0.041815925 0.024985923 0.033478938 -0.008367062
0.0093979975 -0.028182717 0.04033735 -0.038632434 0.022863954 -0.039707452 -0.04013539 0.02115126
-0.019515404 0.03465697 0.026623651 -0.03220436 -0.039463427 -0.010143649 -0.02218602 0.0024582087
0.046198677 0.00821957 0.0024751725 -0.03409252 -0.013615817 0.028315913 0.01919644 -0.0025784243
-0.0010596176 0.0433557 0.01770102 -0.024007965 0.038322408 0.03176016 -0.029740185 0.0048233536
0.00038302172 -0.03041438 -0.041310944 0.01834541 0.022579702 -0.029704561 0.038488694 -0.008799956
-0.04252342 0.026070617 0.029533627 0.020907454 -0.041744445 0.04026819 -0.008630873 -0.02969388
0.019360194 -0.015696988 0.0433513 -0.0417664 -0.041040093 0.021718381 -0.0038648031 0.0399813
0.012715063 0.042934094 0.008697646 -0.0026028862 0.0011341406 0.043571446 0.003294473 -0.0030873565
0.042596843 -0.0060094343 0.020176593 -0.0331252 -0.044149425 -0.00728985 -5.1966057e-05 0.009067809
-0.0028470904 0.029756766 -0.00491106 -0.033959508 -0.036242638 -0.0025566232 -0.03039339 -0.024777072
-0.0018969302 -0.039209966 0.03522568 -0.019725721

decoder.weight f4 [500, 100]
00000000: 22c1 0abd 152f 053d 1a9d 1abc cef8 9f3d
00000010: 66a4 133d 172c 0cbd e859 cfbb 081d b9bb
00000020: 250a acbc 2949 8d3c 2346 363d 6206 ecbc
00000030: a14c 323d e88a fe3c 500b 823c 4793 1dbd
00000040: 36dc cabc 55dc 703d 8d48 09bc e49c e63c
00000050: 0613 efbc 372a bf3b 7f92 9fbc 68cd c8bc
00000060: 6a02 af3b 4361 463d 8cdb 303d 1e62 593d
00000070: 3a28 d8bc 284f 0a3d 43e6 9c3c 256a 873d
00000080: 3d24 023d 31bc 1e3d e48f 5e3c a726 09bc
00000090: 153e 4abd da22 313d 9c67 a03b 1884 583c
000000a0: ba24 25bc abfb 653c 8bb9 8c3c e361 933c
000000b0: b3c8 d23a 30c9 d4bc afaf 4b3d 1f61 0e3b
000000c0: a32a 1f3d 0172 bb3d 6f9b d5bc a3a5 8cbd
000000d0: a33f 71bc 2259 063d d487 183c 248c 17bd
000000e0: 354e 753d 65f7 45bc bf4c 043d c70b b7bb
000000f0: 051b bf3d bc71 383c 72e9 2e3d 03ac a53d
00000100: 698a 84bc 8dc4 69bd afe8 3cbd 1ce2 64bd
00000110: cc8e 3bbc 3d3b 7d3b 69e1 95bd 1e9b 293d
00000120: 5456 d93c 89a0 4a3d 5d5d a23d fb3e 20bd
00000130: ff03 913d 2cc8 ee3c 76a7 a23d acea b53c
00000140: 92c6 15bd b9bb 5e3c 631f 38bd dcb2 96bc
00000150: ca5a 70bb 4ed9 82bc ceb2 8f3d 8e78 453d
00000160: 0e0b cbbc 32e2 02bd b69b 54bd 4408 08bd
00000170: 257a 353c 792c 183d 1811 143d 9fb7 63bc
00000180: 7e7f 06bd a9d0 4dbd 6cff 523c e54c 49bb
00000190: c2fb 2c3d 6731 543d 99ae d7ba f143 50bb
000001a0: 526a ae3c 2316 163d e4d7 3f3d c228 2fbc
000001b0: c5a7 403d da3c c53c 7a02 01bd 21c1 e63c
000001c0: bde8 d7bc ffa0 1c3d 5a49 1cbc 4cf0 893b
000001d0: 07b9 efbc d5d7 643c 3609 e7bc 0a5b 5e3c
000001e0: 4b75 8abd 9653 a93c 08b6 85b9 cf24 023d
000001f0: 7458 9eba 9136 29bd 0126 26bc 11ec 12bb
00000200: a49f eabc ed43 ed3c 7d36 ee3c e53d 20bd
00000210: 8b98 6e3d 716e c23b d06b c7b8 6958 823c
00000220: 94c3 13bd dbdf 3ebd 11b2 adbb f774 303d
00000230: 8b47 593d ee66 e03c 26be 433d 6a7e ab3d
00000240: 5ff2 5cbc fc21 183d 6428 6d3d 69f7 6b3b
00000250: 74ef 013c 9000 d4bb 7f65 50bd fdb5 393c
00000260: ef0d f63b a005 f2bb b0dc 8c3d 1207 cc3c
00000270: e8dc 1bbc 1a88 503d fcf1 59bd 2226 4f3d
00000280: 26f0 ae3c 2982 a6bc 720a a1bc 9134 3dbd
00000290: 8c03 dd3c 2532 3f3d 436f 3cbb 0f68 1e3a
000002a0: 6947 043d 65e5 5d3c 883f 8d3c d392 0fbc
000002b0: 9c56 00bd b1ce 1dbc c61a 1ebd ab8e 013b
000002c0: 3b56 523b 3fe3 d1bc cb94 a03b 575f 123c
000002d0: 99a7 173c e628 87bc ca93 8bbb 18b7 2cbc
000002e0: f3a3 863d 4aff 763d cd32 1eba 3216 bbbb
000002f0: ecda 43bc 763d 223c a2e1 c93b 6007 283c
00000300: 4723 6e3d 0c57 5abc da73 643c 2df8 43bc
00000310: f015 df3b db21 9e3c d60b 5f3c 6241 1dbd
00000320: dcf5 8dbb bcc5 a33b 4c7f 973d ff50 743c
00000330: 86b4 c43c 2c59 f8bc 871e b83c cb1b 2c3d
00000340: 7c1c e5bc 850f d53c ad20 2dbc dfee 8cbc
00000350: 258a 8c3b 52d7 d03c d88d e4bc 778e 163d
00000360: 401a f63c a197 51bd e201 e1bc b55e 9ebc
00000370: 9372 283b 9699 ebbc d891 d33c 4482 0f3d
00000380: 8440 7dbc 38dc 8ebc bba0 6fbc ffc8 ec3c
00000390: 0ef0 063d 73c3 953b e76a 8e3d 33ca 19bd
000003a0: 0a4d c3bc 7a91 2f3d 3539 59bb b6e6 0ebc
000003b0: 3139 64bb 8695 a03c 05ce 343c b8d5 433d
000003c0: 151a d53b 3ce0 bdbc 0116 afba cc95 6f3d
000003d0: 66de a03a 6097 013d 5b26 bc3b a55f 903c
000003e0: 8bfa 97bd 275f 5ebd f49c 71bd 3a20 123d
000003f0: 4f83 c93c 1a88 3bbd d603 b13d 97a9 bdbc
-0.033875592 0.032515604 -0.00943687 0.078111276 0.036045454 -0.034221735 -0.0063278563 -0.0056492127
-0.021000931 0.0172468 0.04450048 -0.028811637 0.04353011 0.031072095 0.015874535 -0.038470533
-0.024763208 0.058803875 -0.008379114 0.028150983 -0.029183876 0.00583389 -0.019479034 -0.024512008
0.005340864 0.0484326 0.043178126 0.053072087 -0.026386369 0.033766896 0.019152766 0.06612042
0.03177284 0.038753692 0.013584111 -0.008371032 -0.049375612 0.043246128 0.0048951637 0.013215087
-0.010079557 0.014037053 0.017178318 0.017991012 0.0016081542 -0.02597484 0.04972809 0.002172537
0.03885902 0.09152604 -0.026075093 -0.0686753 -0.014724645 0.032799847 0.009309728 -0.036998883
0.059889037 -0.012082909 0.032299753 -0.0055861208 0.093313254 0.011257585 0.0427031 0.08089449
-0.01617928 -0.05707221 -0.046120342 -0.055879697 -0.01144762 0.0038640045 -0.07318384 0.041407697
0.026530422 0.049469505 0.07927964 -0.039122563 0.0708084 0.029148184 0.07942097 0.022206627
-0.036566325 0.013594561 -0.044951808 -0.018395834 -0.0036675208 -0.01597276 0.07016526 0.048210673
-0.024785545 -0.031953998 -0.05190631 -0.033211008 0.011076485 0.037151787 0.036149114 -0.013898759
-0.03283643 -0.050247822 0.01287828 -0.0030715999 0.042232282 0.051804926 -0.0016455232 -0.0031778777
0.021290932 0.036642205 0.04683675 -0.01069087 0.047034997 0.024076868 -0.031496502 0.028168263
-0.026356095 0.038239475 -0.009538973 0.004209554 -0.029263033 0.013967474 -0.028202634 0.01357151
-0.06760653 0.02066974 -0.0002550336 0.031773385 -0.0012080804 -0.041311804 -0.010140897 -0.0022418539
-0.028640576 0.028963054 0.029078716 -0.039121527 0.058250945 0.005933576 -9.509141e-05 0.015911298
-0.03607519 -0.046600204 -0.005300768 0.043080296 0.053046744 0.02739283 0.04778876 0.08373721
-0.01348552 0.037141785 0.057899848 0.0036005622 0.007930625 -0.0064697936 -0.050878044 0.011334893
0.007508985 -0.0073859245 0.0687803 0.024905715 -0.009513117 0.050911047 -0.05320929 0.050573476
0.021354746 -0.020325737 -0.019658301 -0.04619271 0.02697923 0.04667868 -0.002875284 0.00060427276
0.032294665 0.013543461 0.017242208 -0.008763033 -0.031332597 -0.009631799 -0.038599752 0.0019768875
0.0032094854 -0.025621055 0.00490055 0.008933864 0.009256267 -0.016498994 -0.004259561 -0.0105417
0.065742396 0.060302056 -0.00060347916 -0.005709433 -0.0119540505 0.009902349 0.0061609307 0.010255665
0.05813911 -0.013326418 0.013943637 -0.011961025 0.006808035 0.019303253 0.013613662 -0.038392432
-0.0043322872 0.004997937 0.07397327 0.014911889 0.024011862 -0.030315958 0.022475494 0.042018693
-0.027967684 0.026008377 -0.010566873 -0.017203746 0.004288929 0.025493298 -0.027899668 0.03675696
0.030041814 -0.051169995 -0.027466718 -0.01933227 0.0025703057 -0.028759759 0.02582638 0.03503634
-0.015457276 -0.017438993 -0.0146257235 0.028904436 0.032943778 0.0045704185 0.06953984 -0.037546348
-0.023840446 0.042863347 -0.003314567 -0.008721998 -0.0034824128 0.019602548 0.011035447 0.04781124
0.0065033534 -0.023178212 -0.0013357998 0.058492467 0.0012273311 0.031638503 0.005741877 0.017623732
-0.07420834 -0.054289963 -0.058987573 0.035675265 0.024598746 -0.045784093 0.0864331 -0.023152156

decoder.bias f4 [500]
00000000: f336 2b3d db6c 3d3d 5050 953c 84b2 37bc
00000010: eba2 3ebd dc67 66bd 6ad7 fcbb 387c bfbc
00000020: 336b 77bc bdbf c53d 2fe8 1abb d9fb 23bd
00000030: 3c55 adbc 9d37 9e3d cd0d ac3d 7e49 5fbd
00000040: ec15 efbc 4fe8 733d 7395 913c dc76 c03c
00000050: 47a5 573d 390a 0e3d eaba 503a 3391 933c
00000060: 2799 33bc aa33 82bd c24f b2bc d23d 1dbd
00000070: 7a26 0c3d 4b55 60bd 44f4 47bd 4a50 ab3c
00000080: ed53 72bb db5b fe3c c194 21bd d217 6f3d
00000090: 73b0 683d 09e9 803d 2276 d93b 7075 b43c
000000a0: 3382 36bd 04ef 103a fc2b f13c 77af 983c
000000b0: f6c9 d7bc 8323 0a3d e7e1 cd3c 01db bdbc
000000c0: 28e7 a33d 527a 653c d2e0 953d bfba 58bd
000000d0: b6c6 983d 6c5a a63c c762 843c 8dd9 393d
000000e0: 8206 24bd 59f8 7ebb d633 973c 3c8b eabb
000000f0: 1c4c 96bb 3f02 3b3d 44c4 8abc 075f 523d
00000100: e95c b5bc ac5d 443d 909b ca3d e52b d638
00000110: a859 833d d844 6a3d 977b e4ba 2743 3abd
00000120: 325e a83d 6e93 4ebd 78ab c6bc 9882 59bd
00000130: e322 1dba 029c 5abd 410e 7d3d 6ccd 903d
00000140: 24b0 03ba 5fa7 16bd 5577 813c ea15 403d
00000150: c0c5 353d 2fe9 4cbd a341 573d ff4d 303c
00000160: 177a 7b3b 784e 1a3b 5d4e 263d af06 53bd
00000170: 0ad9 863d 52bf 163d 8d33 3d3c 6218 793d
00000180: a026 bb3d 3057 68bd 50d3 5d3d 4c49 893d
00000190: 12ca 47bc 1203 ca3d 36f0 c73d 06d6 5dbc
000001a0: e093 6e3c c91e af3d e3dd 083c 3e94 463d
000001b0: c409 853d e63b 82bc 6c4d 793d ed39 61bd
000001c0: 46c5 903d 6b0f bbbb 184e 863d 4e2d 103d
000001d0: 8998 11bc 3ad9 28bd 0df0 ec3c 59a8 523d
000001e0: f13e 1f3d b78b 903d d32f 59bc ca45 4b3d
000001f0: d84c 4c3d c269 7fbd 639d 9a3d b4a8 383d
00000200: 5198 423d dd8b 2ebd 504f 9d3d 38f4 debb
00000210: ddac a03d ecf5 74bc 84b3 2c3c 8abc edbb
00000220: 3722 edba 4312 423d 9227 05bd 9392 7bbd
00000230: 4699 b73d fa94 4abc a927 093d a487 953d
00000240: 4a8f a13d 9dde f63c 996a 8c3d c7c8 53bd
00000250: eb10 a23c fcbb 4b3d 1e3f 7bbd eb89 783d
00000260: 8977 183d c97c dfba 50ce 163d 6fa0 d6bc
00000270: 77eb a03d 1fa0 5b3d ef82 b53d e837 2d3d
00000280: 1879 c4bc fb13 003c c477 93bd bb6b 9c3d
00000290: 04cb c33d b694 8a3d 51b7 1f3d c9e2 233d
000002a0: d7e2 963d 9a27 073b b851 b33d 979e 993a
000002b0: 2c38 53bc 9dde f93c 7d78 63bd 2f0b 983d
000002c0: 11d2 b8bc 0120 8abc 1770 4fbb 3b54 c8b9
000002d0: fe04 a23a 41c6 96bc e428 ad3d 847d 3c3d
000002e0: a23f 1a3d 32e5 c83d ca24 8cbd 444e f8bc
000002f0: f933 c2bc 263a 783d 0803 7fbd 4b5f 49bc
00000300: 6bae 2e3d 8e80 a63b ec1c 453c e04b 353d
00000310: b538 963c 3b5b a73b 4251 12bd 533d 2b3d
00000320: 62ea 14bd 8789 a53b d01d 853d c71a 70bd
00000330: 6cce 363d 9814 b23d 1412 9d3c 43ad 76bd
00000340: e17f 53ba f16a 01bd a44b 663d e143 1f3c
00000350: 6156 6ebd b599 ab3d a3b5 e0bc ba6a 3e3d
00000360: 9d83 04bd 8e3b cabc e3ac 8bbc 784d b43d
00000370: f84a ce3c f254 debb 4659 3c3d 8659 1ebd
00000380: 5fe2 3e3d 2b29 733d 9dd9 713d 1c09 a53d
00000390: a78e 5cbc 85ad 873d e915 bdbb 8972 243d
000003a0: 363f 233d 2aac 433d 0da4 9c3c ecab 923d
000003b0: e52b a63c 5650 b03b a7b4 5ebd 1367 a63c
000003c0: 1c62 593a f72c 5fb9 af1e a93c 8a72 ac3d
000003d0: b088 59bc 2b1c 6bbb 9ea3 d1bc 559a 21bd
000003e0: 62a7 ad3d 0202 29bd 00b7 40bd f21a a43c
000003f0: 9372 883d 35af b7bc 50ca 9dbc 45e5 a93d
0.04180045 0.04624639 0.018226773 -0.011211995 -0.04654209 -0.05625139 -0.007716109 -0.023374662
-0.015101242 0.09655712 -0.0023636927 -0.040035103 -0.021158807 0.07725451 0.0840107 -0.054513447
-0.029185258 0.05954772 0.017771458 0.023494177 0.052647855 0.034677718 0.00079624227 0.018013572
-0.010961807 -0.063575104 -0.021766547 -0.038389035 0.03421638 -0.05476884 -0.048816934 0.020912308
-0.0036976293 0.03104966 -0.039448503 0.058372326 0.0568089 0.06294448 0.006636397 0.022028655
-0.04455776 0.000552878 0.029439919 0.018638356 -0.02634142 0.033725273 0.025132133 -0.023175718
0.08003074 0.014006214 0.07318272 -0.05291247 0.07459776 0.020306788 0.016160382 0.04537349
-0.04004527 -0.003890535 0.018457334 -0.0071577113 -0.0045867097 0.04565644 -0.01693929 0.051360156
-0.02213903 0.047940895 0.098929524 0.00010212491 0.06413585 0.05719456 -0.0017431852 -0.045474198
0.08221091 -0.05043357 -0.024251685 -0.05310306 -0.0005994273 -0.053371437 0.06178117 0.07070431
-0.00050235004 -0.03678071 0.015803972 0.0468959 0.044378042 -0.05002707 0.05255283 0.010760783
0.0038372332 0.0023545306 0.040602077 -0.051520046 0.06584366 0.03680355 0.011547935 0.06081427
0.091382265 -0.056723773 0.0541566 0.067034334 -0.012194173 0.09863867 0.097626135 -0.013539797
0.014561623 0.08550794 0.008353683 0.04848122 0.06496003 -0.015897702 0.06086485 -0.054986883
0.07068877 -0.005708625 0.06557864 0.035199456 -0.008886465 -0.04122279 0.028923059 0.05143008
0.038878385 0.070578985 -0.013256031 0.049627103 0.04987797 -0.062356718 0.075495504 0.045082763
0.04750854 -0.042613853 0.07681143 -0.0068040155 0.07845471 -0.0149512105 0.010540847 -0.0072551416
-0.0018091862 0.047380697 -0.03250844 -0.06141908 0.089647815 -0.01236462 0.03348509 0.07301262
0.07888658 0.030135447 0.068562694 -0.051705148 0.019783458 0.049739823 -0.06133949 0.060678404
0.037223373 -0.0017050739 0.03681785 -0.026199548 0.07857411 0.0536195 0.08862864 0.042289644
-0.023983523 0.007817264 -0.07200578 0.076377355 0.095602065 0.067666456 0.038993184 0.0400112
0.07367485 0.002062297 0.08755821 0.0011720237 -0.01289181 0.030501658 -0.05553483 0.07424008
-0.022561105 -0.016860964 -0.0031652504 -0.0003820973 0.0012361107 -0.018405082 0.08455065 0.04601814
0.03765834 0.098093405 -0.068429545 -0.030310757 -0.023706423 0.06060233 -0.06225875 -0.012290786
0.042646807 0.005081243 0.012030821 0.044261813 0.018337587 0.005107311 -0.035722025 0.04180653
-0.036356337 0.005051795 0.06499827 -0.058619287 0.044630453 0.08695334 0.01917366 -0.06022383
-0.00080680667 -0.031596128 0.05622448 0.009720773 -0.058187846 0.08378927 -0.027430361 0.0464885
-0.03235208 -0.024686601 -0.017050212 0.088038385 0.025182232 -0.0067850286 0.045983575 -0.038659595
0.046602603 0.059365433 0.059045423 0.08058378 -0.013461745 0.06624893 -0.005770434 0.04014829
0.039855205 0.04777161 0.019121194 0.07161698 0.020284602 0.0053806705 -0.054371502 0.020312821
0.00082925125 -0.00021283688 0.020644514 0.08420284 -0.013277218 -0.0035874944 -0.025590714 -0.039453823
0.08479191 -0.04126168 -0.047049522 0.02003238 0.06662478 -0.022422412 -0.01926151 0.08295683
