SAE2_50_ccs_epochs.pth (torch, 404584 bytes, 4 tensors)

encoder.weight f4 [100, 500]
00000000: 24cc f2bc aaa1 a53c d2c3 e6ba ab0f a5bc
00000010: 6440 2c3d 9c22 b3bc ff96 3cbc 8475 09bd
00000020: ab1a 1ebc 6b12 41bd e8da b53b c08f b0bb
00000030: 16cc 473d 755c 063d 8d95 2ebd 507f e0bc
00000040: 3bac 223d 70da 22bd 7055 22bd 2901 02bd
00000050: 03a4 ad3b e3a3 413d 1819 083d 1dde 81bc
00000060: 4683 043d 9237 26bb ed3a 963c 3df6 b3bc
00000070: 17ac 80ba 676a a13c e501 efbc 53d6 1bbd
00000080: e970 e73c ca3c 1a3d c6da 34bd 4027 e53c
00000090: 8bba cc3c a3ac 053d 8568 30bb faaf 0c3d
000000a0: 1b30 08bd 4b79 4c3d c902 5c3d 0416 2a3b
000000b0: ad2f 2f3d 94e6 2cbd 4158 0fbc 7575 febc
000000c0: 913b a9ba 82a2 f5bc a150 4d3c 2bed 393c
000000d0: 89b5 f6bc cd2a 4bbc 32e3 3f3c 71e5 1b3d
000000e0: 3f70 0bbc 0eb3 ef3c abe3 01bd 7a3e 223d
000000f0: 9029 b93c abc9 85bb 8397 b5ba c9b6 eebc
00000100: f8b5 41bc 143b 25bd dbf5 ccb9 c7de 82bc
00000110: 2400 e43c 036f cdbc 4dfc a03b 9f83 503c
00000120: 3790 df3c 847d f6bb 9162 2ebd f376 2c3d
00000130: 234a 1d3d d30e d73c d785 353c e88a 063d
00000140: 5f58 bfbc eb51 c039 b19f c03c cfe4 85bc
00000150: a708 32bc 92ee d2bc ffb8 123c 0c91 37ba
00000160: a837 31bd 4054 8ebb 2e15 1c3c 3d4f acb9
00000170: 86b9 f93b de49 13bd 79df bbbc 68ac 22bd
00000180: 38c5 41bc d821 e93a bd8e 37bd af20 1fbd
00000190: 3c7f 163d 4c2d e93c 739f ac3c 8f52 223b
000001a0: 35e0 b23b f990 d03c 9939 863c 7ce9 d8bc
000001b0: ce94 873c a740 cdbc 35ce a1ba 8c3c b13c
000001c0: 29b0 e33c 879b 7bbc 5d72 06bd 7943 25bd
000001d0: 571f a43c 450c 17bd 96ff 003d eef0 62bc
000001e0: 066b 113d 5ff5 b5bc 95b4 403d bee3 463d
000001f0: d4ca 08bd 0b0c 163d ff47 a03b 19c4 07bd
00000200: 4612 42bd 7a1c d9bb 95a3 f03a ee4d afbc
00000210: db15 8ebc 2833 fa3c 72a8 39bc 590e 5d3c
00000220: a6a1 043c fff8 36bd 40e1 eabc e70f 34bd
00000230: 1247 a73c 7136 183d 60a2 05bd 9327 dc3c
00000240: a209 ee3a ecf1 1c3d 9860 12bd 5cdd d538
00000250: aa10 06bd ffa5 253d dbdf 7b3b 1e40 0cbd
00000260: 95f5 08bd 6e84 3a3c c446 bebc 7ac0 843c
00000270: 78ca 2fbd 9860 e03c 1ccc fabc 7e4f c63c
00000280: de44 c73c 9740 223d 406f 303c 360d 23bd
00000290: 5ad0 e3bc aaec f9bc 923f fabc 295d f73c
000002a0: 2770 c93b 82a5 4e3d fce4 313c f282 8fbc
000002b0: 38c2 083d 5845 39bd d4e0 2ebd 0fb3 79bc
000002c0: fec6 fd3c 1d73 87bc b366 2cbc 9869 773c
000002d0: a704 273d 9d68 96bc 4930 d8bc 3d35 52bb
000002e0: 2d59 343d fb58 fd3c 1ed1 273c 7161 823c
000002f0: f1f3 153d 9652 033d 195e 0bbd 1e47 1ebd
00000300: fe04 18bc f09a 003d 3209 763c 50e9 3b3d
00000310: 616e b43c 17db 283d c8b1 c9bc ec0a 203d
00000320: a064 c8bc 18fe 51bc e712 263d 5517 ed3c
00000330: 8643 1a3c c6dc a93b e352 05bd a6ca 2ebd
00000340: 1df6 06bd 7c15 c6bc 83e7 e5bc 3f24 e73c
00000350: 8b0d 1abc 829c 0cbd b796 943c ab9a 91bc
00000360: 8bd6 f1bc 73ee dd3b 67c2 d73c 62e2 903c
00000370: 7a75 2c3d 6b22 a53c fcad 07bd d636 003d
00000380: 2567 023d 5443 4a3d f742 1b3d 25fc 25bd
00000390: e06d acbc dc88 a63c 5c98 27bd 1a43 0d3d
000003a0: ea3c f7bb 0e45 94bc 9e5e 233d 755c 1b3d
000003b0: 60cd 32bc 1558 d93c 22d4 e93c 7c38 72bb
000003c0: 2524 06bc 3328 b13c e44c 263d ae32 08bd
000003d0: fe57 1ebd 7034 023d f682 36bc 64d2 3ebd
000003e0: 2c82 263d de8f 103d 17c2 5abc beb5 c73c
000003f0: 8ae6 683c 7ba6 4a3c 1db7 94bc f24c f439
-0.029638357 0.020218689 -0.0017605966 -0.020149073 0.042053595 -0.021867089 -0.01151061 -0.033559337
-0.009649913 -0.047136705 0.0055497773 -0.00538823 0.048778616 0.032803018 -0.04262309 -0.027404457
0.039715033 -0.0397591 -0.03963226 -0.031739388 0.0052990927 0.047275435 0.033227056 -0.015852982
0.032351755 -0.0025362712 0.018338645 -0.021968001 -0.0009816912 0.019704057 -0.029175708 -0.038046192
0.028252082 0.03765563 -0.04415395 0.027972817 0.024991294 0.032635342 -0.0026917767 0.03434751
-0.033249002 0.04992036 0.053713594 0.0025953064 0.042770077 -0.042212084 -0.008749069 -0.031061867
-0.0012911429 -0.029984716 0.01253143 0.011348049 -0.03011586 -0.012400341 0.011711882 0.03806061
-0.008510648 0.029260185 -0.03171126 0.039610364 0.022602826 -0.0040828786 -0.0013854358 -0.029139893
-0.01182317 -0.040339544 -0.0003909309 -0.01597537 0.027832098 -0.025077349 0.004912889 0.012726693
0.027290447 -0.007522287 -0.04257447 0.042105626 0.03840078 0.026252186 0.011079273 0.032847315
-0.023357568 0.00036682127 0.023513647 -0.016344456 -0.010866321 -0.025748525 0.008955239 -0.00070025097
-0.04326597 -0.0043435395 0.009526534 -0.00032865434 0.007620993 -0.035959117 -0.022933709 -0.0397152
-0.011826806 0.0017786575 -0.04481386 -0.03884953 0.036742434 0.028463982 0.021072125 0.0024768447
0.0054588565 0.025459753 0.016384887 -0.026478522 0.016550448 -0.025055243 -0.001234478 0.021635316
0.02779396 -0.015356905 -0.03282391 -0.04034755 0.020034475 -0.036876936 0.031493746 -0.013851387
0.035502456 -0.022211729 0.047047216 0.048557036 -0.033396557 0.03663258 0.004891395 -0.033145998
-0.04738071 -0.006625709 0.0018359298 -0.021399464 -0.017344406 0.030541971 -0.011331664 0.01349219
0.008095181 -0.044671055 -0.02867186 -0.04396048 0.020419631 0.037161294 -0.032625556 0.02687434
0.001816083 0.038316652 -0.03573665 0.00010197863 -0.032730736 0.04044151 0.0038432989 -0.034240834
-0.03343733 0.011384113 -0.023227103 0.016205061 -0.0429177 0.02738981 -0.030614905 0.024207827
0.02432483 0.03961238 0.010768712 -0.03980752 -0.02780931 -0.030508358 -0.03054789 0.03019579
0.006147403 0.05045081 0.010857817 -0.017518494 0.033388346 -0.045232147 -0.04269488 -0.015240445
0.030978676 -0.016534382 -0.010522532 0.015100859 0.04077592 -0.01836043 -0.026390212 -0.003207519
0.044030357 0.030926218 0.0102427285 0.015915604 0.036609594 0.032061182 -0.034025285 -0.03864204
-0.009278534 0.03139776 0.015016841 0.0458768 0.022025289 0.041224565 -0.024620906 0.039072916
-0.024462044 -0.012816928 0.04054537 0.02894179 0.009415513 0.005183789 -0.03254975 -0.04267373
-0.032949556 -0.024180166 -0.028064495 0.028215526 -0.009402643 -0.034328945 0.018138273 -0.017773947
-0.029521247 0.00677281 0.026337815 0.017686073 0.042104222 0.020158013 -0.03312491 0.031302296
0.031836648 0.049380615 0.03790566 -0.040523667 -0.021048486 0.020328932 -0.040916786 0.03448782
-0.0075451033 -0.018099334 0.039885156 0.03792997 -0.010913223 0.026531259 0.028543536 -0.0036959937
-0.008187328 0.021625614 0.040600672 -0.033251457 -0.038658135 0.03178829 -0.011139622 -0.046587363
0.040651485 0.035293452 -0.013351939 0.024378654 0.014215121 0.012368794 -0.018153721 0.00046596635

encoder.bias f4 [100]
00000000: 8c71 103d 676a 3f3c 1a74 1bbc a0b6 e23b
00000010: a141 cd3b 2f3d 173d 1865 2b3d 6999 03bc
00000020: 35da f13c b7e1 94bc c742 f53c 375b 443c
00000030: 9bbf 2b3d 3edf bf3c d919 003d 6ae3 08bc
00000040: f509 fe3b 9198 e4bc 5bd2 1c3d 977d 27bd
00000050: 6a1e b93c c4b0 21bd 340e 24bd 2ee0 9c3c
00000060: 762c 90bc 5eec 103d 30a5 da3c 00ee 03bd
00000070: 4a71 20bd 8ad0 03bc 5e1a a1bc 0db8 333b
00000080: ee8e 3d3d 958f 043c f1c3 053c 453a 05bd
00000090: 5578 43bc d629 e93c 4e5c 913c 77f2 2bbb
000000a0: 2df8 0f3a 4120 303d 0bad 923c 1193 d5bc
000000b0: 9de3 253d d4f4 023d a818 01bd 624e 363b
000000c0: 865c 233b 7bc4 0dbd 87d9 29bd 4d31 883c
000000d0: 4ca7 a93c f12e ebbc 80db 1e3d 4dff 13bc
000000e0: 0056 2cbd 76d1 d73c a9d6 f33c f598 9a3c
000000f0: 1e3f 23bd 592c 2d3d 45dd e33b 453a f4bc
00000100: aad3 9e3c 8a60 7fbc c7a8 323d 88da 29bd
00000110: cb13 2fbd 2ad0 b43c 20b7 f6ba 4d75 2b3d
00000120: 137e 503c 19a3 283d 1230 da3b f3ac d8b9
00000130: 0028 123b 567a 323d e69a a83b c523 b83b
00000140: 6d9c 2f3d 1498 89bb e82e b33c bd1e 00bd
00000150: ee00 2dbd a60c 15bc e911 2fb8 e81b 333c
00000160: 5f2d 50bb bcdb e43c dc0d 3fbb cfa0 1fbd
00000170: d555 14bd b6e5 1139 18e5 01bd 133f dcbc
00000180: e113 21bc dd3d 20bd d081 103d 8a0f a2bc
0.035264537 0.011683083 -0.00948813 0.0069187433 0.006263927 0.036923584 0.041844457 -0.008032181
0.029522995 -0.018174035 0.029939068 0.011984638 0.041930776 0.02342188 0.03127465 -0.008355001
0.007752652 -0.02790478 0.038286548 -0.040891256 0.02259751 -0.039475217 -0.040052608 0.019149866
-0.017599326 0.035381667 0.026690096 -0.032209396 -0.03917054 -0.008045325 -0.019665893 0.0027422935
0.046278886 0.008090873 0.008164392 -0.032526273 -0.011930545 0.028462332 0.01774421 -0.002623705
0.0005491998 0.04299951 0.017904779 -0.026071103 0.040500272 0.031971768 -0.031517655 0.0027817716
0.0024926974 -0.034611207 -0.041467216 0.016625071 0.020709656 -0.028708907 0.03878355 -0.009033036
-0.042074203 0.026344996 0.029765444 0.018871764 -0.039855115 0.04227862 0.0069538676 -0.029812941
0.019388039 -0.015586982 0.04361799 -0.041468173 -0.042743485 0.022071917 -0.0018822886 0.041859914
0.012725371 0.041171167 0.0066585625 -0.00041327588 0.0022301674 0.0435737 0.0051454185 0.0056194984
0.04287379 -0.0041990373 0.021872953 -0.031279314 -0.042237215 -0.009097254 -4.173993e-05 0.010931946
-0.0031765325 0.027936809 -0.0029152548 -0.03897172 -0.03621467 0.00013913852 -0.03171262 -0.026885545
-0.0098314 -0.039121497 0.03528005 -0.0197828

decoder.weight f4 [500, 100]
00000000: 09ee 0ebd 06b5 193c 0915 1bbc ae07 ca3d
00000010: 2e7c ef3c 26ee 53bc 0f96 293c 8aa0 763b
00000020: fcb9 a9bc 71ca 883c 9be1 823d 9f4e cc3c
00000030: 1efc 603d 859d 9c3d c11d 643c a2d8 7abd
00000040: c089 c7b9 3570 783d e576 2b3c b416 a33b
00000050: 0de8 4bbd f284 883c fb92 25bd 4400 72bc
00000060: daad b139 f762 433c 6e45 cd3c 48ed 3b3d
00000070: fa37 5ebc 0278 473c 287b 8f3c b509 a13c
00000080: e967 713b 6cdc 9b3c 918a 9d3d 9d15 82bc
00000090: 08f3 73bd 0ac6 433d bc1f 1e3d 06ea 1b3d
000000a0: 72b0 973c 6728 be3c 1d13 db3c 3a3e 0e3d
000000b0: 8af0 0ebd b92d f5ba 50f2 873d 4b76 2c3b
000000c0: 2148 303d 7e98 8d3d 5c48 9bbc 1807 89bd
000000d0: a19d 8fbc 2c8b bebb ca82 a93c e2a3 08bd
000000e0: 48c5 2c3d eede cfbb d039 923c 0f2a df3b
000000f0: 002f b33d 95ab 1e3c 40fe 1b3d 9f51 b73d
00000100: 2876 59bd ff84 36bd b7a0 93bd ae27 81bd
00000110: 7edf 01bd 4461 be3c e5f9 6ebd 7473 1f3d
00000120: 697b c3ba 52da 253d 35fb 7d3d a942 13bd
00000130: 2ead b23d 7016 473d eba3 873d c808 c23c
00000140: 336e f7bc 86ce 283d 70f4 ccbc f7a6 87bc
00000150: 0990 e43b 0e4c 123c 768e 553d 2369 203d
00000160: 6830 74bd 4852 cebc 6f88 19bd 07b1 30bd
00000170: 6ac4 1c3c 4025 23bd 6005 bdba 37c8 71bc
00000180: b7cf b83c a783 65bd 3648 2a3c e82f ad3b
00000190: b105 823d a36e d33d 8ca3 d5b9 57a6 90bc
000001a0: 52bc 9b3c b5a5 ec3c fc26 f73c b6d6 09bd
000001b0: 22f6 f63c 5c2c fd3c 99bd ddbc 764d 313d
000001c0: fcd9 16bd 6494 68bc f790 87bb a9d9 013d
000001d0: 5488 8ebd 4b76 153d 4191 87bc 23a6 be3c
000001e0: 0436 bbbc e7e2 9f3b f300 5d3c 3b99 333d
000001f0: 9095 c83b b250 51bc 2590 49bc 1a86 a53a
00000200: 6c43 39bd 4a0b fe3c 3f1d 3d3d 7692 293b
00000210: 88b4 b23d 09ab d33c 6088 3dbd a9a6 133d
00000220: d7b9 dabc 37d5 4fbd 8590 2ebd a43c 8d3c
00000230: 63c3 f43c 484d 933d a171 873d 8e14 913d
00000240: 0e48 8b3c 73a2 5b3d 00bc ab3c b7a6 043a
00000250: 41a5 cfbc 0ab7 10bd 3894 28bd 795c c33c
00000260: eab5 0b3d 9ed9 23bc 9c32 aa3d 7407 163d
00000270: a46e 38bc 6f19 0f3d 8466 ffbc 6e98 9d3b
00000280: c204 f0ba a05b a4ba a667 dfbc e707 e9bc
00000290: 92a4 463d b85e 6c3d 3f9b 183c a9d2 2dbc
000002a0: 390b 4c3d b406 81bd fed4 333d 368d 143c
000002b0: bb19 823b 6a5a b8bc 75c5 7abd 819c 01bd
000002c0: a7d4 de3c 658a 21bd 4f80 fa3c a279 e93b
000002d0: 95cd 1dbc 2ac3 abbc 9123 d1bc 9ebe afbc
000002e0: 9665 a83d c3ba f83c 2039 c639 91b4 773c
000002f0: 2b39 00bc 671c fe3c 469e f0bb 949e 833c
00000300: 81a1 923d 49e9 f33c eaa5 1d3d b1d6 cabc
00000310: 6a43 8dbc 43c9 0d3d a763 d93b 4b60 28bd
00000320: 5234 813c a0d7 3fbd 2f10 113d 2702 54bb
00000330: 3e28 133d a310 81bd e1f1 093d 84ef dc3c
00000340: 07ba 0bbc 3bba 803c 25bb ebbb 5a35 4a3b
00000350: 99c0 99bc 0bfe a03b bfed 97bc 2743 6d3d
00000360: 5669 18bc a597 cabc 6a74 13bd b918 56bc
00000370: 9069 adbc 1c30 c8bc 3177 5b3d 37b6 1b3c
00000380: 7522 e7bc 6ab1 b4bb 5a47 b2bc a744 f3b9
00000390: 81a9 e63c cd82 4c3d 0766 313d 2947 45bd
000003a0: 90c7 d4ba ed0b 213d 5bc7 b83c 8e22 1f3d
000003b0: 9490 81bc 701a db3c ed53 c33b 5de5 093d
000003c0: 14f9 bb3b 5b7f c6bc 1c76 b23c 0727 f63c
000003d0: 639f 023d 7339 453c 523e 5fbc a09e 203d
000003e0: c861 27bd 8c39 6b3c 0181 98bc ae31 c53c
000003f0: 314b 58bc 0f45 c63c 7917 613d ec35 93bc
-0.034894977 0.009381538 -0.009465464 0.09864746 0.029234018 -0.012935197 0.010350718 0.003763231
-0.020718567 0.016698094 0.06390687 0.024939833 0.054927938 0.07647232 0.0139231095 -0.061241753
-0.0003805887 0.060653884 0.010465358 0.0049770717 -0.049781848 0.016664956 -0.040423375 -0.014770571
0.000338896 0.0119254505 0.02505752 0.045880586 -0.013563151 0.012174608 0.01751478 0.019657949
0.0036835617 0.019026004 0.07692445 -0.015879447 -0.059557945 0.047796287 0.038604483 0.03806498
0.018516753 0.023212625 0.026742512 0.034727313 -0.034897365 -0.0018705643 0.06638014 0.0026315625
0.043037537 0.06913851 -0.018955402 -0.06690806 -0.017531218 -0.0058149304 0.020692248 -0.033359416
0.04218033 -0.006343714 0.017849833 0.0068104337 0.08749199 0.009684463 0.03808427 0.08951115
-0.0530912 -0.04456043 -0.07208388 -0.063063964 -0.03170728 0.02323974 -0.058343787 0.038928464
-0.0014914098 0.04049141 0.062007148 -0.035952244 0.08724438 0.048605382 0.06623062 0.023685828
-0.030203914 0.04121258 -0.0250189 -0.016559107 0.006975178 0.008929266 0.052137814 0.039162766
-0.059616476 -0.02518572 -0.03748363 -0.043137576 0.009568313 -0.039830446 -0.0014421158 -0.014757208
0.022559984 -0.056033757 0.010393193 0.005285252 0.06348742 0.10323837 -0.00040748378 -0.017657442
0.019010697 0.028887609 0.030169956 -0.03365203 0.030146662 0.030904941 -0.027067946 0.043286763
-0.03682898 -0.014195535 -0.004137154 0.031701718 -0.06959596 0.036489766 -0.016548755 0.02327258
-0.022852905 0.004879344 0.013488996 0.043847304 0.006121345 -0.012775587 -0.012302433 0.0012628466
-0.045230314 0.031011242 0.04617047 0.002587465 0.0872584 0.025838392 -0.046272635 0.03604761
-0.026699943 -0.050740447 -0.042618293 0.01724083 0.029878324 0.071924746 0.0661347 0.070839986
0.017002132 0.05362172 0.020963669 0.0005060243 -0.025347354 -0.03533081 -0.041156977 0.023847805
0.034109034 -0.010000614 0.08310434 0.0366282 -0.0112568475 0.034936365 -0.031176813 0.004809431
-0.0018311965 -0.0012539513 -0.027271103 -0.028446151 0.04849679 0.05770752 0.009314357 -0.010609307
0.04981539 -0.06300107 0.043904297 0.00906687 0.0039703525 -0.02250405 -0.061223466 -0.031643394
0.02720101 -0.039438624 0.03057876 0.0071250955 -0.009631534 -0.020967085 -0.025529655 -0.021453198
0.08222501 0.030362492 0.00037808064 0.015118734 -0.00782613 0.031019403 -0.0073430864 0.016066827
0.07159711 0.029774325 0.038488306 -0.024760576 -0.01724406 0.034615766 0.006634194 -0.041107457
0.015772019 -0.046836495 0.035415825 -0.0032349916 0.03592705 -0.06302001 0.03367794 0.026969679
-0.008528239 0.015713802 -0.00719394 0.0030854554 -0.018768596 0.004913097 -0.018545983 0.05792537
-0.009302458 -0.024730513 -0.035999693 -0.013067418 -0.0211685 -0.024437003 0.053580467 0.009503893
-0.028214673 -0.0055143135 -0.021762539 -0.00046399722 0.028156998 0.04992943 0.04331019 -0.048163567
-0.0016233791 0.039318014 0.022555998 0.038851313 -0.01581601 0.026746005 0.0059609325 0.033666003
0.0057364795 -0.02423065 0.021784835 0.030047907 0.031890284 0.012037623 -0.013625698 0.039213777
-0.040864736 0.014356982 -0.018616201 0.02407154 -0.013201521 0.024202852 0.054954026 -0.017970048

decoder.bias f4 [500]
00000000: 64ff 1f3d fbf2 0b3d e052 8c3c da77 c6bc
00000010: 7ee7 44bd c13c 82bd 8529 8dbc d0d6 0bbd
00000020: a5ef 8bba 37fa cf3d 3914 683b fc88 03bd
00000030: e845 f0bc 3520 913d 8e9d 803d e37b 69bd
00000040: f2fc 98bb 17e3 863d 7d79 5a3c 19b4 933c
00000050: ca66 883d 10c2 313d eb92 9e3b 6807 823c
00000060: 3512 23bc f546 85bd 69c2 9bbc 6edf 28bd
00000070: 948a 003d 6609 85bd d398 81bd 8fb1 ca3c
00000080: aa2e 8b3c d97e 783d 3a43 2cbd d267 673d
00000090: 3600 8b3d c74c 533d 4d6b 913c 86c6 3b3c
000000a0: d984 0fbd 0962 61bb 6484 ae3c bdee 9a3c
000000b0: 85cb c0bc f105 1b3d 5f6b b53c 6131 c9bc
000000c0: fdaa 8c3d bf5e 0b3c cc6b bf3d 9434 52bd
000000d0: d15b 753d e71e 853c 3976 913c 9b88 6d3d
000000e0: 0b1f 17bd 33d6 fe3b 5ad7 393c 8346 86bb
000000f0: 5fa4 303a a441 443d bf78 cebc 0057 743d
00000100: b546 32bc 054d 823d b5c3 c93d 6f6d b1bc
00000110: 19f5 4e3d 2ca9 5d3d d047 bfbc 49df 29bd
00000120: 5840 6c3d 407a 56bd 5c24 e6bc 1290 41bd
00000130: 7ac9 90bb cb2a 38bd 5693 273d 7a34 5e3d
00000140: 37aa a23a 5f27 3fbd b292 5a3c 99e7 453d
00000150: 731d 7a3d c043 4dbd a88f 513d 1729 843c
00000160: cabb 48ba 383b ef3b f5fa 0a3d 59fd 6bbd
00000170: a617 873d 9e99 d03b d8e7 0f3c f50e 8a3d
00000180: e4e6 b93d 15cf 49bd cebd 853d 0656 6f3d
00000190: 3a81 5dbc 7802 be3d 574c a13d beb7 ffbb
000001a0: a81c 3a3c e785 9b3d 2609 a13c ac08 973d
000001b0: aa01 593d 9ed6 01bd 41fe 9b3d 3866 36bd
000001c0: 9968 7a3d f12b 91bb 9a33 843d 356e f23c
000001d0: a6c9 24bc ce66 20bd f319 0e3d 93f1 073d
000001e0: 738b 0f3d a0db 283d 027b 83bc 4933 923d
000001f0: 576d 563d 27ea 5bbd 3116 c23d 1769 d43c
00000200: e60f 353d 9c6b 68bd 33c5 933d 5513 153d
00000210: c181 aa3d 2eba f3bb 62a4 82bb 6c51 36bc
00000220: d8e4 c4bb de33 7a3d 06d7 cbbc 2608 61bd
00000230: b4fe ac3d 4d39 74bc aaac 143d 286d 9e3d
00000240: 230d 9a3d 70af 903c dca6 893d 67df 7abd
00000250: 6440 743c bdda 693d 6df4 49bd 3501 683d
00000260: 2cfe 3a3d a475 20bc 8e18 0b3d 8a8f ecbc
00000270: ab5c 8a3d 4567 6d3d 9538 bc3d e877 2f3d
00000280: d96d e0bc fcfd c03a 3782 87bd b495 dd3d
00000290: 2365 a13d a26b 9a3d 96c1 033d 8d37 5d3d
000002a0: 1ac7 613d 2aad ce3a 625d a53d 81ee 17b9
000002b0: 2d08 dbbb 2458 713b ef04 80bd 78d6 ae3d
000002c0: 5ddc 61bb c6a8 cabc 8b32 4a3b c61f 1a3b
000002d0: 4dec a33b 0532 02bc 7a9e 913d 6d12 763d
000002e0: 202f 103d 1920 d73d 9600 56bd 5324 03bd
000002f0: 5531 3bbc cc18 6a3d 8d4f 6cbd 7801 1bbc
00000300: cebc 343d 5049 e33a f96a 9c3c 4845 193d
00000310: 7199 043d ca76 ba39 c2e4 29bd 3eee f63c
00000320: ba93 d4bc 15c8 453c 9f09 963d f9ee 85bd
00000330: eb28 563d c597 9e3d 2512 b43c a165 73bd
00000340: 2e6d 163a fa6b 2ebd da86 943d 1059 263c
00000350: 4150 42bd b9e5 653d 50fe cfbc cbd7 3c3d
00000360: bf04 56bd c82a d7bc 27b9 00bd bb62 8e3d
00000370: 0a5f e23c e2f4 0fbc d685 663d 1c14 dbbc
00000380: 4051 2b3d 426c 7c3d a8b7 513d 3a40 803d
00000390: 8332 c0bc d701 8a3d 9bda 70bc d44a fc3c
000003a0: f544 dd3c c765 523d fb76 b23c bdb4 383d
000003b0: c25e c43c 25f4 743c 995e 5bbd b078 bc3c
000003c0: 8eb1 adba 7659 163c 9d96 9d3c 009b a23d
000003d0: 36a7 f0bc c591 4b3b b1fe 87bc e9e6 27bd
000003e0: 7530 3a3d a743 04bd 6e4c 19bd 8075 fd3c
000003f0: f5bb 893d 9419 02bd bcfb 9bbc 4fac aa3d
0.03906192 0.03416727 0.017129362 -0.024227072 -0.04807233 -0.06359244 -0.017231712 -0.034140408
-0.0010676278 0.101551466 0.0035412444 -0.03211306 -0.029330209 0.07086221 0.06280051 -0.057002913
-0.0046688253 0.06586283 0.013334629 0.018030213 0.066602305 0.043397963 0.0048392913 0.015872672
-0.009953071 -0.065076746 -0.0190136 -0.041228704 0.03138216 -0.06495933 -0.06327977 0.02474287
0.016990025 0.060667846 -0.0420563 0.056495495 0.067871496 0.051586892 0.01775136 0.011460906
-0.035038803 -0.003439071 0.021303363 0.018912667 -0.023534546 0.037847463 0.022145925 -0.024559679
0.06868551 0.008506476 0.093467325 -0.051319674 0.059902016 0.016250087 0.017756568 0.057991605
-0.03689484 0.0077769994 0.011342848 -0.004097761 0.00067383604 0.047914162 -0.02520406 0.059653282
-0.010881116 0.063623466 0.09851781 -0.021658627 0.050526712 0.054116413 -0.023349673 -0.041472707
0.05767855 -0.05236268 -0.02809351 -0.047256537 -0.004418549 -0.044962686 0.040911995 0.054249264
0.0012410347 -0.046668407 0.013340639 0.04831657 0.06106324 -0.05011344 0.051162392 0.016132874
-0.0007657377 0.0073007606 0.033930738 -0.057614658 0.065963075 0.006365969 0.008783303 0.06741134
0.09077242 -0.049269754 0.06530343 0.058431648 -0.01351958 0.092778146 0.07875889 -0.007803886
0.011359371 0.07593899 0.019657683 0.07374701 0.052980103 -0.031698816 0.076168545 -0.044531077
0.06113491 -0.004430287 0.06455155 0.029593566 -0.010057842 -0.039160542 0.034692716 0.033189368
0.0350451 0.041225076 -0.016049866 0.07138688 0.05235037 -0.053690102 0.09476889 0.025929017
0.044204615 -0.05674325 0.07215347 0.03639539 0.0832553 -0.007437966 -0.003986881 -0.011127811
-0.0060087256 0.06108462 -0.024882805 -0.05493941 0.08447018 -0.01490624 0.036297478 0.07735664
0.07522037 0.01766178 0.06721279 -0.06124821 0.01490793 0.05709337 -0.04930537 0.056641776
0.045652553 -0.009793673 0.033958964 -0.028877039 0.06755956 0.057959814 0.0919048 0.04283896
-0.02739613 0.0014724131 -0.066166334 0.10819569 0.078806184 0.075400606 0.03216704 0.054008055
0.05512152 0.001576816 0.08074452 -0.00014489332 -0.0066843242 0.0036826218 -0.06250941 0.085370004
-0.0034463622 -0.02473868 0.003085288 0.0023517474 0.0050025345 -0.007946496 0.07110305 0.060076166
0.035201192 0.10504169 -0.052246653 -0.032017063 -0.011425336 0.057152554 -0.057693053 -0.009460799
0.04412537 0.0017340574 0.019093977 0.037419587 0.032372896 0.0003556519 -0.041477926 0.0301429
-0.025949348 0.012071629 0.07326054 -0.06539721 0.052285116 0.077437915 0.021981308 -0.059423093
0.0005738315 -0.042583443 0.072522834 0.01015307 -0.047439817 0.056127284 -0.02538982 0.046104234
-0.05225062 -0.026265517 -0.031426575 0.06952425 0.027633209 -0.008786412 0.05627998 -0.026742987
0.041825533 0.06162668 0.05120054 0.0626225 -0.023461586 0.06738632 -0.014700557 0.0307974
0.02701042 0.051366594 0.02178525 0.04509424 0.023970965 0.014950787 -0.053557012 0.023006767
-0.0013251768 0.009176603 0.019236857 0.0793972 -0.029376607 0.0031062227 -0.016600939 -0.040991697
0.04545637 -0.03229108 -0.037426405 0.030939817 0.06725303 -0.031762674 -0.019040935 0.083336465
