SAE2.pth (torch, 404344 bytes, 4 tensors)

encoder.weight f4 [100, 500]
00000000: 616d 4ebc d771 bb3c 39d6 7fbc b60e 2e3d
00000010: 0bf1 88bc fd76 173d c4cc 79bc 9486 2cbc
00000020: 3a2e 273c 9e3f 07bd 7d8c 23bd 3f37 a2bb
00000030: 934a 13bc 2ea9 a0bc 111b e53a 3a6c adbc
00000040: 5a48 233c 112c 5e3c ce8f 5d3a 8862 08bd
00000050: c4d7 a3bc 46a1 603b 3fcc b4bc ac0f 0bbc
00000060: c45c 563d 9307 36bc 5bba ea3c 7a40 593c
00000070: b60a d6bc dd87 833c 166b 20bd d0e5 a4bc
00000080: 5c48 603d e26f 13bd 47a6 983c 777b c4bc
00000090: 7df7 c5bc faac 203a e74e 98bc ab27 43bd
000000a0: dae0 17bb 32aa dfbc 3610 06bb f737 e4ba
000000b0: f8f1 3f3a f2e3 2e3d 87bf b1bc 551a 413d
000000c0: aaa3 173d 0468 4f3d 366b 54bc f436 a23a
000000d0: 7cfb 4d3d 4b64 943c 7e28 1abd 7419 3c3b
000000e0: 3786 0cbd cfde c33b 0b15 2f3d 1c6f 923c
000000f0: 40ac cabc cec5 01bd b463 e0bc 787b 4e3c
00000100: 5826 37bc 2771 443d 9e9e debc 6537 2a3d
00000110: f5bd 4c3d 02ec 07bc 1d05 54bd 77a6 7b3b
00000120: 3676 bdbc 7ef6 4bbc 2259 07bd 25ae 9fbc
00000130: d330 fcbc 9f12 303a c6d5 d3bc 47ca 96bc
00000140: 66b3 023d 7d8e 1ebd 51f2 3d3b 7db0 f8bb
00000150: 1027 e1bc e28d a33b 7699 cd3b ca31 a13b
00000160: 05cb 22bd 943a b2ba 15a3 3f3d 41ad 5e3d
00000170: cf6b 3ebd 1617 63bc 7543 ceba c298 933c
00000180: 47dd 023c b20d 08bc 7370 acbc cf59 c83c
00000190: 3155 14bb 6ce7 90bc cb17 373c 2b7c 5b3c
000001a0: 96b7 c8bb 147c b73c f6fe 00bd 759e 693c
000001b0: 30c2 5a3c aebc 123d 412f 0b3c 508f eabc
000001c0: e6b3 f7bc b106 e4bc 4b63 86bc 6867 c5bb
000001d0: b05a 5d3c f267 513c 1b4a 29bc cf1b 503c
000001e0: 3ce0 a03b f589 b3bc 9c02 02bd a5a1 0c3c
000001f0: a03d 28bd a21e 8a3a 1729 a8bb 8774 453b
00000200: 9115 903a df3d 0abc 1d99 4abd 18eb 93bc
00000210: 3393 353d 7f79 a8bb 5c62 063d c0a2 aabc
00000220: b95b eebc a096 dabc 2cbc 92bc 4c8c 0dbb
00000230: cea6 5f3d baf5 84bb 9b95 1c3d 1cde 483d
00000240: a4be efbc 0b1b 40bc e0b1 99bc 0280 753b
00000250: 4da6 fabc 77a7 233d 014d b3ba 6d8a 613c
00000260: 2f39 9f3c 54b6 51bc 1909 513d 992a 3fbd
00000270: 3a31 393d e524 613c 172a 643d 9dce a03c
00000280: dbfc 82bb 6709 59bc 2678 8fbb eea4 f73a
00000290: c946 cb3c 894d 913c ef20 5b3c 36e1 273d
000002a0: 990a 0c3d 3062 5f3d 46c9 ce3c 1c7d 123d
000002b0: 9053 1bbc efed e5bc c580 4a3a b1e7 0a3c
000002c0: 7295 c33c 8a9e e03c 3d06 63bc 73c0 3b3d
000002d0: 4e52 33bd 7b89 e3bc f8b7 bdbc 2b58 363d
000002e0: 10d6 19bd 8a4e 97bc b48b 993c 84ab 413b
000002f0: 8b98 debc eb9e e43b b150 5cb9 8c43 15bd
00000300: 589e 9e3c ea79 d53c 26bc e3bc 13ac 073d
00000310: 2e92 403d 03a4 0d3d 8f00 8139 73d9 b03c
00000320: 0a37 2e3d a9da e13c 94fb c0bc daf2 04bd
00000330: b42f d4bc 5ab9 a8bc 672f a83c 4e76 ecbb
00000340: ce02 763c 690a 9e3c abf3 263c 25d2 15bd
00000350: 9b02 b4bc b599 01bd 65c7 1e3d ff92 0abd
00000360: 949c 363d 3890 93bc f1f0 843b a227 b13b
00000370: 4b7c d53c 748c c4bc ef51 b63c c27a 15bc
00000380: 4608 81bc 9318 4d3c 4e78 813c 9294 90bc
00000390: 3c41 0b3d 4559 1e3d 21df e3bc 5280 25bc
000003a0: 6dd0 34bd 71db 21bb d048 853c f4a0 f1bc
000003b0: 0152 63bc ab19 14bd c657 5a3c 0913 483d
000003c0: 7cf7 233d f1f6 03bd 135d 8fbc 9ccd 25bc
000003d0: 95d5 12bd 9820 35bd acb7 59bc 20c0 983b
000003e0: 9628 44bd 3d58 8b3c fb8f 983b 28eb 1d3c
000003f0: 3958 c2bb 666d 583c ac74 153b 2b3e 923b
-0.01259932 0.022881432 -0.0156150395 0.0424945 -0.0167165 0.03697871 -0.015246574 -0.010530133
0.010203892 -0.033019654 -0.039928902 -0.0049504335 -0.008989948 -0.019611921 0.001747938 -0.02116977
0.00996598 0.013560311 0.00084519095 -0.03329709 -0.020000346 0.0034275814 -0.022070048 -0.008487623
0.052334562 -0.011110204 0.028653314 0.013260001 -0.026128154 0.016055996 -0.039164625 -0.020129114
0.054756507 -0.03599537 0.018633975 -0.023984654 -0.024165863 0.0006129291 -0.018592311 -0.047645252
-0.0023174793 -0.027302835 -0.002045644 -0.0017411698 0.0007322128 0.042697854 -0.021697773 0.047144253
0.037021317 0.050636306 -0.012965014 0.0012375996 0.050288662 0.01811423 -0.037636273 0.0028701695
-0.034307685 0.0059774886 0.042744678 0.017875247 -0.024740338 -0.031682782 -0.027391292 0.012602679
-0.011178575 0.047959473 -0.027175244 0.041556735 0.049985845 -0.008296015 -0.05176269 0.0038398781
-0.023127656 -0.012448905 -0.033043988 -0.019492218 -0.030785 0.0006716642 -0.025858771 -0.018407
0.03190937 -0.038710106 0.0028983543 -0.0075893984 -0.027484447 0.004991279 0.0062743975 0.0049192654
-0.039744396 -0.001359778 0.046786387 0.054364447 -0.046489533 -0.013860485 -0.0015736656 0.018017177
0.007987327 -0.0083040465 -0.021049714 0.024456887 -0.0022633786 -0.017688476 0.011175106 0.013396303
-0.006125401 0.022398032 -0.03149315 0.0142589705 0.013351962 0.03582447 0.008495153 -0.02863279
-0.03023715 -0.027835222 -0.016404768 -0.00602429 0.013510391 0.01278113 -0.0103326095 0.012701943
0.0049095433 -0.021916369 -0.03174077 0.008583461 -0.041074395 0.0010537694 -0.0051318514 0.003012927
0.0010992755 -0.008437603 -0.049462426 -0.018056437 0.044329833 -0.0051414366 0.032808647 -0.020829558
-0.029096471 -0.026683152 -0.017911993 -0.0021598516 0.054602437 -0.004057613 0.038228612 0.049039945
-0.02926571 -0.011725198 -0.018761575 0.0037460332 -0.030596877 0.03995463 -0.0013679565 0.013765913
0.019436447 -0.012799818 0.051034067 -0.046671484 0.04521296 0.0137417065 0.055704203 0.01962977
-0.003997428 -0.013246871 -0.0043783365 0.0018893757 0.024814026 0.017737167 0.013374551 0.040986262
0.034189794 0.054537 0.025242459 0.035763845 -0.009480372 -0.028067557 0.00077248766 0.008478091
0.023874972 0.027419347 -0.013856468 0.04583783 -0.043779664 -0.027775517 -0.023159012 0.044517677
-0.03755766 -0.018470068 0.018743373 0.0029551694 -0.027172348 0.0069769523 -0.00021010895 -0.03644137
0.019362614 0.02605911 -0.027799677 0.033123087 0.047014408 0.034580242 0.00024605214 0.021588063
0.042532958 0.027570086 -0.023557462 -0.032458164 -0.025901653 -0.020596195 0.020530416 -0.0072162515
0.015015317 0.019292073 0.010189931 -0.036577363 -0.021973899 -0.031640727 0.038764376 -0.033831593
0.04458292 -0.018013105 0.0040570428 0.005406336 0.026060244 -0.023992755 0.022255866 -0.009123506
-0.015751015 0.012518066 0.015804436 -0.017648969 0.03399776 0.038659353 -0.027816357 -0.010101395
-0.044144083 -0.0024697448 0.016270071 -0.029495694 -0.013874532 -0.03615729 0.013326591 0.04884628
0.04003094 -0.032217924 -0.017500436 -0.010119822 -0.03584822 -0.044220537 -0.01328842 0.004661575
-0.04789027 0.017009849 0.0046558357 0.009638585 -0.005930927 0.013209676 0.0022805138 0.0044629774

encoder.bias f4 [100]
00000000: 885e 913c 9fc9 81bc 862c 88bc 33da 0bbd
00000010: e2d4 143d 71fa bc3b 789c 5bbc d174 203b
00000020: a291 0abd 40ab 203d 7cbf 56bb e492 ba3b
00000030: f523 1bbd 4431 233d 2a11 ea3a 65a1 1abd
00000040: d9d8 c83c 8d4b 393d ff9c 343d c890 a9bc
00000050: 1f9b 043b 96a5 e13b bb4a 40bc bdda 27bd
00000060: d6f4 e13c 95d3 e9bc f832 1f3d 4cb4 993b
00000070: 981b 5dbc c7a5 73bc 2907 d23b b47c 7f3c
00000080: e174 d7bb 7cf3 e23c 0adf 02bd 96a6 29bc
00000090: c898 2f3d f949 3cbc fb84 153d 4e32 863c
000000a0: d3a6 803c b1ac f1bb 80f1 ce39 ccd8 3fbc
000000b0: 3a65 1e3d 7da7 e1b9 dfdb 813c 21e4 13bd
000000c0: 303d af3b 4ee4 073d c416 14bd fcf8 003d
000000d0: 1837 00bd c4de 36bb 4703 053d 6c2a 673c
000000e0: 8809 ce3c d27e 213b 04e7 003d 4d78 223d
000000f0: d3fb 0abd d98f c13c 7606 1fbd 46c3 1a3c
00000100: d382 08bd 9092 09bc b6a7 963c 0678 b1bc
00000110: 3b7e fdbc 1253 6b3b eb3b cdbc 325c 29bb
00000120: 653f 2d3c 4b7a 6dbc d6cc 30bd 3a90 cc3c
00000130: bfc3 2a3d 1571 1a3d b85c dcbc 39dc 843b
00000140: eb5a e1bb 323c e03c fcb3 d1bc 5be3 98bc
00000150: a89c 0dbc e051 af3c 8877 eebc 55da 25bc
00000160: dfb1 00bd 3d1e 8d3c d91b e9bc 4fff 1abc
00000170: aeb3 aa3b c0cf 90bb 6bae f4bc a1b9 403c
00000180: 3352 2ebd f133 1f3d 532f 9f3c 327c 64bc
0.017745271 -0.01584321 -0.016622793 -0.034143638 0.036335833 0.0057671596 -0.013404004 0.002448369
-0.033830293 0.039225817 -0.0032767942 0.0056937803 -0.03787609 0.039841905 0.0017857898 -0.037751574
0.024517464 0.045238066 0.044095036 -0.02069892 0.002023406 0.0068861945 -0.011736567 -0.04098009
0.027582567 -0.028543273 0.038866967 0.0046906825 -0.013495348 -0.014871067 0.006409545 0.015593696
-0.0065752123 0.027703993 -0.031950988 -0.010354659 0.042870313 -0.011492246 0.036503773 0.016381409
0.015704548 -0.0073753227 0.00039471313 -0.011709403 0.038670756 -0.00043040133 0.015851913 -0.036106233
0.0053478703 0.033176713 -0.036154523 0.03148745 -0.03130254 -0.0027903775 0.03247383 0.014109235
0.02515103 0.0024642241 0.031470314 0.03966551 -0.033931565 0.023628162 -0.03882452 0.009445971
-0.03332789 -0.00839676 0.018390518 -0.021663677 -0.03094398 0.0035907668 -0.025052985 -0.0025842306
0.010574196 -0.014494489 -0.043164097 0.024971116 0.041690584 0.0377055 -0.02689968 0.004054573
-0.0068772933 0.027372453 -0.025598519 -0.018663099 -0.008643307 0.021401346 -0.029109731 -0.010122855
-0.03141963 0.017226333 -0.028455662 -0.009460284 0.005209408 -0.004419297 -0.029868325 0.011763007
-0.04255886 0.038867895 0.019431746 -0.013945626

decoder.weight f4 [500, 100]
00000000: e5ca 60ba 55c0 133d 0b6f 803d dc4c fabc
00000010: 6795 673d 4a45 683d e64e 4fbd 68e5 003d
00000020: f917 653c ddc6 4cbd 3ee6 75bd 7c94 b13d
00000030: 7553 67bd 1a52 aebc f80a 893d d99c 11bd
00000040: cfa2 f0bb 0127 823d 56a0 b73d 95c6 763d
00000050: 3257 a83d 3aae 92bc beed 0bbd bd2b 153d
00000060: 93a3 52bc ed8e 2c3d 13b9 b5bc 5d26 10bd
00000070: 53e6 79bd efb9 0fbd 08f6 22bd 2cbc 64bd
00000080: a34a b43c e502 953d c08d 813d 13fb c8bc
00000090: 80d1 9a3d 4d21 5fbd c757 c03b 97de 343c
000000a0: 0dbc 503a 2ece 41bc e0c7 f73c 7697 ccbc
000000b0: a700 42bd e804 ebbb f4f2 1abc e314 143d
000000c0: 1626 38bc 0e98 4e3d 0714 bd3d 1542 a93d
000000d0: f1f6 58bd 0e99 a03d c17c a5bc acdb 6e3d
000000e0: 36dd 96bc b36e d0bc d9b3 f23c 8537 5e3a
000000f0: 3ad6 013d 038c 663d 49f3 6d3d 232b 66bd
00000100: 3044 3c3d 6b75 5cbd a7f2 313d bfc5 15bd
00000110: f6d8 2bbd bec4 91b9 1dd5 4dbd 2cfc 413b
00000120: 51c8 22bd 5fc3 ac3c bd25 3cbd 05bf c43d
00000130: b2a7 4c3d 71b4 08bd 2449 543d 3a9e c8bc
00000140: 2b86 30bd 43a2 db3d 8045 bc3d 2324 743d
00000150: 32d5 073d 8753 1a3b 4099 d33c 471b 943d
00000160: 2f47 0bbd a903 343d 37b5 8a3d 1c36 1a3d
00000170: 2f49 93bc ca02 883d b915 9cbd 6c36 753c
00000180: 4981 fb3c 4dee d43d f6cd 2fbd 023f e73c
00000190: 5d75 cc3d 9cbe 033d fa39 023d 300e 53bd
000001a0: 3a5e 5c3d 808d d33c aa0a 96ba 89ba e7bc
000001b0: 7a77 2cbb 10e0 f93c 4132 0dbb 681c d0bc
000001c0: 8863 013d 8941 bfbc 1d60 873d 8d30 1cbd
000001d0: 23d9 7d3d c281 853d c0a1 1fbd 8cd8 3a3d
000001e0: 6a3e be3c 2680 02bb d312 503d c84c 873d
000001f0: 4b6c e3bc 84fc ecbb eef6 44bc 9ec1 563d
00000200: 0245 b3bc d47f afbb 28ab 2bbd e0b5 07bd
00000210: 3c5b ad3c 202f 573d d60c 5cbc eac9 01bd
00000220: 4f65 6a3d 7929 163d b9ec c7bc e0c2 4b3d
00000230: 4156 e73c f663 54bc 9faa 4939 1d82 e73c
00000240: a9fb 0a3d f699 1fbd a9e3 233c c597 5d3d
00000250: e4d9 4a3d fca3 bf3c 7ba1 dcbc 8dcf 84bd
00000260: 8bad a3bb 2c6c 1cbc 4d0a 2abd fc67 e13c
00000270: aef3 7abd 125e 043d afa2 12bc 0d77 323d
00000280: 6718 cabc 2845 063d 7be1 75bc e835 873d
00000290: be24 99bc 4b02 243a f98d 353d 8902 183d
000002a0: edc4 ae3d e463 51bd d606 90bc babd 563c
000002b0: ee63 193c 7b44 f53a 32ca cb3c 5990 73bd
000002c0: 5b4f 3b3d b7cd 9737 2cb3 4dba e725 5a3c
000002d0: 424e 983d 092f 83ba 0b59 e13b a4ae 1f3d
000002e0: 5d45 55bd 1bef e8bc 34ee 9bbc 9517 0a3d
000002f0: 6d56 65ba 0392 37bd a880 e43c cf2d 713b
00000300: 57a9 283d 4b14 69bd f2d8 1f3d ad79 ff3c
00000310: 2c9a 83bc 4926 b73c 6966 583c 6110 2d3d
00000320: 4132 273d 20bd 8ebc e5fb 40bc df3e 84bc
00000330: c497 fc3b f056 a0bb 7a3c 2f3c 40f8 abba
00000340: b6b5 243d c86a 85bc f86e 813c 8c60 99bb
00000350: 01c9 30bd 68b2 d4bb b396 94bc 8410 863d
00000360: 13aa 1f3d 4bfb 6dbc f12e b33c 9d30 33bd
00000370: a71f 853d c78f c23c 595f 3e3d 1811 48bd
00000380: 3bd1 1c3b 72a0 003d 6f6f 883d f959 66bc
00000390: 160e 713d 17f5 553c 34c6 2abd 0e5b 17bc
000003a0: 6a6e d8bc 9b6e dbbc 9e9a 893d e72c 4a3c
000003b0: ff0c 5d3d 0ce0 90bc 76a3 8c3d 5bf6 c23c
000003c0: d274 01bd ed35 683c f3db a1bc 695a f4bc
000003d0: 7f81 853c a651 0bbd d8eb d1bb 9c95 11bd
000003e0: 500d 0c3d cc10 56bd f710 963c e46f ea3c
000003f0: 169e f5b8 3c28 f93c ddae 443d eed6 0d3c
-0.00085751555 0.036072094 0.0627118 -0.030554228 0.056538966 0.056706704 -0.050612353 0.03146878
0.013982766 -0.04999434 -0.06003403 0.08670899 -0.056476075 -0.021279383 0.06691545 -0.035549972
-0.007343627 0.06355096 0.089661285 0.060247976 0.08219756 -0.017905343 -0.034162275 0.036418665
-0.012856382 0.042128492 -0.022182977 -0.035192836 -0.06101067 -0.03508943 -0.039785415 -0.055843517
0.022008246 0.07275943 0.06325865 -0.024533784 0.0755949 -0.054475117 0.005869839 0.011039398
0.0007962592 -0.011828942 0.030246675 -0.024974566 -0.047363903 -0.0071722157 -0.009457339 0.03615273
-0.011239549 0.05043798 0.092323355 0.08264557 -0.052969877 0.07841693 -0.020201089 0.058314964
-0.018416028 -0.02544341 0.029626774 0.0008476901 0.031698443 0.05628587 0.058093343 -0.056193482
0.045963466 -0.053822916 0.043444302 -0.03656554 -0.041954957 -0.0002780314 -0.05025207 0.002959977
-0.039741818 0.021089254 -0.045934428 0.096067466 0.049964614 -0.033375207 0.051827565 -0.02448951
-0.043096703 0.10724308 0.091929436 0.059604775 0.033162303 0.0023548321 0.025829911 0.07231765
-0.034003433 0.043948803 0.06772845 0.03764926 -0.017979233 0.06641157 -0.07621331 0.0149665885
0.030701296 0.10397015 -0.04292103 0.028228287 0.09983323 0.0321642 0.031793572 -0.051527202
0.0538008 0.025824308 -0.001144727 -0.02828719 -0.002631633 0.03050235 -0.0021544846 -0.02540417
0.03158906 -0.02334668 0.06610129 -0.03813224 0.061974656 0.0651889 -0.038972616 0.04561667
0.02322312 -0.0019912808 0.050799202 0.06606442 -0.027761599 -0.0072322506 -0.012021763 0.05243074
-0.021883491 -0.0053558145 -0.041911274 -0.033132434 0.021161668 0.052535176 -0.013430795 -0.0316867
0.05722552 0.036660645 -0.02440487 0.049746394 0.028239371 -0.012963286 0.00019232415 0.028260285
0.033931408 -0.038965188 0.010003009 0.054099817 0.049524203 0.023393624 -0.026932469 -0.064849
-0.004995053 -0.009547275 -0.04151373 0.027515404 -0.061267547 0.032316275 -0.00894992 0.043570567
-0.02466984 0.032780796 -0.015007372 0.06602079 -0.018694278 0.0006256445 0.04432485 0.037111793
0.08533654 -0.051120654 -0.017581385 0.013106758 0.009362204 0.0018712425 0.024876688 -0.059463833
0.045729976 1.8096396e-05 -0.0007846828 0.013314701 0.074368015 -0.0010008524 0.00687707 0.03898491
-0.052068103 -0.028434327 -0.019034483 0.033713896 -0.0008748535 -0.044816982 0.02789338 0.0036800986
0.04117712 -0.05690412 0.039025255 0.03118595 -0.016064726 0.022357123 0.01320801 0.04225195
0.04081941 -0.017424166 -0.011778806 -0.01614326 0.0077085216 -0.0048931763 0.010695571 -0.0013120249
0.040212356 -0.016286269 0.015799984 -0.0046806987 -0.043160442 -0.0064909942 -0.018138265 0.06546119
0.038980555 -0.014525245 0.02187297 -0.043747533 0.06500178 0.023750199 0.04647765 -0.048844427
0.0023928422 0.031403013 0.06661879 -0.014059537 0.058851324 0.013058922 -0.041692927 -0.009238018
-0.026419837 -0.02678614 0.06718944 0.012339807 0.053967472 -0.017684959 0.06867115 0.023799112
-0.03160555 0.014173013 -0.0197582 -0.029828267 0.0162971 -0.034013413 -0.0064062886 -0.03554307
0.034192383 -0.052262112 0.018318636 0.028617807 -0.00011711956 0.030414693 0.048018325 0.0086572

decoder.bias f4 [500]
00000000: e1c9 24bd ab2e 663c b794 6f3d 5988 5d3b
00000010: ce37 15bd 91e6 583c f01e cb3d ba6d 953c
00000020: d1a3 7bbb 5b42 5b3d 7fae 773d 2263 16bd
00000030: 91cc 4c3d 92b3 87bd d5bf 51bd 5eb2 823d
00000040: 93bb 133c e9d0 5b3d dfbd 65bc 04ca 973d
00000050: 08ce 3ebd dba3 a73b f3c4 98bc 2078 f63c
00000060: 799d 28bd deac 85bc ac49 65bd 40d0 9bbc
00000070: 7ed2 953d 8e40 903d 9876 653c 46ea 4cbd
00000080: ef0f 5a3d 6a22 7e3d 652a 083d 4f3f 493d
00000090: eb00 3fbd c7b8 6f3b 7249 e1bc c87a 023d
000000a0: 808a 58bd f874 663d 63d8 aa3d b16e 243d
000000b0: c852 563d 5b84 b13d 01be 0bbd 5932 6cbd
000000c0: 3131 933d 4b00 68bc 778b 1f3d 2028 713c
000000d0: 85d5 9f3d 7e51 af3c 4435 1e3d 815b 67bd
000000e0: 6e7a 853d 9942 553c 8f11 10bd 68a7 153d
000000f0: 639e b43d 4d24 65bd 84ab 9f3d f01a 163d
00000100: b243 38bd 850d f33b 13f0 c13d d2ba 5f3d
00000110: 4ae1 a53c d832 563d 6321 173d 98fd ae3a
00000120: 418b f4bc 8152 babc df78 81bd 54c0 563d
00000130: 9fc7 4d3d aec5 553d 9d85 17bd 67c6 133d
00000140: 1128 093d a27f bdbc f83d 18bc c173 4c3d
00000150: 8bf1 cf3c 32de b03d 629e 6b3d ea3b 063d
00000160: 7e8c 013d 61b1 7c3d e7e7 da3c 1a0e 743d
00000170: 72ec 593d 7b6c 9f3d f7ce af39 f9cc bf3d
00000180: 62f8 0fbc bc6c 51bd 2ae8 37bd f84a 78bb
00000190: 6f4f 39bc 04d4 28bd 10d8 d63c b249 63bd
000001a0: 9c6a 573d f53e 2d3d a8c7 843d 5da7 b63d
000001b0: 94bb 9c3c 01f2 9c3d 8c25 8b3d 5ff1 26bb
000001c0: 7b5c 2b3d be8d 073d 0c0e 643d 61b0 3c3d
000001d0: 7c1f 2f3c e59e 893b a579 813d 1e0e cc3b
000001e0: 9717 883d f681 153d 7b50 b33c d7de 3b3c
000001f0: d946 b23d 558e 60bc 0d71 88bc 942d 8a3d
00000200: c2d7 c93d 79b5 4bbd 51db 22bd 6e96 cfbc
00000210: f409 473d d46d 983c 5e57 22bd ca58 70bd
00000220: c7e4 63bd e1a0 55bd 9095 cc3d 80db 593d
00000230: b025 3c3d 6af6 7a3d b353 713d 0673 74bd
00000240: b6dd a93a c55c a23d 557b 6d3d 63a0 ad3d
00000250: 2668 833d 83d4 343d 391b 173c 574d 1ebd
00000260: f8f1 cb3c c58a 5d3d cb7e 56bd 9873 2dbc
00000270: 6753 65bd 248d c33c d624 343d 3f49 303d
00000280: 9866 00bd 28d9 db3b d245 d339 6e10 053d
00000290: 843f f03c 762d 923d 2814 6a3d f1ee 48bd
000002a0: 79b5 7e3d 6a51 dbbb 30bf 753d 8bc1 9b3c
000002b0: 800f 80bd ab59 48bd e622 06bd 23a9 803d
000002c0: 606c 013d 3268 993d 1aae 0abd 7066 503d
000002d0: 71a2 2c3d 1d62 b33d db13 bcbb c218 a13b
000002e0: a75f 933c c718 923c 8587 a0bb a423 babc
000002f0: cd6c a1bc 6edc a33d fa7a d33a a1ed 043d
00000300: 43dc 953c 6df7 223d 4739 853d c558 76bc
00000310: 7f67 aebc da45 243d 4c78 4b3d 7e86 473d
00000320: b67e 843b 1df0 9fbc cdbd 6dbb e275 8c3d
00000330: bc97 ca3c 3f5e 853d 126a 073d 45ca 0dba
00000340: cb0b 5abd 3c97 06bc ebf5 ed3c e3c9 0cbd
00000350: 4701 79bd 5da8 973d 94f6 7abc 9c3d bd3c
00000360: 1e8c 1d3c 8246 d83c f238 8d3d 282a 48bd
00000370: 5bb3 22bc bbfd ac3c e1b3 a63c 75a5 a23d
00000380: f7d7 403d 2d98 b1bc 7c74 793d 9be2 373c
00000390: 1ec2 1dbc aa7d aa3c 0211 813d 7719 15bd
000003a0: aee3 6c3d ad4f 9c3d 365d 9d3d d2ca 553c
000003b0: 0266 833d b9e9 3a3d fc73 d43c 9e11 613d
000003c0: b8ff 013d cdbd 2d3d 6386 903d ce3b 023d
000003d0: e130 9b3d ac28 e8bb 8a47 5c3d ed26 45bd
000003e0: 299a ae3c 30b1 21bd ea3d 8a3d 395e 61bd
000003f0: f810 983d 4593 6f3d acff 193d 1a49 9e3d
-0.04023159 0.014049212 0.058491435 0.0033803193 -0.036430173 0.013238565 0.0991801 0.018240798
-0.0038397203 0.05353008 0.060469147 -0.036715634 0.049999777 -0.06626047 -0.051208336 0.06381677
0.009016889 0.05366603 -0.01402232 0.07411578 -0.046583205 0.0051159686 -0.0186486 0.030086577
-0.041165803 -0.016317781 -0.055978462 -0.0190202 0.07315539 0.07043563 0.014005326 -0.050028108
0.05323785 0.06204454 0.033243556 0.04913264 -0.046631735 0.0036578642 -0.027500842 0.031855375
-0.05286646 0.056263894 0.08342054 0.040144626 0.05232504 0.08667823 -0.03411675 -0.057665203
0.07187117 -0.014160226 0.038951363 0.014719039 0.078043975 0.021401163 0.038625017 -0.05648375
0.06517492 0.013016366 -0.035172995 0.036536604 0.08819272 -0.055942822 0.07796386 0.036646783
-0.044986434 0.007417383 0.09469619 0.054621525 0.020249028 0.052294582 0.036897074 0.0013350723
-0.029851558 -0.022744419 -0.063218825 0.052429512 0.0502392 0.052190475 -0.036992658 0.036077883
0.033485476 -0.02313215 -0.009292118 0.04991508 0.025383731 0.086361304 0.057524092 0.032771982
0.031628124 0.0616926 0.026721908 0.05958376 0.053204007 0.07784363 0.00033532802 0.09365267
-0.008787246 -0.051129088 -0.044899143 -0.0037886482 -0.011310442 -0.04121782 0.026226074 -0.055490203
0.052591905 0.04229637 0.06483394 0.08918641 0.019132413 0.07663346 0.06794271 -0.0025473458
0.041836243 0.03309416 0.05567746 0.046066646 0.010688659 0.00419985 0.0632203 0.006227269
0.066451244 0.036500894 0.021888962 0.011466703 0.08704919 -0.01370581 -0.01665547 0.067469746
0.09855606 -0.049733613 -0.039759938 -0.025340285 0.048593476 0.018607058 -0.0396341 -0.058678426
-0.0556381 -0.05215538 0.09989464 0.053187847 0.04593438 0.061270155 0.058917712 -0.059680007
0.0012959752 0.07927851 0.057978947 0.08477857 0.06416349 0.04414798 0.009222799 -0.038647976
0.024895653 0.05408742 -0.052367013 -0.010586642 -0.05598774 0.023871012 0.043980442 0.043038603
-0.03134784 0.0067092367 0.00040297076 0.03248637 0.029327162 0.07137577 0.05714813 -0.049055997
0.062184785 -0.006693055 0.059996784 0.019013187 -0.062529564 -0.04891364 -0.032748125 0.0628226
0.031597495 0.07490577 -0.033857442 0.050878942 0.042147104 0.08758948 -0.0057396716 0.0049162814
0.017989947 0.01783408 -0.0048989677 -0.022722073 -0.0197052 0.08001028 0.0016134672 0.032453183
0.018293506 0.039786745 0.065050654 -0.015035813 -0.021289585 0.04010568 0.04967527 0.048712246
0.0040434254 -0.019523675 -0.003627646 0.06858422 0.024730556 0.06512117 0.03306014 -0.00054088637
-0.053233903 -0.008214768 0.029047927 -0.03437222 -0.060792234 0.074051596 -0.015317578 0.023100667
0.009615926 0.026400808 0.06895627 -0.04886833 -0.009930457 0.021117082 0.020349445 0.07941715
0.04708096 -0.021679008 0.060902104 0.011223461 -0.009628801 0.020811874 0.06302072 -0.03640124
0.05783432 0.076323844 0.07683794 0.013048844 0.06415941 0.04563305 0.025934212 0.05494844
0.031738013 0.042417336 0.07056882 0.031795315 0.07577682 -0.0070849266 0.053779162 -0.048132826
0.021313744 -0.03947562 0.067500904 -0.0550215 0.074251115 0.058490057 0.037597343 0.07728787
