SAE2.pth (torch, 804728 bytes, 4 tensors)

encoder.weight f4 [200, 500]
000000 f1 7e 20 bd ff 76 93 3c c9 27 b0 3d ea 56 01 3d
       -0.03918356 0.018001078 0.086013384 0.03157703
000010 95 7b 81 8e 69 33 9f bd 9f 8d 5d 0f b9 db d5 8e
       -3.191996e-30 -0.077734776 1.09234165e-29 -5.272014e-30
000020 2a c8 84 8f 64 cd 5d 3d c6 53 fb 3c 5b 03 d8 bc
       -1.3093305e-29 0.054150954 0.030679595 -0.026368788
000030 65 46 2e bc eb 6c 93 2e f7 87 0a bb c2 b1 c0 3d
       -0.010636901 6.704134e-11 -0.002113817 0.094089046
000040 4a 1d 8d bc 9b 58 94 bc e2 5b 2e 8d e8 ce 59 8e
       -0.01722588 -0.018108657 -5.372849e-31 -2.6846937e-30
000050 c0 0c b3 35 4e 7f 85 3c d2 66 87 3d 8c 49 3f bd
       1.334025e-06 0.016296055 0.06611408 -0.046701
000060 f5 fe 0d 3c fe d3 6d 3d 76 bc 4c bc 8f e1 ac 0d
       0.0086667435 0.0580635 -0.012496104 1.065462e-30
000070 55 4b 09 3d 5e 49 4d 3d ee e2 4b 0d 89 51 76 3d
       0.033519108 0.050118797 6.282736e-31 0.06013635
000080 33 6a 8b ba df f5 c1 8e 2a ac 1c 39 d6 36 8e 3a
       -0.0010636508 -4.781494e-30 0.00014941455 0.0010850083
000090 d3 c3 1c 8d 29 42 b2 3c 80 48 8b 8d 15 3a 77 8e
       -4.8306926e-31 0.021760063 -8.58399e-31 -3.0473066e-30
0000a0 60 4b 82 8e d5 80 0a 3d 98 61 1b 3d 6d ee e9 3c
       -3.2120058e-30 0.03381427 0.03793487 0.028556073
0000b0 e7 60 8a 3b 8b 9b 69 2c dc e7 9d 8f fa e0 1c 3d
       0.0042229774 3.3197635e-12 -1.5570704e-29 0.038300492
0000c0 22 39 7b a2 b5 d0 a7 bc 24 e7 d9 bc 1c d7 9c 8f
       -3.404709e-18 -0.020485261 -0.026599474 -1.5465645e-29
0000d0 80 c4 8c ab d2 af 20 3a da f5 0c bd c7 8e 83 3d
       -1.0002138e-12 0.0006129715 -0.03441415 0.06423717
0000e0 be a2 f3 b3 18 6a 08 34 e7 41 25 0f 4a dc 49 9d
       -1.1345172e-07 1.2704584e-07 8.1478204e-30 -2.6716015e-21
0000f0 57 3e 08 3d 72 07 c8 3c 4b 3e e1 0f 10 8b a4 0f
       0.033262577 0.024417613 2.2210707e-29 1.6225213e-29
000100 ac 11 8c bd 6c 92 31 8f 89 d0 32 3d 6c 3d 06 bd
       -0.06839308 -8.7549736e-30 0.043655906 -0.03277342
000110 a9 ea 21 0e 21 b2 d6 3c fc 2c a5 3c 4a 2e a2 8f
       1.9957767e-30 0.026207985 0.020163052 -1.5992263e-29
000120 ec 71 27 38 d0 d5 7a bd 3e be 0b bd 39 fe a3 bd
       3.9922e-05 -0.061239064 -0.034116976 -0.080074735
000130 f3 c4 21 37 9c 35 25 3d 54 53 31 bd d4 a6 83 8e
       9.642204e-06 0.04033433 -0.04329236 -3.2454643e-30
000140 52 b1 90 3d fb 0c cf 0d 43 63 67 bc f8 d2 32 3c
       0.07065071 1.2760485e-30 -0.014122787 0.010914557
000150 7c eb a1 b1 fe 7c fd bb 4d b3 45 8f 83 98 b7 8d
       -4.712488e-09 -0.0077358475 -9.747382e-30 -1.1314962e-30
000160 9d 02 88 3c b2 ae 8f 3d 27 9d a9 bd 77 93 d6 33
       0.016602809 0.07015742 -0.082819276 9.991975e-08
000170 be ce df 8e 5c b9 2e 0f 5e 8c 76 0f 4d cb 3a 3c
       -5.517283e-30 8.614561e-30 1.215577e-29 0.01140101
000180 1c 30 08 0e 0d 9c f1 0d 4c 89 4e bb 42 e1 bf 8f
       1.6786458e-30 1.489034e-30 -0.003151494 -1.892082e-29
000190 5d 82 f4 0e a3 8f ff 2f e9 a8 8f bc 36 6d 4f 3d
       6.027618e-30 4.648629e-10 -0.017536597 0.05064126
0001a0 2a 0e 80 0f 3d fb 38 bc 8f 63 9e 3c 96 43 07 bb
       1.262723e-29 -0.011290369 0.019334583 -0.002063965
0001b0 e6 51 47 b1 99 19 8c bd 6c 17 47 b1 9a 5d 8b a5
       -2.9004865e-09 -0.0684082 -2.8971625e-09 -2.4176083e-16
0001c0 5b a5 6c 3d f8 bd 8a 8f 61 73 cd b4 3a a1 04 3b
       0.057774883 -1.3681024e-29 -3.8268175e-07 0.00202377
0001d0 7c 64 e0 8e c6 03 4f 3d ad a1 61 b2 a0 3b d8 b1
       -5.5317026e-30 0.050540708 -1.31334845e-08 -6.293206e-09
0001e0 df c3 ac 1f 40 18 3d 0f 6d 58 ba 8e 44 89 0b a2
       7.3168875e-20 9.32309e-30 -4.593769e-30 -1.891068e-18
0001f0 92 14 00 3a 74 07 45 bd e5 bc 3c 8d ba 55 40 3b
       0.0004885878 -0.04810281 -5.8159346e-31 0.0029347972
000200 c3 e4 fd 30 76 11 43 bb 7a f9 09 bc 07 0a f2 bc
       1.8473191e-09 -0.0029765046 -0.008421296 -0.029545797
000210 94 82 52 3c 75 aa 7e 0d 0d de b7 3b 9a 61 11 0f
       0.012848515 7.8474973e-31 0.0056111873 7.167849e-30
000220 7f 46 4a bd d6 0a 64 bd 37 a3 c0 bd 98 f5 1c bb
       -0.049383637 -0.055674396 -0.09406131 -0.0023950096
000230 f7 06 2a bd 0b 37 24 8d 17 94 84 0d d6 74 cb bc
       -0.04151055 -5.0602657e-31 8.170779e-31 -0.024835985
000240 cd 54 f8 2f 17 a4 11 90 be aa 82 8f a1 db ef 8f
       4.5171192e-10 -2.8722618e-29 -1.2884757e-29 -2.3651818e-29
000250 14 61 95 b2 b6 74 05 3d 38 fa 43 3b 1e e2 b9 3c
       -1.7390029e-08 0.032582007 0.002990378 0.022690829
000260 44 09 03 3d ea 21 be 3c 43 ef 81 2d 5d 85 71 bb
       0.03199126 0.02320953 1.4771856e-11 -0.0036853172
000270 10 13 2b 32 e9 fa 44 bb 83 c4 dd 0f 87 38 d0 b5
       9.957844e-09 -0.003005678 2.1867976e-29 -1.5513659e-06
000280 94 df 0b bc 2c 7f 20 3d 58 10 77 bd 70 e9 9b bc
       -0.008537192 0.03918378 -0.06031832 -0.01903221
000290 86 5a 21 0f 20 6d 07 3d a4 4a d5 bc c6 62 01 3d
       7.955347e-30 0.033063054 -0.026036568 0.03158834
0002a0 1e 22 f7 bc 78 24 49 b9 ea 1d 5f bd 12 b9 9c 32
       -0.030167636 -0.0001918244 -0.054471888 1.824495e-08
0002b0 43 31 e0 bc 27 73 f4 8d 26 9c 1d bd 71 b1 9b ba
       -0.02736724 -1.5065383e-30 -0.038478993 -0.0011878443
0002c0 53 9b 9a 3d ae 75 ec 3d b1 4d 9d bb 6c 75 8d 3a
       0.07549157 0.11545883 -0.0048005213 0.0010792441
0002d0 2d 09 6c 8e 0e d7 22 3d f4 0d 0b 0f 0d 7b 21 3d
       -2.9093664e-30 0.039755873 6.8559164e-30 0.03942399
0002e0 17 7d 95 8e 16 85 8d 8f c2 42 45 33 89 fa d7 0d
       -3.6851793e-30 -1.3954936e-29 4.5928353e-08 1.3310712e-30
0002f0 89 e7 7a 3c ef 81 7f a7 d6 25 91 3b 79 fc 57 8f
       0.015313991 -3.5458796e-15 0.004429559 -1.0648943e-29
000300 b4 49 7b 3c b2 d6 52 bc fd 2c 94 3d 5d 2e 58 8f
       0.015337396 -0.01286857 0.07235143 -1.06585515e-29
000310 ec 82 2d 3d 4b bb 9b 3c 55 32 38 3d 89 0e d9 bd
       0.042361185 0.019010207 0.044969875 -0.105984755
000320 c1 74 0d 3a 28 d6 83 2b 93 0b 6e 0e f9 38 04 10
       0.0005396121 9.36755e-13 2.9341338e-30 2.60763e-29
000330 85 72 ae 0f 23 5c 51 b5 b7 12 b7 3c 17 8d fa 3c
       1.7201836e-29 -7.7992644e-07 0.022347791 0.030584855
000340 63 56 df 2f 2b fa 39 8d 57 b3 ac 3c fe 94 dc 0e
       4.0624845e-10 -5.7308655e-31 0.02108161 5.437766e-30
000350 02 82 d2 0f 04 7e bd 8b 54 91 89 8e 07 00 1e 8c
       2.0757676e-29 -7.298976e-32 -3.3913053e-30 -1.2171885e-31
000360 30 a1 12 bd 2b d9 c1 bd bf bd c5 bb 5d 86 99 3d
       -0.03579825 -0.0946525 -0.0060345824 0.07496331
000370 01 b0 3b bd db 57 93 bd d6 81 4c 0d c8 f8 6a 32
       -0.045822147 -0.071944915 6.301864e-31 1.3677159e-08
000380 b5 44 4a 32 10 f8 2a bc 4f 84 03 b7 39 cd aa ac
       1.177357e-08 -0.010435119 -7.839014e-06 -4.854475e-12
000390 d5 3b 9c 3d 30 db 14 ac c5 07 31 bb 40 07 e5 3c
       0.076285996 -2.1153738e-12 -0.0027012688 0.027957559
0003a0 24 89 03 bd 18 57 77 bc 5b 2c eb 3d 45 6f a8 1f
       -0.03211321 -0.015096448 0.114830695 7.133485e-20
0003b0 bc 72 22 3d da 0d ae 8f d6 a0 a9 8f de 26 20 2d
       0.0396602 -1.716306e-29 -1.6726638e-29 9.103577e-12
0003c0 67 11 e5 2e 43 aa 22 a2 f6 b8 32 bd 26 11 77 3c
       1.04168056e-10 -2.204523e-18 -0.043633424 0.015079772
0003d0 69 d6 a8 8e ef 1c 0e 3d 6e da 93 bd 8c 0d 1e 3c
       -4.1621667e-30 0.034695562 -0.072193965 0.0096467845
0003e0 a3 af 86 b7 59 b3 fd 37 25 2a 02 b1 76 3f bd 0f
       -1.6055832e-05 3.0243466e-05 -1.8941446e-09 1.8661283e-29
0003f0 d5 ad 0f be d7 06 b5 3c 5e 9a cc 3d 1d df 3f 0e
       -0.14031155 0.022097988 0.09990381 2.3649993e-30

encoder.bias f4 [200]
000000 7a 62 e7 3b 47 2f 8d 3c 77 da 3b 3b 46 cd 24 3c
       0.0070613 0.017234458 0.002866415 0.010058707
000010 94 35 c2 bb f5 21 8b 3c 44 84 a6 3c 27 28 57 bb
       -0.005926797 0.016983965 0.020326741 -0.003283033
000020 71 70 1e 3d 81 c2 95 3c 1b 73 6f 3d 63 5d e1 bb
       0.03868145 0.018281223 0.058459383 -0.0068775876
000030 62 b3 b6 3c e1 e3 c7 3c 34 f1 f3 3c d6 81 0e 3c
       0.022302333 0.024400653 0.0297781 0.0086979475
000040 26 e6 13 bb e1 61 49 39 4d 75 fe b6 d2 9e 29 3d
       -0.00225676 0.00019205316 -7.5834455e-06 0.04141123
000050 5d ac 13 3d 0c c8 05 bb a6 29 1b 3b d3 c8 a8 3c
       0.03605305 -0.0020413427 0.0023675947 0.020603573
000060 bd 01 7f 38 19 20 37 ac 90 f9 e3 ba 37 58 e9 3c
       6.0798357e-05 -2.6023682e-12 -0.0017393101 0.028484447
000070 9d 00 db 3c 29 bd db b8 80 47 40 3c aa 69 4d bb
       0.02673369 -0.000104779676 0.011735797 -0.0031343498
000080 51 bd 5b 3c c9 d3 5e 3c 95 90 53 3c a1 b3 7b 3c
       0.013411836 0.013600298 0.012912889 0.015362651
000090 71 57 89 3c f4 08 1d bb 79 43 48 3c 39 88 8c 3b
       0.016765328 -0.0023961635 0.012223118 0.0042887
0000a0 bf 13 d1 31 fd 4f 41 3d 1f 44 40 3c 2a 0d ec 3c
       6.0849454e-09 0.047195423 0.011734991 0.02881487
0000b0 54 5a 81 bb 66 32 3b b5 7a 3c 90 3a dc f8 16 3d
       -0.0039475355 -6.973627e-07 0.0011004352 0.036858425
0000c0 33 20 f8 3b ac 0f 18 3d 3b c6 82 b9 61 ea f5 3c
       0.007572198 0.03712432 -0.00024943225 0.030018987
0000d0 64 3a 8b bc 5b b2 f2 3c 04 84 d7 3c ad 6d 80 3b
       -0.016995616 0.029626062 0.026308067 0.0039193244
0000e0 16 e0 ac bb ea 5d 96 ba 0f 22 82 bc 0a 10 62 3b
       -0.0052757366 -0.001147208 -0.015885381 0.0034494423
0000f0 b2 08 51 bb 70 b2 94 af 46 e6 ca 3a cb d8 8c a9
       -0.0031896052 -2.704783e-10 0.0015480004 -6.2548565e-14
000100 9c 77 d7 3b cc 44 72 3c e9 4f dc 3c a0 9c 01 ab
       0.006575538 0.01478691 0.026893573 -4.604737e-13
000110 c0 cf 4e b3 51 cf b7 3b d7 be b6 bb d9 22 8c bc
       -4.815206e-08 0.005609431 -0.005576949 -0.01710646
000120 af 49 8c 3b 1f 2e f1 3b 83 0d 3a 3c c6 e4 8c b9
       0.0042812447 0.0073602344 0.0113557605 -0.0002687333
000130 43 60 a0 3b 20 5f 91 ac 16 da b5 3b c6 47 33 3a
       0.004894288 -4.131709e-12 0.0055496795 0.0006839003
000140 3a e4 92 3c 85 9a ed 3c 57 c4 b7 b8 4b 3b ee 3c
       0.017931093 0.029004345 -8.762691e-05 0.029081007
000150 0c ba 0e bb 58 38 c3 38 7e a5 49 3d fc 63 74 bb
       -0.0021778373 9.3088194e-05 0.04923009 -0.003729104
000160 66 44 e8 3c 58 6c 3b bc 8b 58 ee ba 77 b1 22 3d
       0.028352927 -0.011439405 -0.0018184347 0.039720025
000170 80 04 d7 2c 73 83 7e 3c 25 3f 90 3c 8e 8e 80 3c
       6.111167e-12 0.01553427 0.017608235 0.015692975
000180 27 55 49 b5 ca 4d f8 bb b4 eb 50 3a 23 3a d5 bb
       -7.500225e-07 -0.0075776326 0.0007969693 -0.0065071746
000190 99 d1 a3 bb 6a 5f 86 3b 39 59 9d 3c 5e 5d 63 3b
       -0.004999351 0.0041007297 0.019207584 0.0034693102
0001a0 c6 4e b5 3c 1d b1 29 ab 09 b3 02 3b 7f 2b d1 3b
       0.022132289 -6.0286655e-13 0.001994314 0.006383359
0001b0 12 87 74 bc e7 c3 6a 3c bb c3 15 b9 8c e6 d8 3b
       -0.014924781 0.014328933 -0.00014282663 0.00661928
0001c0 e1 61 3e 3b bc 31 af 3c b9 96 ca b9 89 61 9a 3c
       0.002905004 0.02138602 -0.0003864074 0.018845337
0001d0 98 d3 34 bb 35 48 9d 39 8a 92 78 bc c1 01 09 b8
       -0.002759194 0.00029999172 -0.015171656 -3.266498e-05
0001e0 7c 5c 3f ba a1 ae 01 bb 04 53 62 b1 ee fb 05 3c
       -0.0007299853 -0.0019787925 -3.2934517e-09 0.0081777405
0001f0 a7 7a a1 3c 63 54 9a 3c 1f 23 cb 3c 0a 77 d9 3c
       0.019711806 0.018839067 0.02479702 0.02654602
000200 fe d8 48 ac 4c 24 d4 bc 04 b5 8e 3c 2f e7 d1 ae
       -2.8542164e-12 -0.025896214 0.0174203 -9.545286e-11
000210 e4 b1 21 bb 20 01 98 b7 ea 51 03 b4 6c f0 16 3b
       -0.0024672681 -1.8120336e-05 -1.2230126e-07 0.0023031486
000220 1f 82 83 3b b1 06 43 b9 17 66 10 3d e5 eb 0d 3c
       0.0040133144 -0.00018599142 0.03525361 0.008662199
000230 a2 56 dd bb b4 cd 47 ae 95 cb 68 ba f7 40 63 b6
       -0.006754712 -4.5430062e-11 -0.0008880434 -3.386345e-06
000240 c3 bd 96 3b 5c ec c7 3b ca 43 2b 3b 1c 90 18 bb
       0.004600258 0.0061011743 0.0026132935 -0.0023279255
000250 12 79 02 3b d3 37 c3 3c 57 cf b0 3c 18 27 45 3c
       0.001990859 0.02383033 0.021583242 0.012033246
000260 f5 ca 04 3c 31 e9 27 b7 0c 01 b9 3c b6 a2 0b 3c
       0.008105029 -1.000827e-05 0.022583507 0.00852268
000270 a1 c2 ac ac 26 ac a7 36 41 5e 88 3a 2d e7 6c bc
       -4.910142e-12 4.9970286e-06 0.0010404066 -0.0144594135
000280 10 64 89 bc 13 c3 58 b9 38 b9 09 3c 4a db 97 3b
       -0.016771346 -0.00020672036 0.008405976 0.0046342956
000290 94 c2 4f ba 8a 2e 25 3c 92 cb 25 36 f9 8b 30 3c
       -0.0007925418 0.010081897 2.470541e-06 0.01077556
0002a0 e9 eb af bb 73 5b 82 3a 4d b0 42 b5 91 09 b2 3c
       -0.005368699 0.0009945467 -7.2527183e-07 0.021733077
0002b0 60 13 49 ba 8a 69 ba 3b 42 c6 29 aa 89 54 73 3c
       -0.00076704286 0.005688851 -1.5079e-13 0.014851698
0002c0 24 0a 6a ac ef e5 c6 3c d1 3d 43 3d 25 ab ae 3b
       -3.325903e-12 0.024279563 0.047666375 0.0053304606
0002d0 fd af a5 3c 68 2e c9 3c 2c 90 fd ba ed 23 45 3c
       0.02022552 0.024558261 -0.0019345335 0.012032491
0002e0 1b 5b 01 bc a4 cc 08 ba cc b1 91 ba 39 37 b0 3b
       -0.007895256 -0.0005218482 -0.001111561 0.005377677
0002f0 4b 8f e0 3b 82 e1 8f 3a b9 df 77 3b 3f 1b 3d 3c
       0.0068530194 0.0010977241 0.0037822558 0.0115421405
000300 9a 23 8a 3c c0 bc d6 bc 51 1e af ba 5c 40 26 3c
       0.01686268 -0.02621305 -0.0013360475 0.01014718
000310 15 9d 0f 3c b6 91 2a 3c 81 7e 7c 3b 2b 7f 0b 3c
       0.008765479 0.010410717 0.003852755 0.008514206

decoder.weight f4 [500, 200]
000000 b3 c5 34 bd 7d cb a5 bc a2 8e 82 bd ea 8b 8f bc
       -0.044133853 -0.020238632 -0.06374861 -0.01752277
000010 1a fe 8e 3d 55 72 e3 bd bd 74 4d 3d 4a e0 2b bd
       0.0698206 -0.111057915 0.05016016 -0.041961946
000020 30 23 1b bc 36 c9 8e 3c 31 19 69 ba af e2 50 3d
       -0.009468839 0.01742993 -0.00088919984 0.050997432
000030 08 75 5d bc 7e d0 9d 3c 1b b3 63 3d 7b bb 14 3d
       -0.013516672 0.019264456 0.05559073 0.036311608
000040 f6 aa 12 bd 3f c5 56 b6 cd ef 39 21 24 ce 3b 3c
       -0.035807572 -3.2003297e-06 6.299781e-19 0.011462722
000050 ee a3 19 bd 54 6e 02 38 22 03 4e ba 61 d2 6d bc
       -0.03750985 3.1097166e-05 -0.0007858743 -0.01451549
000060 b1 d5 ae b7 b9 f6 c2 2b 13 19 b8 ab 99 ae 36 bc
       -2.0841924e-05 1.3853008e-12 -1.3080946e-12 -0.011150026
000070 fa 8f 8a 3d 4d 76 16 b7 fb e8 2b 3d 3c 64 c4 b6
       0.067657426 -8.968241e-06 0.041970234 -5.852924e-06
000080 ed 57 0f 3d 74 a0 92 bc 89 05 49 bc 8c 7f b2 3c
       0.034995962 -0.017898776 -0.012269386 0.021789335
000090 37 f9 31 bd 4e 03 94 3d 44 e1 7a 3c 54 d0 55 bb
       -0.04345056 0.07227193 0.015312497 -0.0032625394
0000a0 d8 04 5c 30 7c b4 7b 3d 9c 20 bf bc 17 84 ba bb
       8.0042417e-10 0.06145142 -0.023330979 -0.005692016
0000b0 24 cc ce 3a 17 f8 74 1e b5 c3 9b bc 00 59 06 bd
       0.0015777391 1.2968556e-20 -0.019014219 -0.03279972
0000c0 c2 fa 60 bd 2c fd 4d 3d d3 31 15 34 8e 10 64 3c
       -0.05492664 0.05029027 1.3894832e-07 0.013919963
0000d0 b9 52 3f bc 31 a3 79 bd de 03 9b bd d4 e2 9c bb
       -0.011677437 -0.060946647 -0.07569097 -0.004787782
0000e0 3c 84 09 bd 1a 49 eb a6 da d3 a8 3d 42 f8 8c 3b
       -0.033573374 -1.6326215e-15 0.082435325 0.0043020556
0000f0 3f e2 e4 b5 97 57 c4 25 e0 95 ca b6 36 01 ac 26
       -1.705317e-06 3.4059933e-16 -6.037517e-06 1.1935226e-15
000100 a2 89 c0 bc 3d 19 e6 3d 86 ab f6 bc ec 75 fa 2a
       -0.023503128 0.112352826 -0.030111086 4.4490746e-13
000110 d2 e4 30 9b 0d 15 17 3d 06 80 80 3d 75 fe 69 3d
       -1.4632315e-22 0.03688531 0.062744185 0.057127435
000120 0a b5 a9 bd 4c 5e 08 bd 43 f1 16 bd 8e ec 85 af
       -0.082864836 -0.033293054 -0.03685118 -2.436064e-10
000130 89 94 43 bd 63 e5 d9 2c 27 9a 85 b3 4e 45 30 bc
       -0.047749076 6.192978e-12 -6.221335e-08 -0.010758711
000140 4b 42 56 3c 2c f8 32 bd d7 9f 19 b7 67 bd 09 bd
       0.013077329 -0.043693706 -9.156726e-06 -0.033627894
000150 2c 4e 8e b6 e5 e4 ee b6 14 0d c4 3c d6 31 bd bb
       -4.24103e-06 -7.1195996e-06 0.023932017 -0.005773763
000160 be 0e f1 3c 55 65 13 bd 2b 0c 84 bd 1a 59 46 3d
       0.029425975 -0.03598531 -0.06447633 0.048424818
000170 05 4a a2 a9 5f a3 63 bd 79 45 da bc 05 61 88 bd
       -7.2070855e-14 -0.055575725 -0.026644455 -0.0665913
000180 2a 91 e6 1f 60 ac 52 3d eb 24 b2 38 cf 38 90 bd
       9.764894e-20 0.05143392 8.494578e-05 -0.070420854
000190 59 60 8b 3d 61 cb 3f 3d 30 f1 48 3d 21 7a 38 bb
       0.06805486 0.046824817 0.04905814 -0.0028148966
0001a0 a1 78 42 3d 75 85 d4 16 41 ee 8e 3a 8a 2e ca bc
       0.047478322 3.433467e-25 0.0010904745 -0.024680395
0001b0 c2 1c f0 3b f2 ec 80 ba ed 83 0e 3c 67 15 6c b7
       0.007327647 -0.000983624 0.008698446 -1.4071679e-05
0001c0 e9 37 82 bc bb 3c e1 bc e2 e3 ee 20 f9 f7 dc bc
       -0.0158958 -0.027494779 4.0469568e-19 -0.026973711
0001d0 26 b3 a5 bc e9 d7 01 b5 ad 6a 3d b9 4c 24 12 a2
       -0.020227026 -4.8370435e-07 -0.00018064184 -1.9805905e-18
0001e0 2e 31 e4 b9 39 ec b3 b8 1e 80 f9 a0 5e 9f 8d 3c
       -0.0004352419 -8.579385e-05 -4.2267022e-19 0.017287906
0001f0 cc 79 fc 3c b2 35 53 3d f8 ce 33 3d e7 4f 53 bd
       0.030819796 0.05156488 0.043898553 -0.051589873
000200 6f 53 07 aa 13 37 90 3d bd d1 09 3e 69 20 b7 2c
       -1.2019356e-13 0.070417546 0.13458915 5.204771e-12
000210 f1 f6 20 3c 26 71 4d a6 f7 22 eb 99 d1 30 40 3d
       0.0098245 -7.1277007e-16 -2.4312553e-23 0.046921555
000220 90 0d 89 3d e2 22 04 3a 80 d7 0f be 27 96 eb 3a
       0.0669204 0.00050405983 -0.1404705 0.0017973826
000230 29 7e 89 3c c6 58 04 96 2b 80 35 3d 82 48 ca a9
       0.01678379 -1.0690887e-25 0.044311684 -8.98318e-14
000240 d1 de 85 b7 88 c2 05 bd 7c e6 05 3c c8 6f 4b 35
       -1.5958592e-05 -0.032656223 0.008172628 7.5786056e-07
000250 27 c0 2c 3d d4 9b 3f bd 5e 37 06 bd fc 5f 12 3d
       0.04217544 -0.04677947 -0.032767646 0.03573607
000260 2c 75 0d bd ca 05 2a b7 83 ee 86 bd 2c cc 68 bd
       -0.034535572 -1.01341375e-05 -0.06588461 -0.05683534
000270 a9 a2 e9 2c fe 95 cb b4 45 c5 27 3d 6b b7 8b b6
       6.640317e-12 -3.792083e-07 0.040959615 -4.1638755e-06
000280 79 0e 74 bc 45 7f a7 a7 58 0c a7 3d 79 84 7c 39
       -0.014896029 -4.6489797e-15 0.08156651 0.00024081943
000290 ea aa 5b b7 97 b7 d2 3b fd 71 39 b3 e1 c8 61 3d
       -1.3093211e-05 0.006430577 -4.317734e-08 0.055123214
0002a0 ed 35 8c bc 2f 51 c7 38 17 a2 34 9d 0e f9 ba 3c
       -0.017115558 9.504181e-05 -2.39066e-21 0.022823837
0002b0 ce 0b 93 b1 26 44 20 bd 72 ce c8 a7 60 19 97 bc
       -4.279605e-09 -0.03912749 -5.573498e-15 -0.018444717
0002c0 bf c1 8b aa 8f 24 45 bd ac 38 f9 3c e2 48 87 3d
       -2.4825798e-13 -0.048130568 0.030422531 0.06605698
0002d0 35 c5 ef 3c ae a6 ae bc e6 bf 50 b4 82 0a 12 3d
       0.02926884 -0.021319713 -1.9441322e-07 0.035654552
0002e0 8b dd 24 bc 7c 09 40 39 1e 59 fb 3c b0 56 31 3d
       -0.010062586 0.0001831408 0.030682143 0.043295562
0002f0 5a f1 42 bd 43 5e d1 3d 5d fe bb 3d b2 40 80 bc
       -0.047593452 0.10223057 0.09179375 -0.01565585
000300 39 72 39 3d d2 82 19 bc fd 47 6d 34 cb ca 12 bd
       0.045274947 -0.009369569 2.2098534e-07 -0.03583793
000310 03 46 6c 3c 85 9f 2f 3d cc 9b 68 3b f1 a4 9c 3d
       0.014420989 0.04287674 0.0035493253 0.076486476
000320 e1 9b 96 3c 08 dd f6 3c 3c 02 c0 3d e3 14 74 3c
       0.018384876 0.030134693 0.09375426 0.014897558
000330 5c 3c 49 bd e6 0f 4a bd 3c 29 8a 3d e6 80 99 bc
       -0.04912983 -0.04933157 0.06746146 -0.018738221
000340 12 c9 c8 bc f4 d6 6d bd fa c2 95 3c 31 06 cb 3d
       -0.02450994 -0.058066323 0.018281449 0.0991329
000350 38 dd cd bd 72 fd d8 3c e4 d6 fc bc f5 8e fc bc
       -0.1005196 0.02648804 -0.030864187 -0.030829886
000360 ea 15 cf 3c d9 5e d5 b7 4e 86 05 22 72 5d 2e bd
       0.025279004 -2.5435746e-05 1.8095961e-18 -0.042569585
000370 76 09 12 bd 1b 56 fd b8 46 4f 69 39 35 19 8f bd
       -0.035653554 -0.000120800185 0.00022250143 -0.0698723
000380 38 84 8e b6 78 37 43 aa b2 36 90 af bf f2 bd bd
       -4.247322e-06 -1.7338724e-13 -2.623231e-10 -0.09274816
000390 52 5d 8e bc aa 22 0b b9 d6 37 ea ba e6 10 db 37
       -0.017378483 -0.00013268986 -0.0017869424 2.6114703e-05
0003a0 d1 d3 2d 3d c2 f7 87 bc d7 8d da 3d b4 44 0b 3d
       0.042438332 -0.016597632 0.10671585 0.034001067
0003b0 dc 54 26 bc ca 9a b7 bb 7f 01 1c bd 2f b3 d5 ba
       -0.010152068 -0.005603169 -0.038087364 -0.0016304011
0003c0 7c 0e 1f af 39 d9 bd 3c d1 ac b1 bc 0a 58 99 3c
       -1.4466112e-10 0.023174869 -0.02168885 0.018718738
0003d0 e7 73 9b 3d a2 f4 95 a1 bf 5c c7 bc 9c c6 8b 3d
       0.07590466 -1.0161386e-18 -0.024336217 0.06824991
0003e0 fa 18 74 3d 86 56 06 bd d5 46 84 b6 e5 52 02 3d
       0.059594132 -0.03279736 -3.9421525e-06 0.031817336
0003f0 77 81 18 bd d3 f4 16 bc dd 79 b6 bc 5d b2 60 bc
       -0.037232842 -0.009213644 -0.022274906 -0.0137144

decoder.bias f4 [500]
000000 00 9f 9c 39 ce b9 d6 3c c0 08 43 bc 9d 98 ee 3c
       0.00029873103 0.026211645 -0.011903942 0.029125506
000010 69 a2 38 3a f2 01 09 3d c4 27 0f ba c4 c3 fe 39
       0.0007043244 0.03344912 -0.00054609426 0.00048592512
000020 26 97 fd 3a f6 a5 81 bc fa f6 f6 bb fa 56 3f bb
       0.0019347414 -0.015826207 -0.007536766 -0.002919613
000030 71 76 66 3b f0 86 d4 b6 71 17 1a 3c ee 8d 36 3b
       0.0035165811 -6.333801e-06 0.009405003 0.0027855593
000040 19 98 c5 bc ab 24 94 3c a4 c9 26 3a 5a 6a c4 ba
       -0.024120377 0.01808389 0.0006362444 -0.0014985309
000050 d0 c8 eb b9 de 6c 5c bc 07 1c 93 3c 0d b9 be 3b
       -0.0004497231 -0.01345369 0.0179577 0.0058203996
000060 20 f6 1c 3d 61 ea 5b 3d b9 4f 44 3b 1e 92 29 3b
       0.03832066 0.053690318 0.0029954745 0.0025874446
000070 2b 82 db bc 94 80 38 bc dd 3f c8 b8 09 48 2c 3d
       -0.026795467 -0.011261124 -9.5486386e-05 0.042060886
000080 c6 d3 97 3b 62 88 0c 39 72 da de b9 98 de 4a 3c
       0.0046333997 0.00013402247 -0.00042505894 0.012382172
000090 44 ea 8a ba bf a3 4d 3d 47 14 29 3a 5d 8a 3b ba
       -0.0010598381 0.05020499 0.000644986 -0.00071541016
0000a0 e4 01 26 3c e7 ca 30 3c 7e b3 07 3d 89 db 11 3c
       0.010132287 0.010790563 0.03313016 0.008902439
0000b0 29 63 c7 bc ae d8 93 3a 2c de 52 ba 4c 12 3f ba
       -0.024339275 0.0011279786 -0.00080439704 -0.0007288798
0000c0 27 a7 2c 3a 52 fb be 3b 8c ec 35 3d 03 77 61 3b
       0.0006586187 0.0058282996 0.04441504 0.0034403212
0000d0 68 30 12 3b ad 0d 53 bc c3 d1 2f 3c b6 b4 87 3a
       0.0022306684 -0.0128816785 0.010731163 0.0010353539
0000e0 a8 8f 88 b8 ad 77 91 b8 28 ec 40 ba 1d ab 16 3b
       -6.5117434e-05 -6.93643e-05 -0.0007359409 0.0022990175
0000f0 90 53 ad 3b 41 84 b5 3c 82 4e 4c bb 15 8d 56 3a
       0.0052895024 0.02215779 -0.0031174724 0.0008184475
000100 33 c1 aa 3c 71 91 8a 3a aa 4f a2 3c 4a 0b 82 3c
       0.020844078 0.0010571909 0.019813377 0.015874524
000110 4c 4b f0 ba 2a c2 52 bc 91 6b a5 3c 7e 64 5a 3a
       -0.0018332987 -0.012863675 0.020192893 0.00083310145
000120 0c 28 43 37 8e 84 75 3b e7 f9 87 bc 12 5a 35 3c
       1.163223e-05 0.0037463042 -0.016598655 0.011068838
000130 25 2b 07 b8 f7 38 60 bc 22 2f bf 3c 7c c0 4b b8
       -3.222669e-05 -0.0136854565 0.023337904 -4.8578237e-05
000140 2e e9 15 3b e4 15 2c 3b f9 59 a3 3b b3 0c a2 3c
       0.0022874582 0.0026258165 0.004985091 0.019781446
000150 7a 4c f4 3b 84 be 3b 3c 48 e6 d3 3a cb eb ba b9
       0.007455406 0.011458997 0.0016166652 -0.00035652364
000160 d4 d9 89 bb db 91 06 3c 55 53 80 bb 20 81 85 3b
       -0.0042068753 0.008213486 -0.003916184 0.004074231
000170 87 82 ca 38 02 80 5b b8 5c 3b 6c bb 5a a4 26 3c
       9.656423e-05 -5.2332885e-05 -0.0036046123 0.01017102
000180 55 22 38 ba ce 2d 99 38 85 52 01 bc a5 72 5b ba
       -0.0007024159 7.30414e-05 -0.007893209 -0.00083712704
000190 3c 7d 21 3b c0 ab 41 ba ba 60 3d bc 37 a1 e0 3b
       0.0024641296 -0.00073879585 -0.011558706 0.006855156
0001a0 f7 32 36 3c 64 0c 1e bc 09 d2 b7 3c 0f bc 82 3c
       0.011120549 -0.009646509 0.02243902 0.015958814
0001b0 f3 ba 08 39 f1 dc 35 3c 85 1b 20 3c 3d 1d 65 3a
       0.00013039615 0.01110004 0.009772186 0.00087400136
0001c0 9e d3 75 3c b6 ed ba 39 62 37 89 ba a7 3d 0c bd
       0.015004067 0.00035653793 -0.0010468776 -0.034238484
0001d0 ea 93 94 39 c5 ca d9 bb 0a f7 5b bb 24 07 49 bc
       0.00028338964 -0.0066464865 -0.0033563995 -0.012269769
0001e0 86 32 01 39 bf d8 18 bb ba d9 c6 3a 04 37 64 3b
       0.0001232122 -0.002332255 0.0015171089 0.003482283
0001f0 ef a3 0a 3c a6 b1 11 3d 96 27 6e 3b 15 c1 16 3c
       0.008461936 0.03556981 0.0036339513 0.009201308
000200 3e b1 92 39 d3 c9 4c 3a 4a b3 bf 3c 9e 92 1b 3c
       0.00027979346 0.00078120566 0.023400921 0.0094954055
000210 75 0f 43 bb e7 a7 5e 39 e6 12 91 bc dc c0 80 b9
       -0.0029763852 0.00021234118 -0.017709207 -0.00024557754
000220 98 bd 82 bc 65 ad 3e bc 19 87 4f 3d 60 80 e7 3b
       -0.015959546 -0.01163802 0.05066595 0.007064864
000230 ac 7d 74 bc b9 be d3 b9 70 f8 25 38 d2 7f d6 ba
       -0.014922541 -0.00040387156 3.957044e-05 -0.0016364998
000240 17 ea 73 b9 2b 4d 08 b8 9e a3 05 bb 26 20 9f b8
       -0.00023261491 -3.2496795e-05 -0.0020391713 -7.587699e-05
000250 48 48 02 3b 5a d6 fe bb 89 5f 50 3b 45 45 cd 3b
       0.0019879509 -0.0077770175 0.0031795225 0.006264361
000260 43 28 b4 bb 1f 0d 19 bc f3 76 20 38 af c0 c2 3c
       -0.0054979636 -0.009341507 3.8257753e-05 0.02377352
000270 9d c2 98 ba e4 cd 11 bd 0b df 81 b7 a8 f0 cb b8
       -0.0011654679 -0.035596743 -1.548186e-05 -9.72462e-05
000280 10 83 57 bc f5 0e 02 3d c6 dc 3f bc fc e1 8b bc
       -0.013153806 0.031752545 -0.011710351 -0.017075531
000290 7e 9f 1a 3a e1 28 09 3c b8 e1 d6 bc 6d d3 f7 3c
       0.00058984 0.008371563 -0.026230678 0.030252183
0002a0 9a e3 4e bc 23 7e 16 3c 48 49 4b 3b 27 f8 a6 37
       -0.012627507 0.009185347 0.003101902 1.9904297e-05
0002b0 1d 67 2b 3c a9 49 a7 b8 61 7d f9 bc d9 b3 1b bc
       0.010461596 -7.976901e-05 -0.030455293 -0.009503328
0002c0 87 61 a5 bc dd a2 3b 3d 6e be 1f 3d 65 62 22 bb
       -0.020188106 0.045809615 0.038999967 -0.0024777886
0002d0 97 de d2 bb 20 34 88 bc 21 90 73 38 f1 75 61 3c
       -0.006435226 -0.016626418 5.8069945e-05 0.01376103
0002e0 4e c0 2d bb 10 00 e6 b9 7b 81 fd ba 23 bc c5 b9
       -0.0026512328 -0.00043869065 -0.0019340956 -0.0003771494
0002f0 da 7f 15 bc c5 3f 26 38 9c f7 8e 3c b1 63 2d 3a
       -0.0091247205 3.9636874e-05 0.017452054 0.00066142814
000300 f1 fa 59 3c 3d 4e 09 bd b7 e4 a5 3c f5 74 73 39
       0.013304458 -0.03352188 0.020250661 0.00023217856
000310 0b 91 94 3c e6 1f 68 3d 8a 55 25 bc 52 13 c7 bc
       0.018135568 0.056671046 -0.010091195 -0.024301205
000320 77 67 9b ba 1d ae 4a 3a a3 90 75 39 bc 48 b4 b7
       -0.0011856396 0.00077316334 0.00023418902 -2.1491542e-05
000330 92 ec c2 b8 2f ff 9a ba e6 03 d5 3b 06 80 a7 bc
       -9.2947055e-05 -0.0011825318 0.006500709 -0.020446789
000340 3a 74 e4 37 33 9b 6f ba e5 20 2c 3c 33 3d fd b8
       2.723384e-05 -0.0009140253 0.01050589 -0.00012075379
000350 ce 04 83 3a 5d 5a ba 39 05 f0 80 3a f3 39 8c b9
       0.0009995939 0.0003554401 0.0009837156 -0.00026746056
000360 af e0 2c bc 54 90 d7 bc 6f 11 8c bb 62 f4 65 bc
       -0.010551616 -0.026313938 -0.004274539 -0.014035316
000370 8c 9b 0d 3d fb 78 2a 3d 16 fb 64 38 9e df be ba
       0.03457217 0.041619282 5.4593278e-05 -0.0014562493
000380 c2 70 81 38 b6 ec 92 3c 68 03 64 ba e9 c4 a3 39
       6.172202e-05 0.017935138 -0.00086980173 0.00031236492
000390 45 f8 8b 3b 32 97 7a b9 c2 59 64 3b a5 0e 08 3d
       0.0042715394 -0.00023898183 0.003484354 0.03321709
0003a0 e8 c6 2e 3c 57 64 c4 3b c5 c5 aa bb 19 23 af 37
       0.01066754 0.0059934068 -0.0052115642 2.087797e-05
0003b0 4c 4f 51 3d 6d bc 51 b8 05 7d 44 3a 24 83 61 b9
       0.051101014 -5.000497e-05 0.0007495436 -0.00021506526
0003c0 cf 29 64 37 0b 78 f3 b7 3a 7a 2d 3d f9 e4 17 bd
       1.3599593e-05 -2.9023757e-05 0.042352892 -0.0370836
0003d0 52 3a 08 3b 72 8e d1 bb 93 50 5e 3c fa 6c 9b 3a
       0.0020786715 -0.0063951546 0.013569015 0.0011858039
0003e0 e0 5f 03 38 d5 a1 7e b9 74 98 8d 3b b9 86 58 ba
       3.1322124e-05 -0.00024283615 0.0043211523 -0.00082598213
0003f0 22 03 b3 3c 5a be 9c 3c 1a 19 a0 b9 3f 40 30 bc
       0.02185208 0.019133735 -0.0003053628 -0.010757505
