SAE2.pth (torch, 804728 bytes, 4 tensors)

encoder.weight f4 [200, 500]
-9.354281e-07 0.00013839363 -0.0005013771 -5.1880586e-05 0.00032573935 -6.5543354e-05 -0.00012844436 9.1654794e-05
-8.985057e-05 0.00029936957 -3.9216436e-30 0.0001325119 -1.635877e-31 -4.7602804e-30 -3.9008865e-30 -4.044757e-30
-1.5801441e-12 2.9189746e-29 -0.00011969928 -1.3470823e-05 -1.8185772e-30 -0.0001789702 -1.3456821e-07 2.4615007e-05
-3.5907677e-05 -6.2029607e-30 0.00039141596 6.510063e-30 -0.00053015427 -1.0760936e-12 -1.8973557e-10 0.00041947013
-6.164995e-07 0.0012647668 5.577037e-30 0.0006706213 -2.529577e-06 6.1363393e-30 0.0014793772 -7.054799e-30
0.0007641847 -0.00032694204 1.3279391e-29 -8.77811e-05 -0.00034486913 -0.0002863741 8.680479e-30 -0.0001195463
0.00020604194 -0.00032131586 -2.0085371e-30 -1.6454995e-29 0.00034027983 -0.00016633025 -5.88373e-10 2.2224843e-29
0.00011239277 -5.599317e-30 -0.00024652967 1.9160961e-29 9.559094e-31 -7.1842376e-05 -0.0008107924 -0.0016149915
-9.488919e-30 -0.000100319536 2.2643465e-29 -0.00031090216 3.8021325e-30 -4.5846996e-10 -0.00015122964 4.131803e-30
-0.00029573697 -5.3746553e-06 -1.07345585e-07 -0.00016374358 0.00011060447 -9.915617e-05 -1.1387534e-13 -2.7756245e-31
1.6996873e-29 -0.00032173752 0.00058400305 2.7492729e-30 0.00027643022 -2.1296964e-08 -8.9224515e-05 7.421129e-32
-1.8606471e-29 -7.81009e-05 6.3833777e-31 -6.1689396e-05 -2.4377624e-12 -1.0963781e-29 1.3913291e-30 -0.0004513788
0.0008013395 -1.4983958e-05 -5.8692734e-12 2.863653e-29 6.2057035e-05 -0.00020330453 -0.0002814037 -7.994615e-05
0.0005835548 6.471337e-30 6.4116695e-31 -1.6223972e-10 0.000117562864 -1.2332018e-07 -1.8562187e-29 -5.8487013e-30
0.00011946797 -0.00015973124 1.2605399e-29 -1.3603541e-29 -6.3191e-30 -0.0007278679 0.00016105975 -5.437926e-13
-0.0006388213 -0.0001553165 5.0836934e-05 2.7153837e-31 -0.00014988836 3.9876853e-30 -6.085313e-32 -1.9201932e-29
1.381232e-29 -4.934513e-30 -4.153651e-29 4.350078e-06 1.5496093e-29 -1.2243156e-05 0.00046258155 -5.118986e-05
-1.6900347e-05 7.681277e-06 0.00021881516 -1.3757196e-07 -8.6260385e-05 -0.00017026914 -0.0011707773 -8.1306837e-07
0.00025704363 -0.00013659491 -0.00019800855 -3.0304565e-05 7.157064e-30 -0.0001979031 -0.00075885426 -0.00036995937
-4.5333765e-30 -5.5735e-10 2.6215033e-29 -1.7298495e-10 -8.786767e-31 -0.0009615659 -6.511455e-06 1.4273968e-08
-1.4603818e-29 -0.00032350468 3.1202746e-29 -2.7390072e-30 -0.00023128086 -0.00029156273 -1.9005367e-05 0.00017384562
-3.224179e-08 -3.9981625e-30 -1.6974497e-29 -0.00095948734 -0.0003189943 2.5606141e-05 -2.4748996e-29 -1.7859625e-08
-7.906759e-05 -0.00023188512 1.7108352e-30 -0.0003799667 1.8899102e-30 -4.751635e-31 -0.00043200914 -6.2203155e-17
-5.151855e-05 7.020356e-05 -7.588498e-05 -1.6363196e-29 -2.954318e-29 -6.9155525e-05 1.0388204e-05 -0.00057232147
-0.00048100232 9.442476e-05 -2.2569726e-17 0.00023426166 -1.6610674e-09 0.00013762334 0.00045697554 -0.00016796698
-3.6546662e-05 -2.239732e-30 -0.0029022642 0.00017112249 -0.00013281673 3.8712302e-29 -1.6053153e-30 -7.523549e-05
0.0010204937 1.9669676e-29 4.9921484e-05 2.1300805e-29 -1.3898399e-30 0.0005742408 4.3765265e-30 -0.00014898721
-1.9218988e-31 0.000107937616 -0.0008418031 -3.1263186e-05 -0.00021337318 -0.00058570004 -1.550013e-29 -9.057412e-14
-4.52827e-31 -6.161217e-05 1.9874638e-30 -8.161211e-30 2.894141e-32 -8.606414e-05 -6.48286e-09 7.3126066e-05
2.7034986e-30 -1.7565892e-06 -5.1238542e-30 0.00024113209 -0.00012472643 0.0002951123 0.00017104835 -0.00013111455
5.2728196e-06 0.00028323501 -2.1919364e-10 -0.00011669976 5.4188324e-05 -0.00032552925 2.1635375e-05 7.234735e-31
1.3281074e-05 0.00018958421 -0.0007826888 -1.1687128e-29 -9.735091e-06 -6.1646247e-06 7.816801e-05 0.00016685814
00000000: 211a 7bb5 c21d 1139 d96e 03ba 5b9a 59b8
00000010: ffc7 aa39 5274 89b8 05af 06b9 cb36 c038
00000020: 286e bcb8 b4f4 9c39 ad14 9f8e e4f2 0a39
00000030: 5659 548c 9419 c18e 1f3d 9e8e 2813 a48e
00000040: b162 deab 7502 1410 1007 fbb8 bf00 62b7
00000050: 5f8a 138e f2a9 3bb9 d47d 10b4 537c ce37
00000060: 939b 16b8 3a9f fb8e f636 cd39 2e0a 040f
00000070: 0dfa 0aba 5c72 97ab d19d 50af 54ec db39
00000080: 867d 25b5 88c6 a53a 433b e20e a2cc 2f3a
00000090: cdc1 29b6 64eb f80e a9e7 c13a 9c16 0f8f
000000a0: 9153 483a 6b69 abb9 45ab 860f 1f17 b8b8
000000b0: 8dcf b4b9 7b24 96b9 a00f 300f eeb4 fab8
000000c0: f60c 5839 4976 a8b9 aff3 228e 9cdf a68f
000000d0: 9667 b239 f068 2eb9 12bb 21b0 fe62 e10f
000000e0: 69b4 eb38 a222 e38e a740 81b9 b350 c20f
000000f0: ec1a 9b0d 15aa 96b8 5b8b 54ba 1fae d3ba
00000100: 4975 408f a462 d2b8 cca1 e50f 9500 a3b9
00000110: 9a3b 9a0e e90b fcaf 6693 1eb9 189b a70e
00000120: 250d 9bb9 f057 b4b6 dc85 e6b3 95b2 2bb9
00000130: 53f4 e738 10f2 cfb8 5536 00aa f925 b48c
00000140: 685e ac0f e1ae a8b9 c817 193a 2a0c 5f0e
00000150: d6ed 9039 85f0 b6b2 0c1e bbb8 dda9 c00b
00000160: 29b1 bc8f 1aca a3b8 0727 4f0d 3e5f 81b8
00000170: d38a 2bac 355f 5e8f 8dc1 e10d 09a7 ecb9
00000180: fc10 523a 9c63 7bb7 b781 ceac 5734 1110
00000190: 9e24 8238 252e 55b9 5e89 93b9 c3a8 a7b8
000001a0: b3f9 183a 1a41 030f 1112 500d 6c62 32af
000001b0: 158c f638 fe69 04b4 313e bc8f 6340 ed8e
000001c0: e18a fa38 877d 27b9 f9aa 7f0f d0f4 898f
000001d0: a52a 008f 63ce 3eba 26e2 2839 6310 19ab
000001e0: 9276 27ba 75dc 22b9 be39 5538 0d3d b00c
000001f0: 5a2b 1db9 7ec2 a10e d8fb 9d8b 11bb c28f
00000200: d512 8c0f ea2a c88e 799d 5290 e3f6 9136
00000210: 2826 9d0f f467 4db7 a586 f239 b2b4 56b8
00000220: 38c5 8db7 d5de 0037 bf71 6539 7eb7 13b4
00000230: b1e6 b4b8 468a 32b9 c474 99ba a241 5ab5
00000240: d0c3 8639 eb3a 0fb9 84a0 4fb9 8f36 feb7
00000250: 9a29 110f 3584 4fb9 d9ed 46ba 1bf7 c1b9
00000260: 46e5 b78e 0534 19b0 0fed 0410 ef32 3eaf
00000270: cd92 8e8d 9811 7cba f97c dab6 9339 7532
00000280: ae19 948f 109c a9b9 7b37 1e10 f436 5e8e
00000290: fc83 72b9 e3dc 98b9 b76d 9fb7 544a 3639
000002a0: 397a 0ab3 4b2f a28e 5024 ac8f 1b86 7bba
000002b0: b13e a7b9 c5cc d637 11fc fa8f bb69 99b2
000002c0: 17d1 a5b8 3026 73b9 a8cc 0a0e 4436 c7b9
000002d0: e653 190e 0a33 1a8d 497f e2b9 436e 8fa4
000002e0: 9f15 58b8 403a 9338 7024 9fb8 49f1 a58f
000002f0: 3dcd 1590 9707 91b8 ff48 2e37 d807 16ba
00000300: 0a2f fcb9 e805 c638 422b d0a3 23a4 7539
00000310: 9d4b e4b0 fc4e 1039 3896 ef39 4b20 30b9
00000320: ae49 19b8 6ab5 358e ea33 3ebb 586f 3339
00000330: b844 0bb9 714b 4410 183d 028e bfc7 9db8
00000340: 16c2 853a 6679 c70f c962 5138 0d04 d80f
00000350: b183 e18d a688 163a 7388 b10e 7339 1cb9
00000360: 0b7a 798c 915c e238 73ac 5cba 9720 03b8
00000370: edbc 5fb9 aa89 19ba a330 9d8f 6df4 cba9
00000380: 65f3 128d c835 81b8 023e 210e 6e87 258f
00000390: bb45 160b 557d b4b8 d7bf deb1 425b 9938
000003a0: 7855 5b0e f2c3 ebb5 25d9 cf8e 67d8 7c39
000003b0: ffc8 02b9 4db9 9a39 715b 3339 cb7b 09b9
000003c0: 2ded b036 297f 9439 8601 71af b5bc f4b8
000003d0: 4548 6338 ccab aab9 9d7d b537 d4c7 6a0d
000003e0: c7d1 5e37 20cb 4639 5b2d 4dba 0a0b 6d8f
000003f0: e653 23b7 b9d9 ceb6 21ee a338 a4f6 2e39

encoder.bias f4 [200]
0.0005281216 0.020198094 -9.2488506e-07 -0.0035819986 -1.551475e-07 0.006275955 -0.0023652962 -2.9591786e-06
0.002011971 -0.007443146 -0.0018942693 -0.007587345 0.019064257 -0.0063252635 0.017083861 -0.0153581705
-0.011034167 0.01658453 0.0073787994 -9.411765e-06 -0.002544154 0.014534991 -0.010929697 0.0025885333
0.029353268 0.02346542 -5.8873847e-15 -1.1127484e-09 -0.0050662407 0.020197088 0.015326535 -8.966947e-10
0.017957002 0.0194884 0.00043056544 0.0050019966 -2.6198732e-13 0.02657139 0.009284872 0.008017321
0.004158374 0.0017595805 -0.015387407 0.007865973 0.016606737 -0.00016675986 0.005469894 0.0046463795
4.7862172e-06 -0.0009808508 -0.00021586564 -0.010395891 0.02252035 0.00446792 0.012639203 0.030653598
-0.0017660009 0.01466509 0.00045899447 0.008726061 -0.0021672533 0.030919764 0.02695523 0.002924315
0.009900501 -0.02148784 0.013202131 -2.53882e-08 0.0031817907 -0.00126106 -0.0013651547 0.038148083
-0.010116502 -0.00017442707 0.024660708 0.014614317 -0.008989742 0.011768819 0.014336363 0.007953689
0.026768755 0.0011202582 0.0045007183 -0.003129819 0.020504443 -0.012905035 0.009931952 -0.0018752208
0.017243454 0.026712397 0.027916024 -0.0063318294 -0.006629861 -0.0007816654 -3.9306913e-05 0.02203446
0.0039032327 -0.0018087153 -3.1522322e-05 0.011019185 0.0027805897 -8.7340893e-13 -0.008728115 0.01998376
-0.0024191155 -0.005471383 -0.00011361476 0.008284393 0.03922287 0.02720399 0.013661059 0.039262068
0.018380973 0.019542962 -0.0013106847 -4.888138e-07 0.028538255 -0.00089167786 0.014180523 0.0014472209
0.0004778252 0.016902935 0.013494388 0.014997761 -0.0036405518 0.04637059 0.0352192 2.4987955e-07
-1.8009361e-05 0.0028466273 -8.4934454e-10 0.026140051 -0.004838354 0.016852299 0.01375586 0.006443023
0.0014054057 0.018815678 0.03062613 -0.0005781784 0.008539315 -0.0002231559 0.029899264 0.011985744
-0.016756864 0.011864051 0.011186328 -0.00013457956 0.041606117 0.017492855 0.02365162 0.025710668
0.024919515 0.016768927 0.017635757 0.002346383 -0.0011368752 -0.0040292237 -0.0016492867 0.0040517887
0.00877688 -0.005287754 0.03923108 -0.0023724434 -0.0034123266 0.029428458 -1.4300913e-09 0.0010486951
0.018845268 0.017194897 0.014718324 0.015920384 0.015731454 0.010082584 -0.007256343 0.008812925
-0.0007424108 -0.0036220592 -9.1276444e-05 -0.0038885546 0.022774287 0.036276884 0.04784377 0.00273475
0.0061318665 -0.0055081854 -0.0064704604 -0.0026218584 -0.0017310906 0.0028388463 -0.0037189943 -0.0008200553
0.0008336894 -2.301484e-06 3.672133e-05 0.018241454 0.02666949 0.012812129 0.00889865 0.018297568
00000000: a471 0a3a 7976 a53c 9e45 78b5 f7bf 6abb
00000010: 9f96 26b4 87a6 cd3b 1603 1bbb 4d96 46b6
00000020: 46db 033b a2e5 f3bb 2149 f8ba 439f f8bb
00000030: a52c 9c3c 2844 cfbb 74f3 8b3c d6a0 7bbc
00000040: a7c8 34bc 48dc 873c dbc9 f13b 39e7 1db7
00000050: d2bb 26bb 2c24 6e3c 7912 33bc 62a4 293b
00000060: 4476 f03c 8d3a c03c 8a1d d4a7 5bef 98b0
00000070: b502 a6bb 5d74 a53c 261c 7b3c 487b 76b0
00000080: 901a 933c 23a6 9f3c 84bd e139 cae7 a33b
00000090: 5a7c 93aa 3eac d93c 931f 183c 155b 033c
000000a0: f842 883b b9a1 e63a 761b 7cbc 48e0 003c
000000b0: da0a 883c 42dc 2eb9 cc3c b33b a840 983b
000000c0: 4b99 a036 e48f 80ba fe59 62b9 8753 2abc
000000d0: 997c b83c a167 923b a914 4f3c 411d fb3c
000000e0: 2879 e7ba d845 703c 32a5 f039 c1f7 0e3c
000000f0: 7a08 0ebb 724b fd3c 37d1 dc3c dda5 3f3b
00000100: b635 223c 4407 b0bc c04d 583c 3e15 dab2
00000110: 9785 503b 274a a5ba feee b2ba 2a41 1c3d
00000120: afbf 25bc 69e6 36b9 4105 ca3c e370 6f3c
00000130: b649 13bc 01d2 403c 11e3 6a3c 3150 023c
00000140: 264a db3c a1d5 923a c37a 933b a61d 4dbb
00000150: eff8 a73c a46f 53bc a0b9 223c f8c9 f5ba
00000160: 2542 8d3c f5d3 da3c 25b0 e43c 3c7b cfbb
00000170: 4e3f d9bb ade8 4cba 7add 24b8 9d81 b43c
00000180: 61cd 7f3b 6a12 edba d636 04b8 d089 343c
00000190: 8e3a 363b bfd7 75ab 5e00 0fbc fbb4 a33c
000001a0: 068a 1ebb 4a49 b3bb 7644 eeb8 43bb 073c
000001b0: 29a8 203d e7da de3c a2d2 5f3c 43d1 203d
000001c0: b293 963c 9018 a03c 48cb abba 0737 03b5
000001d0: 0fc9 e93c 7dbf 69ba 6d55 683c adb0 bd3a
000001e0: 9d84 fa39 0678 8a3c 9117 5d3c 2bb9 753c
000001f0: 5396 6ebb 16ef 3d3d 0242 103d 2f27 8634
00000200: cf12 97b7 7b8e 3a3b 4f77 69b0 a923 d63c
00000210: 0e8b 9ebb d50d 8a3c 4260 613c ff1f d33b
00000220: 9735 b83a 5623 9a3c a6e3 fa3c e590 17ba
00000230: 7ce8 0b3c f5fe 69b9 4def f43c db5f 443c
00000240: b145 89bc 7061 423c dc46 373c ed1d 0db9
00000250: 2d6b 2a3d 2d4d 8f3c 0bc1 c13c 2e9f d23c
00000260: 0324 cc3c fd5e 893c dd78 903c c6c5 193b
00000270: 3403 95ba 9407 84bb e12c d8ba dec4 843b
00000280: e7cc 0f3c e544 adbb c5b0 203d ff7a 1bbb
00000290: 57a1 5fbb f313 f13c dd8c c4b0 5e74 893a
000002a0: 6461 9a3c 50dc 8c3c 2025 713c 776b 823c
000002b0: 40df 803c 6c31 253c 9ec6 edbb 1664 103c
000002c0: 589e 42ba 1260 6dbb ab6b bfb8 1fd7 7ebb
000002d0: 2491 ba3c 1297 143d d4f7 433d 7e39 333b
000002e0: d3ed c83b 027e b4bb 2806 d4bb 7cd3 2bbb
000002f0: c3e5 e2ba f00b 3a3b 5fba 73bb fbf8 56ba
00000300: f38b 5a3a 3273 1ab6 3a05 1a38 1a6f 953c
00000310: f979 da3c f7e9 513c a5cb 113c c8e4 953c

decoder.weight f4 [500, 200]
-4.0749697e-08 -0.001799988 3.345157e-17 -0.0070780804 -9.9564346e-08 0.002692517 2.69576e-29 -4.1833232e-08
7.54426e-05 -4.8760736e-05 9.966595e-07 -2.6623025e-28 0.00012199576 0.0045442646 -0.0014793159 -0.0037882852
2.4574924e-30 -0.0014481624 0.013260409 -9.218859e-09 0.015453619 -0.0033519305 0.007218283 0.018218659
0.007183695 -1.4620962e-06 -1.3561295e-24 -7.7670134e-23 -8.0990124e-30 0.003759757 -0.009945537 7.4877504e-25
0.008114566 -0.00831448 -0.0030532102 0.018597852 4.890739e-15 -0.0040963204 0.008158591 0.008850631
-0.0020080032 0.0023192281 0.004242851 -0.008592547 -0.011344518 -4.7855945e-05 0.00023852302 0.015752599
-1.7987836e-09 -9.445748e-07 -2.8036493e-29 6.101956e-28 0.00081649434 -0.0015346936 0.003030322 0.0039730915
0.017351663 0.009652652 2.3535124e-07 -9.8781575e-06 0.0036646642 -0.00704156 -0.004726523 0.0066338093
0.0013538316 0.0054383767 -0.0136380335 1.08567214e-07 0.0044799214 5.961903e-05 -0.010601155 0.006512797
5.124952e-30 -8.717644e-29 -0.0034027786 -0.0030713785 -0.00012274215 0.004646233 0.00018651625 1.3488449e-28
-0.0016279533 0.00886939 -0.013637519 -0.00012401097 -0.0045633507 4.5901224e-06 -0.00089576596 -3.5250564e-29
-0.00625099 0.002365406 -0.0076391804 0.004332045 -8.89251e-07 -0.0070063956 -1.9142372e-16 -0.004931781
5.812614e-07 3.0281566e-07 -1.1688648e-17 0.0055694263 0.0050267507 -1.0143323e-24 -0.0010218795 -0.014631917
0.0014364746 -0.0096401125 -0.008037102 -0.00726947 0.005575311 0.014013817 0.00079267833 -0.007309645
-0.012673853 -0.0020059359 -1.3251795e-06 -1.5011075e-22 -0.009967644 -5.4607946e-30 -0.0120407045 -0.0001369065
4.074535e-05 0.011328387 -0.010354558 0.0023164994 2.2834804e-07 0.0018933088 0.00039902708 -6.0678595e-10
-1.9469026e-23 -0.0028029552 -2.1233577e-15 -0.0025055609 0.017426237 -0.0035958458 0.013173369 0.009777191
-0.002088281 -0.00058826373 -0.008682282 -1.7249395e-28 2.2763703e-05 0.0011491134 0.00787671 -6.1609664e-09
0.0022358713 -0.0092682 0.012754271 -3.740438e-13 0.003610624 0.0007708192 0.0016997699 -0.012744506
-0.013661556 0.0027203115 -0.009677948 -0.011937233 0.014644363 0.012732181 8.861163e-28 -0.0025279915
0.0048670056 -0.0036969343 -0.01204419 -0.0058999783 3.2983136e-29 0.0069586975 -6.984598e-25 -0.00020298378
-0.0029959711 0.001560867 0.00433383 0.009290667 -0.006260738 -0.0054049836 0.010022588 0.0055623297
0.010839081 -2.2266076e-29 -7.577287e-16 -0.0032848315 -0.00734408 -0.017778855 0.0008048534 -0.009459968
-0.006569275 0.018471465 -0.016215451 -0.0018355355 -5.417314e-29 0.012389349 0.0015350701 -1.1026266e-05
0.002420615 -4.421975e-12 -2.168249e-14 -0.00437804 0.002241233 -1.4634295e-24 -0.0011486689 -0.0076749064
1.2167138e-06 0.021149447 -1.494103e-17 0.03140175 -2.8612197e-08 0.013868907 2.095789e-06 -1.4762911e-07
-0.00019997628 -0.0024515463 6.3162634e-07 4.5605888e-05 -0.053181622 -0.031521033 0.046913996 0.08124233
6.1857885e-10 -0.018528877 -0.006963757 -2.7379897e-08 -0.03339027 0.00029717173 0.04757961 0.017573837
-0.034125343 0.025373658 -7.250379e-24 5.197474e-19 -2.4115157e-06 -0.09451769 0.014652704 -6.1258846e-25
-0.046069264 0.0108414665 0.028212132 0.028162079 -3.9934846e-14 0.0026339404 0.004245841 -0.043057844
-0.047086187 -0.012786575 0.020441448 -0.03617117 0.029967248 -2.5329255e-05 -0.009983206 0.026314452
-1.4453786e-08 -2.4082337e-05 -1.12096164e-23 6.608657e-05 0.029860418 0.0015515161 -0.036270373 -0.03215416
00000000: c404 2fb3 93ed ebba a544 1a24 3eef e7bb
00000010: 14d0 d5b3 f074 303b f7b0 0810 20ac 33b3
00000020: f036 9e38 7184 4cb8 f6c4 8535 54be a891
00000030: fad7 ff38 0ee8 943b 9be5 c1ba e144 78bb
00000040: 1f60 470e 44d0 bdba 3042 593c f860 1eb2
00000050: 2d31 7d3c 10ac 5bbb 5987 ec3b 4c3f 953c
00000060: 3465 eb3b 3e3d c4b5 d3d9 d197 7ccb bb9a
00000070: 7a44 248f 4166 763b 9bf2 22bc 12bc 6717
00000080: f5f2 043c 7539 08bc 5e18 48bb 865a 983c
00000090: 1b35 b027 6d3a 86bb 9cab 053c 3d02 113c
000000a0: b498 03bb 31fe 173b 9d07 8b3b c1c7 0cbc
000000b0: 5bde 39bc eeb8 48b8 091c 7a39 980b 813c
000000c0: 1239 f7b0 b08e 7db5 7329 0e90 f360 4112
000000d0: 020a 563a c627 c9ba 5e98 463b b530 823b
000000e0: 1325 8e3c 2826 1e3c dbb4 7c34 5dba 25b7
000000f0: dd2a 703b e3bc e6bb f3e0 9abb 6d60 d93b
00000100: 0d73 b13a 6934 b23b 0f72 5fbc 7525 e933
00000110: 4ecc 923b 720f 7a38 78b0 2dbc 4d69 d53b
00000120: 8be4 cf0e bf04 dd90 2701 5fbb 2e49 49bb
00000130: 58b4 00b9 6d3f 983b 9393 4339 85fc 2a11
00000140: 0c61 d5ba eb50 113c e76f 5fbc f108 02b9
00000150: 2988 95bb da04 9a36 d6d1 6aba d9bd 3290
00000160: 1bd5 ccbb ed04 1b3b 1752 fabb d4f3 8d3b
00000170: ddb4 6eb5 e895 e5bb 4fb2 5ca5 c79a a1bb
00000180: fb07 1c35 ab92 a234 149e 57a3 bc7f b63b
00000190: 71b7 a43b d8f5 9c97 96f0 85ba b5ba 6fbc
000001a0: 1748 bc3a 90f1 1dbc 0dae 03bc bc34 eebb
000001b0: 19b1 b63b 359a 653c becb 4f3a bf85 efbb
000001c0: fea5 4fbc 0576 03bb d2dc b1b5 0779 359b
000001d0: 544f 23bc 2284 dd8e 6046 45bc 8f8e 0fb9
000001e0: fde5 2a38 b39a 393c 2aa6 29bc 69d0 173b
000001f0: d52f 7534 e728 f83a 8234 d139 c4ca 26b0
00000200: f94a bc99 c9b1 37bb 0901 19a7 5634 24bb
00000210: 78c1 8e3c 48a8 6bbb 1dd5 573c 8330 203c
00000220: 8bdb 08bb b635 1aba 2140 0ebc 7da9 5a91
00000230: aef4 be37 d99d 963a 510d 013c 6fb0 d3b1
00000240: b287 123b a6d9 17bc 4af7 503c 6591 d2aa
00000250: 38a0 6c3b cd10 4a3a d0ca de3a 55ce 50bc
00000260: b8d4 5fbc 4147 323b 4290 1ebc 6294 43bc
00000270: e9ee 6f3c a39a 503c 2669 8c12 a9ac 25bb
00000280: 677b 9f3b 4448 72bb ff54 45bc 9b54 c1bb
00000290: 8f3e 2710 c905 e43b b029 5897 0bd8 54b9
000002a0: 0e58 44bb 0196 cc3a cd02 8e3b e237 183c
000002b0: e026 cdbb 4a1c b1bb c835 243c 3444 b63b
000002c0: 6796 313c 0ace e18f 8266 5aa6 5446 57bb
000002d0: 9ca6 f0bb f6a4 91bc ccfc 523a fbfd 1abc
000002e0: 1343 d7bb 7851 973c 44d6 84bc 5a96 f0ba
000002f0: 6158 8990 b2fc 4a3c 6834 c93a 74fd 38b7
00000300: 2ea3 1e3b 9c95 9bac 6b4c c3a8 a975 8fbb
00000310: a6e1 123b 6a74 e297 ef8e 96ba c87d fbbb
00000320: f84d a335 9b41 ad3c 82ce 89a3 1f9f 003d
00000330: e3c6 f5b2 693a 633c 61a5 0c36 fb83 1eb4
00000340: b9b0 51b9 1faa 20bb 088d 2935 f348 3f38
00000350: f9d4 59bd 331c 01bd e428 403d 6162 a63d
00000360: 9e08 2a30 dfc9 97bc 3a30 e4bb 0831 ebb2
00000370: 3cc4 08bd b7cd 9b39 d6e2 423d 02f7 8f3c
00000380: 04c7 0bbd 6bdc cf3c 233e 0c99 0167 1921
00000390: 86d5 21b6 7e92 c1bd e511 703c 4296 3d97
000003a0: 20b3 3cbd 68a0 313c 211d e73c 29b4 e63c
000003b0: bed9 33a9 309e 2c3b b220 8b3b 6c5d 30bd
000003c0: 72dd 40bd c87e 51bc d374 a73c 3928 14bd
000003d0: e07d f53c 297a d4b7 9a90 23bc 6891 d73c
000003e0: 6c50 78b2 6d04 cab7 55d3 5899 f597 8a38
000003f0: d69d f43c 3e5c cb3a 3e90 14bd 15b4 03bd

decoder.bias f4 [500]
-0.015133336 0.013159203 0.016606798 0.02705095 -0.030925479 0.027188523 -0.0045531793 -0.021105435
-0.01589439 -0.020968057 2.1812493e-05 -0.020062903 -0.0074754674 1.9994819e-05 4.860458e-05 3.200728e-05
0.002717988 0.0012223234 0.028591463 -0.013203775 1.4220161e-05 0.013169987 0.00017550333 -0.00914671
0.0076273466 0.013612635 0.028936936 0.0012615521 0.018743103 -0.0015146644 -0.0066366615 -0.023779564
0.029630978 -0.004888339 -6.0578977e-06 0.01433632 0.0023231085 0.008691231 0.027935669 0.0001616296
0.020005235 0.007675089 -0.00024474537 -0.01072824 0.01945498 0.0045951055 -0.00031703187 -0.010213753
0.0067160763 0.012660843 0.0012153023 0.002277039 0.030919433 0.047900744 0.0055123377 0.0014177883
0.008469631 -0.00028505267 -0.020971041 0.0028309585 0.0015301937 -0.0017733079 0.016164463 0.048678372
-0.007296474 0.031315673 0.0038475485 0.017730448 -0.00039006435 0.0005619519 -0.035965703 8.650517e-06
-0.007823348 0.04214303 -0.0077520106 -0.01273872 0.007988354 -0.029789394 -7.95411e-05 -0.00018743868
-0.012665149 0.01029831 0.006353813 0.0014514361 0.027766934 -0.00027072677 0.019541143 6.0168655e-05
-0.002462507 0.0005272925 -0.0044405106 0.007958633 -0.0003545615 0.0009985862 0.00015178631 0.047910355
-0.009138832 0.0014751437 -1.08399445e-05 -6.1500265e-05 -0.03789775 -0.025977692 0.0025276782 -0.0050664768
0.011860483 0.0004886983 -0.0029201196 -0.004236236 -0.0026358033 0.027194193 -0.0011890682 0.00014442427
-0.024806796 0.012886721 3.0290359e-05 0.0005022958 -0.0016696486 0.03362118 0.027998814 1.5049371e-05
0.011895682 -0.020775246 -0.023082871 -0.00036750213 -0.0096672885 -0.0004332693 -5.7988713e-05 0.0017615185
0.0016744534 0.0003585938 0.0029622973 0.018868042 0.007879816 -0.025684036 -0.011149829 -0.026313668
-0.009664456 0.014245329 0.009593478 0.0037606445 -0.011385885 0.0010333989 -0.042652067 0.0019076482
-0.02398378 -0.020477936 -0.0076589673 0.008053398 -6.8677696e-06 -0.012502769 -0.035456695 -0.008211153
0.0058034756 -0.00019871235 0.0006224203 -0.0017696122 -0.0010912975 -0.016534425 -0.0048382212 -0.0004716046
0.00028185153 -0.011732143 7.841525e-05 -0.0015522148 0.021403205 0.033114437 0.016703418 -0.0056411983
-0.00022192375 0.0053600064 0.0032460268 0.052954663 0.037001375 0.0036437104 3.9535098e-05 -0.0005568078
0.011509811 0.009151166 -0.001115261 -0.0016603651 0.0022184593 0.0012086607 -0.00844986 -0.004802294
0.0059426758 0.004417172 -0.01797455 -0.0035431522 0.0001573108 0.0065627713 -0.009807274 -0.016287759
-0.02817019 -0.008722275 5.2272833e-05 0.03490791 2.7385564e-05 -0.022042852 0.044998053 0.011813634
-0.0225333 -3.9260212e-05 0.0032344686 -0.013518124 0.03604125 -9.095366e-05 -0.0017806033 0.0055957907
0.027462073 0.0017237955 0.038295504 -0.00012118065 -0.0004321846 0.017195864 -0.0004949841 0.0032272832
-0.006501473 0.024615275 0.00010562949 0.01727186 -0.018873904 -0.015043905 -0.0019312251 -0.0003824343
0.0023888173 -0.00072330673 -0.00018793119 -0.00038124097 0.0045147194 0.0062284283 0.0014423251 0.011914143
-0.002565621 0.036817487 0.0008243998 0.02225097 0.010463816 -0.0011408966 -0.021668673 -0.014848845
0.00082391815 -0.0064428654 -0.005459684 0.0107474765 0.0145677775 0.0034558952 0.009104978 -0.0011380304
0.043086022 0.029786585 -0.035933107 2.7662803e-05 0.01712837 0.022177797 -0.0068012793 -0.018359419
00000000: d0f1 77bc b399 573c fb0a 883c f499 dd3c
00000010: 6e57 fdbc 77ba de3c d632 95bb 4ee5 acbc
00000020: f434 82bc 34c5 abbc f9f9 b637 f55a a4bc
00000030: c4f4 f4bb 8cba a737 c5dc 4b38 8e3f 0638
00000040: 4620 323b 5e36 a03a a538 ea3c a554 58bc
00000050: 2093 6e37 eec6 573c 5107 3839 15dc 15bc
00000060: d2ee f93b 8807 5f3c 270d ed3c aa5a a53a
00000070: 238b 993c b487 c6ba 5a78 d9bb 5ccd c2bc
00000080: aabc f23c 5c2e a0bb f244 cbb6 e2e2 6a3c
00000090: 4b3f 183b aa65 0e3c 58d9 e43c 1e7b 2939
000000a0: 05e2 a33c 507f fb3b 2b51 80b9 80c5 2fbc
000000b0: 0d60 9f3c 8a92 963b 4c37 a6b9 9657 27bc
000000c0: 8812 dc3b 6d6f 4f3c c74a 9f3a 603a 153b
000000d0: c04a fd3c 9233 443d d7a0 b43b 15d5 b93a
000000e0: 35c4 0a3c 1f73 95b9 76cb abbc 9a87 393b
000000f0: c890 c83a 576e e8ba 566b 843c f962 473d
00000100: 4317 efbb dd44 003d 2727 7c3b 723f 913c
00000110: 8d81 ccb9 f44f 133a c650 13bd b021 1137
00000120: 802d 00bc 2b9e 2c3d 9404 febb 10b6 50bc
00000130: 96e1 023c e308 f4bc 4ecf a6b8 308b 44b9
00000140: 7c81 4fbc 3eba 283c a633 d03b 1d3e be3a
00000150: 7b77 e33c 55f0 8db9 bf14 a03c 9a5d 7c38
00000160: 0362 21bb 003a 0a3a b481 91bb ed64 023c
00000170: 70e4 b9b9 fee2 823a d428 1f39 a63d 443d
00000180: 0abb 15bc 9c59 c13a 35dd 35b7 b4f9 80b8
00000190: ac3a 1bbd 2bcf d4bc 67a7 253b b004 a6bb
000001a0: 7952 423c fd1b 003a 7a5f 3fbb 20d0 8abb
000001b0: 71bd 2cbb 5bc6 de3c 82da 9bba 9870 1739
000001c0: 9f37 cbbc d322 533c 0d18 fe37 80ac 033a
000001d0: 1cd8 daba 5db6 093d c55d e53c 8e7c 7c37
000001e0: 1be6 423c d930 aabc 4a18 bdbc 4dad c0b9
000001f0: 8c63 1ebc 6c28 e3b9 e838 73b8 c1e2 e63a
00000200: 5579 db3a a501 bc39 1a23 423b 2791 9a3c
00000210: 581a 013c 5467 d2bc c6ad 36bc c38f d7bc
00000220: ab57 1ebc 3e65 693c f72d 1d3c 2575 763b
00000230: dd8b 3abc 1d73 873a efb3 2ebd 0d0a fa3a
00000240: a279 c4bc 58c1 a7bc 13f8 fabb 66f2 033c
00000250: b171 e6b6 6ad8 4cbc 0a3b 11bd 1288 06bc
00000260: 152b be3b 715d 50b9 eb29 233a 55f2 e7ba
00000270: de09 8fba 3473 87bc f189 9ebb b341 f7b9
00000280: 79c5 9339 2d38 40bc de72 a438 b073 cbba
00000290: c655 af3c 01a3 073d 9bd5 883c cdd9 b8bb
000002a0: 34b4 68b9 fea2 af3b 4bbb 543b fde6 583d
000002b0: c18e 173d 51cb 6e3b 7dd2 2538 bdf6 11ba
000002c0: a593 3c3c c6ee 153c f32d 92ba 9ca0 d9ba
000002d0: 9263 113b ec6b 9e3a 4871 0abc 905c 9dbb
000002e0: c7ba c23b edbd 903b 5d3f 93bc 3b34 68bb
000002f0: ccf3 2439 840c d73b b0ae 20bc e86d 85bc
00000300: 2cc5 e6bc dfe7 0ebc 873f 5b38 99fb 0e3d
00000310: 0dba e537 3693 b4bc e14f 383d f98d 413c
00000320: c197 b8bc 55ab 24b8 61f9 533b 1f7b 5dbc
00000330: fd9f 133d 60be beb8 2263 e9ba e55c b73b
00000340: 24f8 e03c fbf0 e13a bfdb 1c3d 5e22 feb8
00000350: d696 e2b9 57de 8c3c d2c1 01ba d480 533b
00000360: 4f0a d5bb f9a5 c93c 6785 dd38 b77d 8d3c
00000370: 729d 9abc b67a 76bc 2921 fdba 7681 c8b9
00000380: b48d 1c3b 4b9c 3dba 650f 45b9 4ce1 c7b9
00000390: 36f0 933b d817 cc3b 660c bd3a 8a33 433c
000003a0: fa23 28bb efcd 163d 891c 583a ab47 b63c
000003b0: 6d70 2b3c 238a 95ba 8082 b1bc 9248 73bc
000003c0: 36fc 573a ac1e d3bb 26e7 b2bb 2f16 303c
000003d0: b0ad 6e3c 4d7c 623b 0c2d 153c f729 95ba
000003e0: f87a 303d ff02 f43c 982e 13bd 6b0d e837
000003f0: cc50 8c3c 36ae b53c 44dd debb 7e66 96bc
