SAE2_50_ccs_epochs.pth (torch, 404584 bytes, 4 tensors)

encoder.weight f4 [100, 500]
-0.04264872 0.022324113 -0.01472604 -0.022123562 0.038913935 -0.02227622 -0.015359453 -0.044021994
-0.017494248 -0.035231847 0.015087618 0.00228663 0.047517262 0.03066035 -0.04470661 -0.016802397
0.047163982 -0.03744848 -0.03773146 -0.036260758 -0.005366745 0.036870733 0.0326898 -0.018330602
0.025123442 -0.012173416 0.021305392 -0.015098958 -0.011884648 0.0137665095 -0.03663992 -0.04290448
0.027227638 0.047593884 -0.035198554 0.026993508 0.02367107 0.022648612 -0.004605178 0.039543644
-0.030091224 0.04017864 0.05339978 -0.005084792 0.03329992 -0.044538077 -0.008379835 -0.029703274
-0.0035632937 -0.029821778 0.021337684 -0.0002749261 -0.027663242 -0.0027405014 0.018334981 0.046372302
-0.0056471927 0.027298545 -0.032530807 0.03342076 0.026433371 -0.014335505 0.011513346 -0.02215851
-0.011382093 -0.026849765 0.007597728 -0.008085826 0.034153968 -0.022616616 -0.0034432225 0.0146000525
0.0323834 0.00051538565 -0.031108327 0.041488614 0.030646147 0.032521248 0.0022044692 0.03767422
-0.012881472 0.008966246 0.021138184 -0.011626092 -0.010972514 -0.028690077 0.0060584033 0.006351162
-0.042997055 -0.005580955 0.01721453 0.008847922 0.004833582 -0.043891586 -0.030197952 -0.025137698
-0.01333438 0.0037461377 -0.045323033 -0.028598733 0.047735937 0.028920691 0.023930877 0.008442079
-0.0011199266 0.03274779 0.015774855 -0.017377643 0.02722207 -0.01912311 0.00012110171 0.018040134
0.02505625 -0.008798475 -0.03396511 -0.034324396 0.007803584 -0.03572399 0.018848648 -0.0037479566
0.043041438 -0.023451174 0.04860269 0.04779689 -0.0317111 0.040851776 0.004405152 -0.043438863
-0.035554014 0.004154788 0.0035511237 -0.0143304 -0.011805725 0.039318424 -0.0010960167 0.0059768045
0.015088894 -0.04139674 -0.027554883 -0.03757247 0.016783511 0.027785225 -0.034187302 0.017574202
-0.00054901105 0.040027797 -0.029395066 -0.00039843668 -0.026345644 0.04828781 0.008151528 -0.0353758
-0.037830155 0.011824236 -0.023965457 0.00779371 -0.045076434 0.028587192 -0.028192062 0.023550538
0.018104814 0.051709615 0.017437275 -0.034388244 -0.036028694 -0.032221008 -0.030012395 0.0266437
0.015582824 0.038849823 0.007252586 -0.018231235 0.02503613 -0.040474586 -0.04424111 -0.0066081923
0.027420316 -0.009951117 -0.0063181026 0.009618254 0.041440684 -0.026439413 -0.03539473 -0.010571307
0.04884394 0.034200862 -0.0002335841 0.017335195 0.035815027 0.02758049 -0.036791537 -0.039656773
-0.01599847 0.021180118 0.01908417 0.045282792 0.01942742 0.040729783 -0.022934204 0.0368601
-0.02288282 -0.012042686 0.03659822 0.018557873 -0.0012454031 -0.0050069285 -0.023696255 -0.040947307
-0.034819055 -0.028182702 -0.018962765 0.027434742 -0.00874178 -0.027836975 0.026069576 -0.017030416
-0.02972476 -0.0016158151 0.016382158 0.011668055 0.033120804 0.015775137 -0.02479338 0.030457772
0.043133426 0.04081613 0.04533462 -0.043612186 -0.03286563 0.025097592 -0.04260465 0.033686787
-0.009021956 -0.016527578 0.04881621 0.051491696 -0.009268731 0.0276901 0.0282089 -0.0015271817
0.0013230677 0.019032901 0.038748898 -0.027467767 -0.033074558 0.029844306 -0.012294788 -0.034899645
0.039577693 0.028861266 -0.0113296565 0.031272464 0.01080823 0.019081078 -0.015277869 0.0014526898
00000000: 6db0 2ebd 0fe1 b63c 7d45 71bc 793c b5bc
00000010: 3864 1f3d 9f7c b6bc 37a6 7bbc 6850 34bd
00000020: 1950 8fbc 454f 10bd 0e32 773c 49db 153b
00000030: 76a1 423d 6a2b fb3c 471e 37bd 2ea5 89bc
00000040: 052f 413d 9463 19bd 4e8c 1abd 2986 14bd
00000050: 85db afbb c405 173d bde5 053d 0f2a 96bc
00000060: adcf cd3c 0273 47bc a588 ae3c 9f61 77bc
00000070: d4b7 42bc ed8c 613c be13 16bd 9cbc 2fbd
00000080: 7f0c df3c cef1 423d 5c2c 10bd 7d21 dd3c
00000090: d5e9 c13c 9589 b93c 08e7 96bb 84f8 213d
000000a0: df81 f6bc 5c92 243d bab9 5a3d 549e a6bb
000000b0: 7f65 083d 8f6d 36bd 934b 09bc 4854 f3bc
000000c0: 2686 69bb cd4c f4bc 5ecc ae3c f523 90b9
000000d0: 069e e2bc fc99 33bb 3e33 963c e2f0 3d3d
000000e0: 160c b9bb 33a1 df3c 063f 05bd 35e4 083d
000000f0: cc8a d83c 77df 6abc 79a2 3c3c c385 b5bc
00000100: f57b 3abc 0af4 dbbc 5df6 f83b 6a7a 04bc
00000110: 08e5 0b3d 7b46 b9bc b0a7 61bb 0f35 6f3c
00000120: 75a4 043d f21a 073a e4d6 febc f7ef 293d
00000130: a10d fb3c 0035 053d db78 103b 4850 1a3d
00000140: cf0c 53bc 29e7 123c fc29 ad3c 5d7b 3ebc
00000150: 0fc6 33bc 7407 ebbc 9285 c63b 691d d03b
00000160: ae1d 30bd 72e0 b6bb 7c05 8d3c e0f6 103c
00000170: 0663 9e3b aac7 33bd b261 f7bc 93ed cdbc
00000180: 7278 5abc c381 753b a5a4 39bd e447 eabc
00000190: c286 433d 16eb ec3c b00a c43c a550 0a3c
000001a0: 80ca 92ba 8c22 063d 453a 813c 8f5b 8ebc
000001b0: d200 df3c 12a8 9cbc fcf7 fd38 e7c8 933c
000001c0: c442 cd3c 7b27 10bc 001f 0bbd bd97 0cbd
000001d0: 35b5 ff3b 5253 12bd 7b68 9a3c 47a0 75bb
000001e0: 384c 303d ad1c c0bc 9d13 473d acc6 433d
000001f0: 80e3 01bd 3154 273d 1859 903b f3ec 31bd
00000200: 16a1 11bd e324 883b f8b9 683b 0eca 6abc
00000210: cd6c 41bc 5b0c 213d 38a8 8fba 12d9 c33b
00000220: 6937 773c a18f 29bd c7ba e1bc 97e5 19bd
00000230: 937d 893c d79d e33c fc07 0cbd c6f7 8f3c
00000240: 82eb 0fba 30f4 233d eccd f0bc 44e5 d0b9
00000250: d2d2 d7bc 70c9 453d fd8d 053c 37e6 10bd
00000260: cbf3 1abd 71ba 413c 3553 c4bc 6162 ff3b
00000270: 11a2 38bd b02f ea3c 0af3 e6bc 0fed c03c
00000280: 8c50 943c 76cd 533d 9ed8 8e3c b0da 0cbd
00000290: d392 13bd 2dfa 03bd 8edc f5bc e443 da3c
000002a0: 1a4f 7f3c fe20 1f3d 1aa7 ed3b ac59 95bc
000002b0: 9218 cd3c aec8 25bd 2b36 35bd 8989 d8bb
000002c0: 92a0 e03c 030a 23bc 1608 cfbb e295 1d3c
000002d0: b5bd 293d 7897 d8bc 10fa 10bd 4633 2dbc
000002e0: 9510 483d 3416 0c3d 41ee 74b9 8a02 8e3c
000002f0: c7b2 123d 7bf0 e13c b9b2 16bd 246f 22bd
00000300: 390f 83bc ed81 ad3c 6856 9c3c 737a 393d
00000310: 4126 9f3c 46d4 263d 83e0 bbbc 9efa 163d
00000320: c074 bbbc b04e 45bc 04e8 153d ae06 983c
00000330: cb3c a3ba 2911 a4bb a61e c2bc 5db8 27bd
00000340: 6d9e 0ebd 69df e6bc cd57 9bbc d3be e03c
00000350: af39 0fbc 5e0a e4bc dd8f d53c 5f83 8bbc
00000360: 5781 f3bc c2c9 d3ba e033 863c 5f2b 3f3c
00000370: aea9 073d dc3a 813c 7d1b cbbc 9482 f93c
00000380: adac 303d d02e 273d cbb0 393d b1a2 32bd
00000390: 1c9e 06bd 7799 cd3c 3782 2ebd 28fb 093d
000003a0: d3d0 13bc d864 87bc 82f3 473d f5e8 523d
000003b0: e0db 17bc 59d6 e23c 5a16 e73c b72b c8ba
000003c0: c96a ad3a e3ea 9b3c 2ab7 1e3d 1504 e1bc
000003d0: 3079 07bd 0c7c f43c 1470 49bc eef2 0ebd
000003e0: 381c 223d 766e ec3c 06a0 39bc 8e17 003d
000003f0: 0115 313c ec4f 9c3c 0750 7abc 2e68 be3a

encoder.bias f4 [100]
0.033040278 0.011399438 -0.0076227435 0.007294302 0.008200468 0.037020925 0.043843396 -0.00766312
0.02950349 -0.018126195 0.031523123 0.01343204 0.041902795 0.02518657 0.031744536 -0.008270293
0.0074521936 -0.02561321 0.04064108 -0.03876799 0.024899166 -0.037514262 -0.039944082 0.021469068
-0.019682204 0.0350582 0.026761362 -0.030407399 -0.0387303 -0.010074591 -0.019657943 0.0044559212
0.04814535 0.008066317 -2.7821457e-05 -0.03523949 -0.011846573 0.027813677 0.017214002 -0.0044447305
-0.0016043807 0.04326838 0.018041022 -0.02586614 0.038663074 0.031744767 -0.029826635 0.003834733
0.0025246944 -0.03232303 -0.043426543 0.018564247 0.022752738 -0.027017718 0.036790915 -0.008649846
-0.042099033 0.026333885 0.03138554 0.020944973 -0.041590355 0.040136833 -0.0085745 -0.03080635
0.019374352 -0.015700918 0.043693453 -0.041350562 -0.042739645 0.0220305 -0.001846598 0.040173497
0.012679019 0.040904988 0.008871834 -0.0023390644 -0.00016534628 0.04352023 0.005232759 -0.0021638034
0.042655133 -0.004114811 0.023354204 -0.033134785 -0.044060647 -0.0092186555 0.0021290218 0.008950629
-0.00310087 0.027989646 -0.0048144804 -0.03400095 -0.0361787 -0.0027754952 -0.030748628 -0.027108245
-0.015673317 -0.039070465 0.03504614 -0.019682972
00000000: 3e55 073d b5c4 3a3c 35c8 f9bb 0a05 ef3b
00000010: 415b 063c 41a3 173d 2295 333d e91a fbbb
00000020: 4eb1 f13c 637d 94bc 641e 013d 0f12 5c3c
00000030: 44a2 2b3d 1154 ce3c 8f06 023d 1f80 07bc
00000040: 8831 f43b cbd2 d1bc 4377 263d 2fcb 1ebd
00000050: 56f9 cb3c 8ea8 19bd 689c 23bd e6df af3c
00000060: 933c a1bc 3099 0f3d a53a db3c f018 f9bc
00000070: aaa3 1ebd e60f 25bc b209 a1bc fa02 923b
00000080: 0f34 453d 9628 043c 2062 e9b7 4957 10bd
00000090: 2118 42bc 82d9 e33c 6104 8d3c 1aa5 91bb
000000a0: 154a d2ba 2f3a 313d c4ca 933c 3ae5 d3bc
000000b0: 2c5d 1e3d cd06 023d fd56 f4bc 2550 7b3b
000000c0: 5875 253b 2765 04bd 08e0 31bd 0c14 983c
000000d0: f363 ba3c 4354 ddbc 12b2 163d 15b8 0dbc
000000e0: 0970 2cbd 29ba d73c 208e 003d cb94 ab3c
000000f0: a65a 2abd 8566 243d 0f7c 0cbc 995d fcbc
00000100: f6b6 9e3c 369f 80bc e8f7 323d 355f 29bd
00000110: c40f 2fbd 4f79 b43c 8c09 f2ba f78c 243d
00000120: a9bb 4f3c fd8b 273d 2b5b 113c fd4a 19bb
00000130: ce60 2db9 4542 323d 9077 ab3b 99ce 0dbb
00000140: 26b7 2e3d 89d5 86bb 5151 bf3c 57b8 07bd
00000150: f078 34bd d809 17bc 0f87 0b3b a9a5 123c
00000160: f737 4bbb 8b4a e53c cac2 9dbb 9544 0bbd
00000170: 1e30 14bd 15e5 35bb 8ce4 fbbc 1c12 debc
00000180: 5465 80bc 5a08 20bd 8b8c 0f3d 2f3e a1bc

decoder.weight f4 [500, 100]
-0.026501352 0.04605927 0.009645777 0.059821308 0.016777704 -0.025381329 -0.0013434109 -0.007758581
-0.014781532 0.03620703 0.037235204 -0.02807844 0.06805643 0.05326524 -0.00788905 -0.051192284
-0.0018822683 0.04273095 -0.0066319783 -0.0028486021 -0.04765853 0.0027414123 -0.03433621 -0.015381653
0.0014155533 0.043982375 0.0636795 0.033082347 -0.024335003 0.020375181 0.012297523 0.03217122
0.023514012 0.017741702 0.023354417 -0.02583853 -0.05587927 0.039449718 0.009367673 0.026844073
-0.017084012 0.01594088 0.018895164 0.013149732 -0.017456623 -0.02480474 0.061377943 -0.0030626766
0.04045148 0.055934045 -0.0252792 -0.065062985 -0.016452273 0.003732503 0.009485975 -0.027513467
0.07111062 -0.013621891 0.020231707 0.0011243857 0.06423671 0.013232914 0.040402576 0.053066954
-0.035306714 -0.04829944 -0.06655137 -0.045669794 -0.01942343 0.006554306 -0.045147363 0.044487305
0.014753332 0.035527382 0.06517343 -0.035910107 0.07731496 0.032821663 0.05984174 -0.020964572
-0.010744587 0.041703586 -0.017656473 -0.033419635 0.014776716 0.023180418 0.045877974 0.043515757
-0.013634276 0.0023462623 -0.02977053 -0.03281407 0.016642382 0.011699642 0.03278171 0.0021347885
-0.013636892 -0.048319265 0.001371297 0.0348049 0.03746086 0.028848035 -0.010107373 0.0010254566
0.04394387 0.045330066 0.027594117 0.023502594 0.03335772 0.026821544 -0.03973021 0.04541612
-0.074665606 0.019334562 0.017713668 -0.010956467 -0.028904987 0.04132143 -0.01785371 0.014211993
-0.032335162 0.007009477 0.0056844894 0.025763437 0.003895591 -0.032365337 -0.015059447 -0.009979939
-0.0038179662 0.0003253432 0.013816973 -0.03872368 0.044133034 0.0044961013 0.03504195 0.022856595
-0.022892354 -0.020208381 -0.026731508 0.021815315 0.028578835 -0.0010557036 0.053627312 0.05036454
-0.0025340833 0.045615785 0.016238015 0.0040660608 0.024514092 0.016913963 -0.021878438 0.023497026
0.017836332 0.00089052774 0.042129874 0.017904624 -0.01244919 0.043110795 -0.03770838 0.047975592
0.028869782 -0.014892879 -0.0054565994 0.0011250848 0.02805783 0.031160757 -0.0403082 -0.0024395087
0.053584296 -0.0013203307 0.014797283 -0.0154576795 -0.017161548 -0.0027350849 -0.026960926 0.0057586073
0.02510819 -0.025591869 0.015867911 0.0049871076 0.010036663 -0.034396812 -0.032797936 0.00047509538
0.03871254 0.04936039 -0.0051087975 -0.0040228004 -0.0065701944 0.0035395536 0.013960454 0.009213078
0.051438276 0.0019173749 0.018717092 -0.004320923 0.0123570245 0.023645012 -0.029065821 -0.034357753
0.008718582 -0.030314308 0.045833066 0.02509569 0.0643454 -0.046303254 0.035560578 0.04683584
-0.020675544 0.034976527 -0.029668523 -0.0168255 -0.02680867 0.009597715 -0.053650375 0.059720423
0.015702995 -0.031214949 -0.023743976 -0.024546731 -0.0029562986 -0.031979397 0.045103468 -0.0003258224
-0.061794315 -0.008029896 -0.012418305 0.005040692 0.03353985 0.019624557 0.054517247 -0.017303756
0.001967049 0.032605868 0.011878761 0.0074850814 -0.02212466 0.02273791 -0.011796016 0.027682588
-0.008856727 -0.030774264 0.012465875 0.04262048 0.045660783 0.026848217 -0.006793338 0.008388977
-0.03326971 -0.00038322256 -0.026877074 0.001849564 0.005317522 -0.0171405 0.07212956 -0.025768712
00000000: 5d19 d9bc a5a8 3c3d 5209 1e3c 3007 753d
00000010: 6571 893c 81ec cfbc 6415 b0ba b23b febb
00000020: 3d2e 72bc d34d 143d f183 183d c204 e6bc
00000030: 2b61 8b3d a72c 5a3d 1341 01bc 00af 51bd
00000040: 72b6 f6ba a606 2f3d 1151 d9bb 9daf 3abb
00000050: 9735 43bd 44a9 333b 20a4 0cbd 5403 7cbc
00000060: 168a b93a dd26 343d 666a 823d 5b81 073d
00000070: 335a c7bc dae9 a63c 8d7b 493c f8c5 033d
00000080: 75a0 c03c 0c57 913c c351 bf3c 53ab d3bc
00000090: a9e1 64bd 0796 213d de7a 193c 1ae8 db3c
000000a0: c5f3 8bbc 7396 823c 08ca 9a3c f971 573c
000000b0: 3101 8fbc 4f33 cbbc 7067 7b3d 30b7 48bb
000000c0: 73b0 253d 191b 653d 5316 cfbc be3f 85bd
000000d0: ebc6 86bc 029d 743b 106b 1b3c ec63 e1bc
000000e0: 72a2 913d 5a2e 5fbc f7bc a53c 2060 933a
000000f0: 898e 833d ddce 583c 2c7d 253d bc5c 593d
00000100: c69d 10bd a2d5 45bd 164c 88bd 4010 3bbd
00000110: e31d 9fbc 81c5 d63b 71ec 38bd 5238 363d
00000120: f6b7 713c 2985 113d a679 853d 7a16 13bd
00000130: 4e57 9e3d 0270 063d 9d1c 753d e5bd abbc
00000140: 100a 30bc 61d1 2a3d 4fa4 90bc 07e3 08bd
00000150: 0a1a 723c dce4 bd3c 8bea 3b3d 943d 323d
00000160: 4c62 5fbc c0c3 193b 54e1 f3bc 0c68 06bd
00000170: 9b55 883c dbaf 3f3c 1d46 063d cfe7 0b3b
00000180: 456d 5fbc 6cea 45bd 18bd b33a 958f 0e3d
00000190: 8f70 193d b752 ec3c 6599 25bc 9d68 863a
000001a0: 7dfe 333d 05ac 393d 0f0d e23c 8388 c03c
000001b0: 1ba2 083d dbb8 db3c 25bc 22bd 4106 3a3d
000001c0: 48ea 98bd 8463 9e3c 411c 913c c182 33bc
000001d0: 27ca ecbc a940 293d f241 92bc 6bd9 683c
000001e0: e071 04bd c1af e53b f444 ba3b d80d d33c
000001f0: 2c4d 7f3b 8491 04bd e6bb 76bc e682 23bc
00000200: d836 7abb d392 aa39 9660 623c b99c 1ebd
00000210: d7c4 343d 0854 933b 2688 0f3d c13d bb3c
00000220: bf88 bbbc 0c8c a5bc 09fc dabc 08b6 b23c
00000230: 291e ea3c 895f 8aba 50a8 5b3d 0c4b 4e3d
00000240: dd12 26bb 9ed7 3a3d 9605 853c 973c 853b
00000250: c7d1 c83c 278f 8a3c 693a b3bc d67c c03c
00000260: 801d 923c 4e72 693a 6090 2c3d b8ac 923c
00000270: b0f7 4bbc f294 303d 1a74 1abd 0e82 443d
00000280: 5280 ec3c 4301 74bc 46cd b2bb 9577 933a
00000290: 89d9 e53c d844 ff3c 361a 25bd 2ae0 1fbb
000002a0: 357b 5b3d f20e adba 4e70 723c 3542 7dbc
000002b0: 6096 8cbc 1c3f 33bb 29dd dcbc b3b2 bc3b
000002c0: b1af cd3c 0aa6 d1bc 6cfd 813c e46a a33b
000002d0: d170 243c ace3 0cbd 2157 06bd 3916 f939
000002e0: 0a91 1e3d 1f2e 4a3d b367 a7bb b2d1 83bb
000002f0: c94a d7bb dbf7 673b 63ba 643c 73f2 163c
00000300: f1b0 523d 6d50 fb3a 9654 993c 8796 8dbb
00000310: 1e75 4a3c 2fb3 c13c 721b eebc b7ba 0cbd
00000320: 62d8 0e3c b655 f8bc 74bb 3b3d 7a95 cd3c
00000330: 85c7 833d 7ba8 3dbd f8a7 113d f0d6 3f3d
00000340: c25f a9bc 8c43 0f3d 670b f3bc a2d5 89bc
00000350: db9d dbbc bc3f 1d3c 7fc0 5bbd 679d 743d
00000360: 91a3 803c 7eb6 ffbc ba82 c2bc 3a16 c9bc
00000370: 76be 41bb d4fc 02bd 6abe 383d 24d3 aab9
00000380: 091c 7dbd d38f 03bc 2576 4bbc 642c a53b
00000390: 1561 093d aec3 a03c 7a4d 5f3d 9bc0 8dbc
000003a0: 9be9 003b bb8d 053d 239f 423c 6a45 f53b
000003b0: c63e b5bc da44 ba3c 1444 41bc 98c6 e23c
000003c0: ce1b 11bc 4f1a fcbc ab3d 4c3c d092 2e3d
000003d0: cd06 3b3d cbf0 db3c a69a debb eb71 093c
000003e0: d245 08bd 43eb c8b9 4f2d dcbc 126d f23a
000003f0: 9c3e ae3b 3c6a 8cbc aab8 933d e818 d3bc

decoder.bias f4 [500]
0.046051167 0.046632633 0.027877668 -0.0207682 -0.04486015 -0.064187214 0.0015088656 -0.023788074
-0.021995394 0.10708941 -0.0054700915 -0.043982003 -0.018342748 0.06265528 0.07815786 -0.053253412
0.0042280024 0.060816236 0.023335008 0.036114078 0.07145063 0.045626346 -0.0005826676 0.011938623
-0.025057973 -0.060666777 -0.02813448 -0.040950984 0.024030766 -0.06212384 -0.060955487 0.034766868
0.0073700645 0.05223086 -0.036774714 0.07483507 0.067072615 0.05473374 0.014425538 0.012592009
-0.034552444 0.012456109 0.025067553 0.021473883 -0.023558313 0.026675526 0.035818122 -0.016268162
0.06915877 0.009826735 0.070727274 -0.056121513 0.07312425 0.022225052 0.0277984 0.05049344
-0.037011854 -0.0013685151 0.0033946608 -0.0007486561 -0.0016188954 0.024849642 -0.010943343 0.06068535
-0.004208803 0.06488146 0.09704648 -0.010642708 0.06531228 0.06397055 -0.018965844 -0.04874508
0.08437023 -0.059832107 -0.024090746 -0.050467175 -0.004205521 -0.04400057 0.055517852 0.06148665
-0.0005242138 -0.043333456 0.005719178 0.035081785 0.046419624 -0.05796895 0.052241553 0.01702171
0.0018897582 0.0065368493 0.04479827 -0.05213781 0.061784748 0.02235714 0.015539259 0.06397105
0.09313788 -0.071030214 0.057530757 0.057727233 -0.0067212107 0.10291113 0.07061787 -0.015901946
0.016095165 0.080004424 0.0014710734 0.05162794 0.06639689 -0.03156087 0.051536623 -0.0572774
0.052368212 0.00133916 0.060440954 0.02809662 -0.006449849 -0.041123927 0.041232824 0.019506961
0.03262617 0.063918315 -0.009270847 0.05872592 0.06934424 -0.059205893 0.0723571 0.04306842
0.055224936 -0.053061794 0.07218695 0.018711824 0.07612185 -0.015430262 0.009876238 -0.010698637
0.00332056 0.067406535 -0.024542226 -0.06597075 0.08349635 0.0018538573 0.03914691 0.07536691
0.07826491 0.022691002 0.064508215 -0.060098633 0.025450686 0.06818074 -0.054350305 0.053469304
0.03740831 -0.0021817177 0.026514517 -0.023218382 0.07360263 0.05447203 0.089963965 0.03863835
-0.013081622 -0.0037844854 -0.06859646 0.09221569 0.0918812 0.0746538 0.03694545 0.051007617
0.048075803 0.010357517 0.07767362 -0.003147731 0.0035058039 0.014939564 -0.06472203 0.08565928
-0.015597167 -0.019432679 0.011353429 -0.0038910946 -0.0052767177 -0.0087672025 0.07641214 0.055895198
0.036182247 0.10467477 -0.06120018 -0.031277873 -0.023587061 0.05290278 -0.046513826 -0.0071071037
0.050866976 0.004515854 0.020154795 0.0333346 0.03133798 -0.0052205883 -0.04089572 0.04753242
-0.024049425 0.017895343 0.058123868 -0.06283588 0.05097818 0.0768419 0.029587403 -0.049224053
-0.011650871 -0.035038695 0.0626144 0.0395484 -0.048953466 0.06805392 -0.022817748 0.06056341
-0.028878827 -0.027239535 -0.03241015 0.07722896 0.02053886 -0.012244234 0.0732647 -0.036456827
0.05321256 0.063742295 0.059234858 0.070119016 -0.031156106 0.07782396 -0.013062721 0.033974767
0.027153047 0.05353434 0.05281502 0.055358928 0.01598862 0.0019808193 -0.057138145 0.02890532
-0.0025656621 -0.003836477 0.015954545 0.08146928 -0.029786307 0.0010347186 -0.028646516 -0.051567875
0.083728686 -0.04279577 -0.047399726 0.034745168 0.064666554 -0.027981816 -0.023106046 0.08219375
00000000: 26a0 3c3d dc01 3f3d b55f e43c 1222 aabc
00000010: 47bf 37bd 9674 83bd 21c5 c53a 35df c2bc
00000020: af2f b4bc b151 db3d 743e b3bb 7926 34bd
00000030: 8843 96bc 6951 803d 3a11 a03d 4020 5abd
00000040: 0e8b 8a3b 721a 793d 0f29 bf3c 5bec 133d
00000050: b554 923d b1e2 3a3d 29be 18ba 379a 433c
00000060: 6146 cdbc ba7d 78bd 487a e6bc 38bc 27bd
00000070: 2bdc c43c 9175 7ebd 76ac 79bd b467 0e3d
00000080: 9580 f13b 07f0 553d 15a1 16bd 2143 993d
00000090: 5e5d 893d 7c30 603d 1759 6c3c b74e 4e3c
000000a0: dd86 0dbd b514 4c3c 785a cd3c ffe9 af3c
000000b0: 5dfd c0bc a286 da3c 06b6 123d cf44 85bc
000000c0: 1da3 8d3d 5000 213c 76d9 903d acdf 65bd
000000d0: 2bc2 953d 5011 b63c 78b9 e33c 36d2 4e3d
000000e0: be99 17bd bf5f b3ba f578 5e3b 7641 44ba
000000f0: 1e31 d4ba 7a91 cb3c b54b 33bc 3491 783d
00000100: 00ea 89bb 92e0 843d 4ec0 c63d c15e 2ebc
00000110: 72c2 853d fe02 833d 425e 9bbc eca8 47bd
00000120: 4dca ac3d 8312 75bd f559 c5bc abb6 4ebd
00000130: 78ce 89bb f139 34bd b066 633d 6dd9 7b3d
00000140: 656b 09ba 6c7e 31bd f167 bb3b ebb1 0f3d
00000150: 8122 3e3d da70 6dbd 3dfb 553d 1d71 8b3c
00000160: c3b1 f73a 1133 d63b 647e 373d 758e 55bd
00000170: 0112 7d3d 5226 b73c 6098 7e3c 4103 833d
00000180: 13bf be3d 4a78 91bd 5fa5 6b3d 6473 6c3d
00000190: 9a3d dcbb 12c3 d23d 1aa0 903d cc44 82bc
000001a0: 02da 833c 5cd9 a33d 08d1 c03a d277 533d
000001b0: 18fb 873d f945 01bd 1118 533d b59b 6abd
000001c0: 0d80 563d c186 af3a ef90 773d e22a e63c
000001d0: 4159 d3bb 9071 28bd c0e3 283d 10cd 9f3c
000001e0: 05a3 053d 9be7 823d c0e4 17bc 978a 703d
000001f0: 5a04 8e3d e181 72bd f62f 943d 8368 303d
00000200: 8b33 623d 5357 59bd c0d6 933d 8a49 993c
00000210: c6e5 9b3d 36cf 7cbc f2cf 213c 5649 2fbc
00000220: c19d 593b 700c 8a3d c70c c9bc ac1b 87bd
00000230: 2200 ab3d 21fd f23a 8358 203d f759 9a3d
00000240: 5a49 a03d 7be2 b93c e21c 843d fc29 76bd
00000250: f57d d03c 58a2 8b3d 6d9e 5ebd a102 5b3d
00000260: 7539 193d 26fb 0ebb f934 d93c 7a34 bebc
00000270: fabc 963d 101e 5f3d 073f b83d 3f43 1e3d
00000280: 4d54 56bc 2105 78bb 4d7c 8cbd 94db bc3d
00000290: 362c bc3d 17e4 983d 1d54 173d 5ded 503d
000002a0: 22eb 443d 93b2 293c 5913 9f3d 2a4a 4ebb
000002b0: a1c1 653b 13c5 743c fc8c 84bd 226e af3d
000002c0: 438b 7fbc 4831 9fbc bc03 3a3c bc01 7fbb
000002d0: 51e8 acbb 50a4 0fbc f87d 9c3d 5df2 643d
000002e0: d633 143d ba5f d63d 0aad 7abd 3a1d 00bd
000002f0: a739 c1bc 96b0 583d 4885 3ebd b5e2 e8bb
00000300: e459 503d bbf9 933b ab1b a53c dd89 083d
00000310: 415c 003d 7811 abbb 4582 27bd 5bb1 423d
00000320: 4d03 c5bc 4199 923c 4b13 6e3d 19b0 80bd
00000330: 7fce 503d 495f 9d3d 4861 f23c 299f 49bd
00000340: 4be3 3ebc bc84 0fbd fb3b 803d 81fd 213d
00000350: 6e83 48bd db5f 8b3d 49ec babc 5711 783d
00000360: 4a93 ecbc 7225 dfbc 81c0 04bd 382a 9e3d
00000370: 1c41 a83c 0a9c 48bc ce0b 963d c153 15bd
00000380: 6af5 593d 528b 823d 40a0 723d 8f9a 8f3d
00000390: 173b ffbc 2b62 9f3d 0605 56bc 2029 0b3d
000003a0: 1170 de3c d346 5b3d 9054 583d 0bc0 623d
000003b0: 91fa 823c a2d0 013b b009 6abd daca ec3c
000003c0: ab24 28bb 676d 7bbb 1bb3 823c 5ed9 a63d
000003d0: 6a02 f4bc 659f 873a 19ac eabc d638 53bd
000003e0: f279 ab3d 9e4a 2fbd 3726 42bd f350 0e3d
000003f0: e66f 843d 1f3a e5bc e448 bdbc 3255 a83d
